logs/rl_games/reach/2024-08-03_20-06-08/nn/last_reach_ep_3000_rew_-12.183965.pth (torch, 622332 bytes, 36 tensors)

value_mean_std.running_mean f8 [1]
0	0xbfb305395ffca653	-0.07429846375875941

value_mean_std.running_var f8 [1]
0	0x3fcd7bf6d1b7664c	0.23034558525141546

value_mean_std.count f8 []
0	0x41b7700001000000	393216001.0

running_mean_std.running_mean f8 [33]
0	0x3fb805b63450701b	0.09383715417101295
1	0xbfad903841e84314	-0.05774093441517017
2	0x3f95167b15245500	0.02059356991329242
3	0x3fd0aeccb39c6d6d	0.2606689218534573
4	0x3fbac76d5ad1d5f7	0.1046055170753205
5	0xbfa2d6778c157dfe	-0.03679250321397019
6	0xbf8e2c18564231f7	-0.014732542164233016
7	0x3f87e09fea56dde5	0.011658906306236847
8	0x3f958eb8918bfa2b	0.021052249797316385
9	0xbf89a3d0eb7fed83	-0.01251948565185646
10	0x3f74186c26640c0d	0.00490610357360578
11	0x3fb48a72f5df57e1	0.08023756506676662
12	0x3f95c0f8b25878c3	0.021243940244055858
13	0xbf7cbbdf8fa466fa	-0.0070151074271735895
14	0xbf640e62bb15d768	-0.002448265870664313
15	0x3f6f8c8bcd6253f2	0.003851197291690139
16	0x3f536f0fc331c93d	0.001186147110982263
17	0xbf64abec6918dbe1	-0.002523385752990035
18	0xbfc8bb8b1c710529	-0.19322337044472107
19	0x3ef4de791171f725	1.9902262547769702e-05
20	0xbee4ba2844fa0364	-9.883488160557313e-06
21	0xbfb9999fd0e51131	-0.10000037050219103
22	0x3f4a17a1fdc60115	0.0007962742779881483
23	0x3fefffff5d44f337	0.9999996968905184
24	0x0000000000000000	0.0
25	0x0000000000000000	0.0
26	0x401d06c9ca0f9c9c	7.2566291400936755
27	0xc01c93b08dec67d2	-7.144228189043092
28	0x4020bcdb07b40768	8.368858566976726
29	0x401ea460aac74488	7.66052500573381
30	0x40209c3da06634b9	8.305157673336327
31	0xc01ea724a7028040	-7.663225755241058
32	0xc01cfa6e6712ec9f	-7.244561777620361

running_mean_std.running_var f8 [33]
0	0x3fd3ba86fa2409b2	0.3082597201138483
1	0x3fbcf7bc6bb25787	0.11315515164673516
2	0x3f68d3652315c68a	0.0030304885228183464
3	0x3ffa58451f109edd	1.6465502942536923
4	0x3fce5dec00756b79	0.23724126837154438
5	0x3fa3c7d326e289a7	0.038633917328542204
6	0x3f7030c826662d75	0.003952771984028093
7	0x3f7309f60a7b22be	0.004648171517779685
8	0x3fc938a694d5f2d5	0.19704134242410612
9	0x3fc15fbb429731e3	0.13573399306768782
10	0x3f839f4d5c596c27	0.00958118856504171
11	0x3fd99cd82eefe4d0	0.4001980265016529
12	0x3fc97de1d6de8b85	0.1991541194120964
13	0x3fbed9efe6edd4f7	0.1205129565040187
14	0x3f9a5c1496ed13b8	0.02574188395671559
15	0x3f9f5646467dd842	0.030602548649277368
16	0x3fa5413d288704d9	0.041513358304209276
17	0x3f99bb7182aca201	0.02512910232613486
18	0x3f68839c463035fe	0.002992444251055159
19	0x3f4b4ee80f1fc50e	0.000833380994889195
20	0x3f4b4f50e52bd908	0.000833429813012627
21	0x3f217d1b28366c1b	0.00013342815882996868
22	0x3e35d868aa71a602	5.086266219921633e-09
23	0x3e45d86753e70872	1.0172522932407685e-08
24	0x3e35d867c20fa9ed	5.086262994963101e-09
25	0x3e35d867c20fa9ed	5.086262994963101e-09
26	0x408d9eafa7ab605f	947.8357690228257
27	0x408fc5596753d5af	1016.6686541127764
28	0x408b97ff03f5e683	882.9995192728969
29	0x408e666e03c07503	972.8037180934629
30	0x40900d551fdf3b21	1027.333129394516
31	0x408e9bf49c2d3098	979.4944385080771
32	0x408e97b32636693b	978.962475228392

running_mean_std.count f8 []
0	0x41a7700002000000	196608001.0

a2c_network.sigma f4 [7]
0	0xc08fe4c5	-4.496676
1	0xc08fdf09	-4.495976
2	0xc09694d3	-4.705667
3	0xc08d429c	-4.414381
4	0xc091101c	-4.5332165
5	0xc08e377d	-4.4442735
6	0xc08ea568	-4.457691

a2c_network.actor_mlp.0.weight f4 [256, 33]
0	0xbccd7617	-0.025080724
1	0xbdae3d08	-0.085077345
2	0x3c56bda1	0.0131067345
3	0x3d348a60	0.044077277
4	0x3d50cb64	0.05097522
5	0xbdf57472	-0.11985101
6	0xbcff9a0a	-0.031201381
7	0x3ca53745	0.020167956
8	0xbd1497ec	-0.036277696
9	0x3adb3203	0.0016723279
10	0xbdeaaa28	-0.11458236
11	0x3ce02dca	0.027365584
12	0x3d643216	0.05571183
13	0x3dc788d7	0.09742897
14	0xbd8d46e6	-0.068982884
15	0x3d604bf4	0.054759935
16	0x3c683d7c	0.014174815
17	0xbb56edc9	-0.003279554
18	0xbe7acec8	-0.24492943
19	0x3a8bc3a1	0.001066316
20	0x3adc039e	0.0016785746
21	0xbc40ff36	-0.011779597
22	0x3dbd2b60	0.09236789
23	0x3e147cf2	0.14500788
24	0xbb46759c	-0.0030282503
25	0x3e0b8116	0.13623461
26	0xbc469df9	-0.012122625
27	0xbdc0b222	-0.09408976
28	0xbd61c81e	-0.055122487
29	0x3e04813e	0.12939927
30	0xbd875027	-0.06607085
31	0xbd9e85d6	-0.07740371
32	0xbd563568	-0.052297026
33	0x3d8349ea	0.06410582
34	0xbe1ed8ef	-0.15512441
35	0xbd24f719	-0.040274713
36	0xbd5a6749	-0.053321157
37	0xbdcd8377	-0.100348406
38	0xba1a562c	-0.00058874744
39	0x3e39fa44	0.18161875
40	0xbe414d2d	-0.18877096
41	0xbd875dfe	-0.066097245
42	0x3de47341	0.111547954
43	0x3e0c964c	0.13729209
44	0xbe055ff8	-0.1302489
45	0x3d21a672	0.039465375
46	0x3dcd5320	0.100256205
47	0xbf377add	-0.7167185
48	0xbecc8c87	-0.39950964
49	0x3c866d57	0.01640956
50	0x3d011e87	0.031523254
51	0x3efc0070	0.49219084
52	0xbb560239	-0.0032655133
53	0x3abfecda	0.0014642731
54	0x3bc7d15f	0.006097957
55	0xbdde5838	-0.1085667
56	0x3d605648	0.054769784
57	0x3d16bcfe	0.03680133
58	0xbd35ca8d	-0.04438262
59	0x3e41d870	0.1893022
60	0x3ddb5425	0.10709409
61	0xbd1f1892	-0.03884179
62	0xbe5d1ea2	-0.21593717
63	0x3d967dd6	0.0734822
64	0xbbdd63c0	-0.006756276
65	0xbcf983ff	-0.030458448
66	0x3d009957	0.031396236
67	0xbd1dbf6f	-0.038512643
68	0x3d5ca6c5	0.05386998
69	0x3cbd5376	0.023111086
70	0xbc17dc9d	-0.009268907
71	0xbe04012d	-0.12891074
72	0x3b461ff8	0.0030231457
73	0xbe7aa63f	-0.2447748
74	0xbc036a0b	-0.008020888
75	0x3c673da6	0.014113819
76	0xbd9956c8	-0.07487255
77	0xbcfc73fd	-0.030817026
78	0x3d51bc3b	0.0512049
79	0x3d3bf965	0.045892138
80	0xbdb4cf1f	-0.08828568
81	0xbcebf86c	-0.02880498
82	0xbc488475	-0.0122386115
83	0x3c6fa3a3	0.014626416
84	0xbe5ed5ac	-0.21761197
85	0x3b9c87bc	0.004776923
86	0x3c151d56	0.0091012325
87	0x3c66eeee	0.014095051
88	0xbd515c0b	-0.05111317
89	0x3cc0e448	0.023546353
90	0xbdf1951d	-0.11796019
91	0xbdf4b51c	-0.11948606
92	0xbb8d651b	-0.004315031
93	0xbdff77ad	-0.12473998
94	0xbdb14d2d	-0.08657298
95	0x3e359cd0	0.177356
96	0xbd22bf9a	-0.039733507
97	0x3da820ed	0.08209405
98	0x3c31d930	0.010855004
99	0xbd3adde7	-0.04562178
100	0x3e43e151	0.1912892
101	0xbdbed350	-0.093176484
102	0xbdda3921	-0.10655428
103	0xbc8b09dd	-0.016972477
104	0x3bdcae5c	0.0067346524
105	0x3cb6c33c	0.022309892
106	0xbdd4a697	-0.10383337
107	0xbd6be8c6	-0.057595037
108	0x3c535435	0.0128984945
109	0x3e02c4e7	0.12770425
110	0xbdd0438d	-0.10169134
111	0x3cdc8223	0.026917523
112	0x3d5ebb10	0.054377615
113	0x3f037827	0.5135521
114	0x3e2589e5	0.16165884
115	0xbb20f958	-0.0024562683
116	0xba531f75	-0.00080536987
117	0xbddc487b	-0.10756012
118	0xbbbb55f7	-0.005717035
119	0xbad6b63d	-0.0016381216
120	0xb9329745	-0.00017031755
121	0x3e175ee1	0.14782287
122	0xbe33f497	-0.17573772
123	0x3dbe89ac	0.093036026
124	0x3d7a958e	0.061177783
125	0x3d1f486d	0.03888743
126	0xbdfaa154	-0.12237802
127	0x3e711514	0.23543197
128	0x3da0c102	0.07849313
129	0x3d73cff4	0.05952449
130	0xbcec72c7	-0.028863324
131	0x3dfa3d64	0.122187406
132	0xbce5116d	-0.02796241
133	0xbe2bc58f	-0.16774581
134	0x3dabebbc	0.08394572
135	0x3c7b7437	0.015347532
136	0x3db21ddf	0.08697104
137	0x3cd90805	0.026493082
138	0x3d6bb45c	0.05754505
139	0xbe067416	-0.13130221
140	0xbc2b091a	-0.010439182
141	0x3da29cae	0.079400405
142	0xbd42d038	-0.047561854
143	0xbd0a96cd	-0.03383522
144	0xbcb9aa80	-0.022664309
145	0x3ca27924	0.019833155
146	0xbe97f7a0	-0.2968111
147	0x3d3202e7	0.0434598
148	0x3c909d33	0.017653083
149	0x3c7a729a	0.015286112
150	0x3cfb6d9b	0.030691912
151	0x3b0e2b45	0.002169327
152	0x3996fd5d	0.00028799
153	0x3be9301e	0.0071163317
154	0xbd08c02a	-0.033386387
155	0xbc888b79	-0.016668068
156	0x3c988f3d	0.018622989
157	0xbcfbeaa3	-0.030751532
158	0xbc0be107	-0.008537537
159	0x3c82ab30	0.01595077
160	0x3de35c68	0.111016095
161	0xbd89d1e2	-0.06729485
162	0xbd35b72c	-0.04436414
163	0x3ad98acc	0.0016597151
164	0xbc413841	-0.011793197
165	0x3c8938f8	0.016750798
166	0xbd189821	-0.037254456
167	0xbdecd8a4	-0.115647584
168	0xbc78cbac	-0.015185278
169	0x3d35a7f0	0.04434961
170	0xbd4827e6	-0.048866175
171	0x3b9a4f36	0.0047091497
172	0xbe0d0a98	-0.13773572
173	0x3c97616c	0.018479072
174	0x3b5dec2b	0.003386269
175	0xbd283f63	-0.041076075
176	0x3c73116e	0.0148356985
177	0xbd8783a5	-0.06616906
178	0xbbe37bf7	-0.006942268
179	0xbe22059a	-0.1582245
180	0x3cbe0bdf	0.02319902
181	0xbca35485	-0.019937763
182	0x3b63171f	0.0034651232
183	0xbde00781	-0.10938931
184	0x3b8030b7	0.0039120573
185	0x3b90d5fd	0.0044200406
186	0x3c953b35	0.018216709
187	0xbe10c4ce	-0.14137575
188	0x3d4e68ed	0.050393034
189	0xbda21b30	-0.07915342
190	0xbd0eefee	-0.034896784
191	0xbe4022e1	-0.18763305
192	0x3e52b9a4	0.20578629
193	0x3e2a8d77	0.16655527
194	0xba3b3708	-0.0007141684
195	0xbde78960	-0.11305499
196	0xbe35d08f	-0.1775534
197	0xbdaedcaa	-0.08538182
198	0x3c488a12	0.01223995
199	0xbd921b56	-0.0713412
200	0x3cea1b4b	0.028577467
201	0xbca4855c	-0.020083122
202	0x3db21793	0.08695903
203	0xbd7fa723	-0.062415253
204	0xbd996251	-0.074894555
205	0xbe44cf9b	-0.1921982
206	0xbce04f5b	-0.02738159
207	0x3d64f842	0.05590082
208	0xbdcda50c	-0.10041246
209	0xbdb7cd54	-0.0897471
210	0xbce1c494	-0.027559556
211	0x3d9aabe9	0.075523205
212	0xbe2b4813	-0.16726713
213	0x3d6c1291	0.057634894
214	0xbbc738ae	-0.006079755
215	0x3c80739c	0.015680127
216	0xbdb7a14b	-0.08966311
217	0xb5b3eb6f	-1.340506e-06
218	0x3abc4501	0.0014363826
219	0x3c2517ec	0.010076504
220	0xbd8b70d7	-0.06808632
221	0x3cf092ce	0.029366877
222	0xbe29b2cf	-0.16572116
223	0x3dc776f6	0.09739487
224	0xbd50492d	-0.050851036
225	0xbd541445	-0.051777143
226	0x3dec891c	0.11549589
227	0x3e2d0350	0.16895795
228	0xbc30d8ca	-0.010793874
229	0x3d5f02a8	0.054445893
230	0xbd17373e	-0.036917917
231	0x3b90d8ac	0.0044203606
232	0xbdcb4f93	-0.09927287
233	0x3c0e683e	0.008691845
234	0xbd824bac	-0.063620895
235	0xbd22418a	-0.039613284
236	0x3d805778	0.06266683
237	0x3cc323af	0.023820726
238	0xbe3d3375	-0.1847666
239	0xbd987cf9	-0.07445712
240	0x3debe771	0.11518753
241	0xbdf561e6	-0.11981563
242	0x3d08fc97	0.033444013
243	0xbd930e45	-0.07180456
244	0xbb99cce5	-0.004693615
245	0xbe14136b	-0.14460532
246	0x3d8d77ba	0.06907602
247	0xbb3d4927	-0.0028882714
248	0xbb30c167	-0.0026970746
249	0x3e1f030b	0.15528505
250	0xbac193b8	-0.0014768755
251	0x3b3586c6	0.002769874
252	0x3b83f962	0.0040275315
253	0xbe38dadc	-0.18052238
254	0x3dedf0f0	0.11618221
255	0x3e156fea	0.14593473

a2c_network.actor_mlp.0.bias f4 [256]
0	0x3dad8edc	0.08474514
1	0xbd3da240	-0.04629731
2	0xbc0cdfe6	-0.008598303
3	0xbd01a2e2	-0.031649478
4	0x3cf9f745	0.030513415
5	0xbda8f4ce	-0.08249818
6	0x3d8bea4c	0.06831798
7	0xbc745d31	-0.014914797
8	0xbd9996df	-0.074994795
9	0xbdf6a08e	-0.12042342
10	0x3da08daa	0.0783952
11	0xbc9cb2d8	-0.019128248
12	0x3da1fb8d	0.07909308
13	0x3dcc2da0	0.0996964
14	0x3d0d3162	0.034470923
15	0xbc8a753a	-0.016901601
16	0xbd21dc02	-0.039516456
17	0xbbb168e8	-0.005414117
18	0xbd0c56d4	-0.034262493
19	0xbe1cbd73	-0.15306644
20	0x3d97dfa7	0.07415705
21	0x3d8c9570	0.068644404
22	0xbdfce521	-0.1234839
23	0x3de3e8d9	0.111283965
24	0x3c6ca9e0	0.014444798
25	0x3e333d14	0.17503768
26	0xbba48d16	-0.0050217016
27	0x3dcf4225	0.10120038
28	0x3d3824c5	0.04495694
29	0xbd8e42ec	-0.06946358
30	0xbd7e86d6	-0.06214031
31	0xbd43a309	-0.047762904
32	0x3e21cd9d	0.15801091
33	0x3d95b5ad	0.073100425
34	0x3d98d7db	0.07463046
35	0xbd73b514	-0.05949886
36	0xbe0b9f00	-0.13634872
37	0xbdb9ce8f	-0.09072601
38	0x3d2224a1	0.039585713
39	0xbd865dcb	-0.06560858
40	0xbd868d90	-0.0656997
41	0xbd9653ab	-0.07340177
42	0x3d9cf95b	0.07664748
43	0xbd7dfd29	-0.06200901
44	0x3de2a252	0.110661164
45	0x3e07bc81	0.13255502
46	0x3d194eeb	0.037428778
47	0xbd667c84	-0.05627109
48	0x3ce0d6d4	0.027446188
49	0x3df255e5	0.11832789
50	0x3de0f69a	0.109845355
51	0x3df3b0a7	0.11898928
52	0x3d1b7c2d	0.03796022
53	0x3d50072e	0.050788097
54	0xbddb36e4	-0.10703829
55	0x3c0e6eb7	0.008693389
56	0xbd62d41c	-0.055378065
57	0x3e094a95	0.13407357
58	0xbc8b58a7	-0.017010046
59	0x3d8a6f3a	0.06759496
60	0xbd98d419	-0.074623294
61	0xbd85ff55	-0.06542841
62	0x3d82f7df	0.06394934
63	0x3d57994b	0.052636426
64	0xbe09c8d5	-0.13455518
65	0xbd4198f3	-0.047265004
66	0x3d758891	0.059944693
67	0x3db2da89	0.087330885
68	0xbd6e892b	-0.058236282
69	0x3df66524	0.1203101
70	0xbd96757e	-0.073466286
71	0xbce5be79	-0.028044926
72	0xbda1c048	-0.07898003
73	0x3d89dbe1	0.06731392
74	0xbd022093	-0.031769346
75	0xbdc0b5c4	-0.09409669
76	0x3dae26bd	0.085034825
77	0x3dab1a57	0.08354633
78	0x3debc85b	0.11512824
79	0x3d0ecad4	0.0348614
80	0xbdd1a0be	-0.10235737
81	0x3d68e7c5	0.056861658
82	0xbd851981	-0.06499005
83	0x3e05e036	0.13073811
84	0x3cf76b30	0.030202478
85	0xbd51e724	-0.051245824
86	0xbd8b4ffd	-0.06802366
87	0x3d927a91	0.07152284
88	0x3ce9973e	0.0285145
89	0xbdacffba	-0.084472135
90	0xbdd5654b	-0.10419711
91	0xbd16adf4	-0.03678699
92	0x3e01ca82	0.12674907
93	0xbc75db2d	-0.015005869
94	0x3e0a2ec2	0.13494399
95	0xbcf25d54	-0.029585518
96	0x3db59571	0.08866394
97	0x3e17960e	0.14803335
98	0x3df62c2c	0.12020144
99	0x3dcd08de	0.10011457
100	0x3cd23dca	0.025664229
101	0x3d1a513f	0.03767514
102	0xbded72c3	-0.11594155
103	0x3df0168e	0.11723052
104	0xbe1b6322	-0.15174535
105	0x3d094eeb	0.033522528
106	0x3daacd5f	0.08339953
107	0x3dc391db	0.09549304
108	0xbe14b848	-0.14523423
109	0x3e194cf6	0.14970765
110	0xbe0bb8c0	-0.13644695
111	0xba1f67ba	-0.0006080825
112	0x3e1adb8e	0.15122816
113	0x3db89e4b	0.09014567
114	0xbd87c610	-0.06629574
115	0xbe2298c1	-0.15878583
116	0xbdff7212	-0.12472929
117	0xbc8ba12f	-0.017044632
118	0xbdc90742	-0.098158374
119	0xbd039339	-0.032122824
120	0x3d7d827f	0.06189203
121	0xbd131bed	-0.035915304
122	0xbda02063	-0.07818677
123	0xbdc388ac	-0.095475525
124	0xbd984f6c	-0.074370235
125	0xbd9d4b99	-0.07680435
126	0xbe060b81	-0.13090326
127	0x3d736250	0.05941993
128	0x3c03801e	0.008026151
129	0xbd974111	-0.07385457
130	0x3da11ec6	0.07867198
131	0xbdc3f9e7	-0.095691495
132	0xbdcdf85e	-0.10057138
133	0x3b47ace6	0.0030468046
134	0x3d989cc2	0.07451774
135	0xbd557831	-0.052116577
136	0xbde4e81c	-0.11177084
137	0x3de7ae66	0.11312561
138	0xbcad9818	-0.021190688
139	0xbd1d1d33	-0.038357925
140	0x3e0b9006	0.1362916
141	0xbd91f4f9	-0.07126803
142	0x3cdb02cd	0.026734734
143	0xbd889c6e	-0.066704616
144	0x3dc61a8d	0.09673033
145	0xbd23627d	-0.039888848
146	0x3db42707	0.087965064
147	0x3d81688e	0.0631877
148	0xbd03cbed	-0.0321769
149	0x3cd9383d	0.026516074
150	0xbe02b99a	-0.12766114
151	0x3d99407c	0.074830025
152	0xbd495ab7	-0.049158778
153	0x3d819f28	0.06329185
154	0xbd791393	-0.060809683
155	0x3de66a31	0.11250723
156	0x3dc3b9e1	0.09556938
157	0x3c17141f	0.009221106
158	0xbde8e8e1	-0.11372543
159	0xbd2656d4	-0.04061015
160	0xbd46c303	-0.04852582
161	0x3d4805af	0.048833545
162	0x3da7633c	0.08173224
163	0x3c757e33	0.0149837015
164	0x3ca13583	0.019678837
165	0x3d97930f	0.07401096
166	0x3d531efc	0.05154322
167	0x3c680ade	0.014162747
168	0xbd9a4f60	-0.07534671
169	0x3e009750	0.12557721
170	0x3da9bc4f	0.0828787
171	0xbe077616	-0.1322864
172	0x3df9578a	0.121749
173	0x3d3d8b47	0.046275403
174	0x3a76ea00	0.0009419024
175	0x3c7a4bde	0.015276877
176	0x3d4585c3	0.04822327
177	0x3c83972a	0.016063292
178	0xbdbc9bf4	-0.09209433
179	0x3deef934	0.116686255
180	0x3d5bf4d6	0.05370029
181	0xbd75110c	-0.05983071
182	0xbd19b617	-0.03752717
183	0xbdb82bb3	-0.0899271
184	0xbdb643e0	-0.08899665
185	0xbd30c497	-0.043156233
186	0x3c1cd427	0.009572065
187	0xbd6422eb	-0.055697363
188	0xbdcd4e00	-0.10024643
189	0xbc95c168	-0.0182807
190	0xbe1ed930	-0.15512538
191	0x3d6fd403	0.0585518
192	0xbd051986	-0.032495044
193	0x3cdf5347	0.02726139
194	0xbdbdaead	-0.092618324
195	0xbc6af3ae	-0.014340324
196	0xbda69991	-0.08134759
197	0x3db9be59	0.09069509
198	0xbc9872d5	-0.018609444
199	0x3cb449e8	0.022007897
200	0x3b31330f	0.002703849
201	0x3ac523d8	0.001504059
202	0x3e30e0ce	0.17273256
203	0x3da9bab5	0.08287565
204	0x3a9bba2b	0.0011881044
205	0xbd8ccf18	-0.068754375
206	0x3e09bef4	0.13451749
207	0xbe307f95	-0.17236169
208	0xbc59e397	-0.013298891
209	0x3e6d747c	0.23188967
210	0x3d89aa25	0.067219056
211	0xbd53f71c	-0.051749334
212	0xbdacde4a	-0.08440836
213	0xbce35d98	-0.02775459
214	0xbc9597f9	-0.018260943
215	0xbd34b351	-0.044116322
216	0x3c8dfd86	0.017332803
217	0x3d9d0d3d	0.076685406
218	0x3d0a1297	0.033709135
219	0xbdbb66f5	-0.09150497
220	0xbca948e3	-0.020664638
221	0xbe0aa68d	-0.13540097
222	0x3d6138a5	0.05498566
223	0xbc76b2d0	-0.015057281
224	0xbd81fecf	-0.06347429
225	0x3dc937b9	0.098250814
226	0x3e14e431	0.14540173
227	0xbd1e4b19	-0.038645837
228	0xbd4fad37	-0.0507023
229	0xbca92eee	-0.02065226
230	0xbd819f07	-0.0632916
231	0x3d09c1cc	0.033632085
232	0x3df0b5e1	0.11753441
233	0x3d379962	0.04482401
234	0xbc88b6bc	-0.016688697
235	0xbcb8a4f7	-0.022539599
236	0xbd95d9a3	-0.073169015
237	0x3dea2361	0.11432529
238	0x3c41fa4a	0.011839459
239	0x3d02bf34	0.031920627
240	0x3dbd51ad	0.09244094
241	0xbddca863	-0.10774305
242	0x3d99e0b6	0.07513563
243	0xbd7f5713	-0.0623389
244	0xbbbe57c6	-0.0058088033
245	0xbdd8f732	-0.10594024
246	0x3dd69619	0.104778476
247	0x3e16a3c7	0.14710914
248	0x3db0fa5f	0.086415045
249	0x3dd295ba	0.10282464
250	0x3d45434b	0.04815988
251	0xbce3ede7	-0.027823402
252	0x3b0439b8	0.0020176005
253	0x3e1f481d	0.15554853
254	0x3d9efcf9	0.077630945
255	0x3dbdb178	0.09262365

a2c_network.actor_mlp.2.weight f4 [128, 256]
0	0xbce50426	-0.02795608
1	0x3c65bb86	0.01402176
2	0xbcdc7cb0	-0.026914924
3	0x3b34eb4f	0.0027606075
4	0xbd028837	-0.031868186
5	0x3d08c7a9	0.033393536
6	0x3bbbd2c0	0.0057319105
7	0x3d465c45	0.04842784
8	0xbcffb6d6	-0.031215113
9	0x3ce2c911	0.027683767
10	0x3c07d002	0.008289339
11	0x3d4a7311	0.049426142
12	0xbd088112	-0.033326216
13	0xbb6a53c7	-0.0035755502
14	0x3ca7b90e	0.020473983
15	0xbd04fd20	-0.03246796
16	0x3b3c18cd	0.0028701306
17	0x3cadeab8	0.021230087
18	0xbd593fc1	-0.053039316
19	0xbcf65a8b	-0.030072471
20	0xbb83c900	-0.004021764
21	0xbd765d9f	-0.060147878
22	0x3d330d93	0.043714117
23	0xbc93a4c0	-0.018022895
24	0xbda25573	-0.079264544
25	0xbd5b2333	-0.053500365
26	0x3c1958fa	0.009359593
27	0x3d0faac5	0.035074968
28	0xbab041bf	-0.0013447328
29	0xbb07ae46	-0.002070324
30	0xbce2d67c	-0.027690165
31	0x3bcd965c	0.0062740277
32	0xbd1482af	-0.036257442
33	0x3d4fc85a	0.05072818
34	0xbbb1ce79	-0.005426225
35	0x3d21890a	0.03943733
36	0xbd1dde3e	-0.038542025
37	0xbda8dcc0	-0.0824523
38	0x3d37a9a6	0.044839524
39	0x3c1f2932	0.009714412
40	0x3d0115f4	0.031515077
41	0xbce4f6fc	-0.027949803
42	0x3da3fb56	0.08006923
43	0x3b6088a1	0.0034261125
44	0xbcfaf05f	-0.030632196
45	0x3c3be4f9	0.011468166
46	0x3d6e7152	0.05821354
47	0x3c7d1f57	0.0154493665
48	0x3b29de63	0.0025919906
49	0x3cc3c2bd	0.02389657
50	0x3b2faae8	0.002680475
51	0xbd3863f0	-0.045017183
52	0xbd1ee7f6	-0.038795434
53	0xbcf2c4ce	-0.02963486
54	0x3b0c7e7a	0.002143769
55	0xbd92820b	-0.0715371
56	0x3d3777ad	0.044791866
57	0xbca88af6	-0.020574074
58	0x3c6b1788	0.014348872
59	0x3d9e4c9b	0.07729455
60	0xbd65eeba	-0.05613587
61	0x3d256ab4	0.040384963
62	0xbdcb0f18	-0.09914988
63	0xbd471346	-0.048602365
64	0xbd90a25a	-0.07062216
65	0x3d4260e0	0.04745567
66	0x3d93c396	0.072150394
67	0x3c9db10a	0.019249458
68	0xbcb0b10a	-0.021568794
69	0x3bdce3c3	0.0067410185
70	0xbd62c931	-0.055367652
71	0xbc062931	-0.008188532
72	0x3d2ac025	0.04168715
73	0xbc339531	-0.010960863
74	0xbcc6b787	-0.024257435
75	0x3d8c7ab0	0.06859338
76	0x3cf16f6f	0.029472081
77	0xbc525cd9	-0.012839519
78	0x3cad936e	0.021188464
79	0x3b1a4444	0.0023539225
80	0xbc939dd7	-0.0180196
81	0x3d8ea916	0.06965844
82	0x3c3e2033	0.011604357
83	0x3dd5d87c	0.10441682
84	0x3d231e2e	0.039823703
85	0xbd1a4870	-0.037666738
86	0x3b2c481d	0.00262881
87	0x3cc2559f	0.023722468
88	0x3bc6aac3	0.006062837
89	0x3d53f194	0.05174406
90	0x3c16594a	0.009176562
91	0x3d018dca	0.03162936
92	0x3bd422b8	0.0064738654
93	0x3ca26738	0.01982461
94	0xbce3de89	-0.027816074
95	0xbc2507be	-0.010072647
96	0xbd088a23	-0.033334862
97	0x3d51a9f5	0.051187474
98	0x3d1d70ce	0.038437657
99	0xbd61647e	-0.055027477
100	0xbca763f7	-0.02043341
101	0x3d98099a	0.07423706
102	0xbba7f972	-0.0051261717
103	0x3d089546	0.033345483
104	0xbc42bc0a	-0.011885652
105	0xbcc0457f	-0.023470638
106	0x3d76d0a9	0.060257588
107	0xbc810767	-0.0157506
108	0x3bfe45ba	0.007759777
109	0x3d44075f	0.047858592
110	0x3bc480c5	0.005996796
111	0x3c4cbd51	0.012496308
112	0x3cf148c2	0.029453639
113	0xbc934fcc	-0.017982386
114	0x3c7ab54a	0.015302012
115	0xbc7381b3	-0.014862466
116	0x3d584e7d	0.052809227
117	0x3c676cca	0.014125058
118	0xbc87ba4e	-0.01656833
119	0xbd805b82	-0.06267454
120	0xbd989300	-0.07449913
121	0xbc8c398c	-0.017117284
122	0x3d0c85b2	0.03430719
123	0xbcb1022a	-0.021607477
124	0x3ce42cfd	0.027853483
125	0x3c41e89c	0.011835244
126	0xbd1a6252	-0.03769142
127	0x3d075cca	0.033047475
128	0x3dade83c	0.08491561
129	0x3da535ba	0.08066888
130	0x3d40110a	0.04689125
131	0xbcfd50b2	-0.030922268
132	0xbd1821a7	-0.03714147
133	0xbc91f78e	-0.017818239
134	0x3b705fb8	0.0036678147
135	0xbc90f08b	-0.017692825
136	0xbcc9f258	-0.024651691
137	0xbcff6562	-0.031176273
138	0xbd0e5e48	-0.034757882
139	0xbd1d8172	-0.038453527
140	0x3c985b54	0.018598236
141	0x3d446ddf	0.047956344
142	0xbc63d006	-0.013904577
143	0xbb89c30f	-0.004204161
144	0xbd1d92c1	-0.038470034
145	0x3d0934de	0.033497684
146	0x3d466c8b	0.04844336
147	0xbcbd9760	-0.02314347
148	0x3c5fe9ac	0.013666552
149	0xbcbcaa7d	-0.023030514
150	0x3ce677d2	0.028133307
151	0xbd186214	-0.03720291
152	0xbd0380a4	-0.032105103
153	0x3cc6a52e	0.024248686
154	0x3d2295e1	0.039693717
155	0x3d8eed46	0.0697885
156	0x3a638266	0.00086787937
157	0xbc04dbd0	-0.008109048
158	0xbacaf267	-0.0015483618
159	0x3d048187	0.03235009
160	0xbd6da4e4	-0.05801858
161	0x3b383b33	0.0028111457
162	0xbca20d8a	-0.019781847
163	0x3c705348	0.014668293
164	0x3ceead91	0.029135497
165	0x3bd4d70d	0.0064953626
166	0x3d6bb005	0.057540912
167	0xbd005784	-0.03133346
168	0xbd3b0397	-0.04565772
169	0xbcd7171c	-0.026256137
170	0x3bd78f74	0.0065783802
171	0x3d278ac5	0.040903825
172	0xbce033bb	-0.027368417
173	0x3c78960d	0.015172494
174	0x3c69ca80	0.014269471
175	0xbd01929d	-0.031633962
176	0xbda0518b	-0.07828053
177	0xbb7c1e05	-0.0038470041
178	0x3d8ced51	0.06881202
179	0x3d1c9bf5	0.03823467
180	0x3d26117b	0.040544014
181	0xbc2c993f	-0.010534584
182	0xbd6f32d3	-0.05839808
183	0x3c98f1d0	0.018669993
184	0xbd279fbe	-0.040923826
185	0xbc39a180	-0.0113300085
186	0xbd0c50bd	-0.034256686
187	0xbb85495d	-0.0040675835
188	0xbdc6a75d	-0.09699891
189	0x3c89cf31	0.01682243
190	0xbce005ad	-0.027346456
191	0xbd8f51c1	-0.06998015
192	0xbb8c104c	-0.0042744037
193	0x3d222931	0.039590064
194	0xbcdb08a3	-0.026737517
195	0x3cb3229e	0.021867093
196	0xbd2e2043	-0.042511236
197	0xbc869b07	-0.016431345
198	0x3e085e2a	0.1331717
199	0x3b93c9f4	0.0045101587
200	0xbddfacdb	-0.109216414
201	0xbc2c0ab0	-0.010500595
202	0x3d193779	0.03740642
203	0xbc28fe8b	-0.010314594
204	0x3ce7da96	0.028302472
205	0x3d504fb3	0.050857257
206	0xbd88afad	-0.066741325
207	0xbd00da17	-0.031457987
208	0xbd916834	-0.07099953
209	0xbc822d8a	-0.015890855
210	0xbd3f8a85	-0.046762962
211	0x3c0bf588	0.008542426
212	0x3d8df241	0.06930972
213	0x3d8311ba	0.063998654
214	0x3c9c0b21	0.019048275
215	0xbdcfa320	-0.101385355
216	0x3ca74b64	0.020421691
217	0x39b6da5b	0.00034876433
218	0x3d4c8517	0.049931612
219	0xbc68ecba	-0.014216596
220	0x3c87578f	0.016521243
221	0x3d7af044	0.06126429
222	0x3ce2de16	0.02769379
223	0xbd032f15	-0.032027323
224	0xbc138843	-0.009004655
225	0xbcc63453	-0.024194872
226	0x3d2a9fb8	0.041656226
227	0x3d07c19f	0.033143636
228	0x3c123992	0.008924859
229	0x3a0a2575	0.0005269864
230	0x3dc34946	0.0953546
231	0x3dd74a46	0.105122134
232	0xbc3cfdba	-0.0115351025
233	0x3ba57713	0.005049595
234	0x3c02097a	0.00793683
235	0x3cdbb114	0.026817836
236	0xbc4e669c	-0.012597706
237	0xbd2a23a2	-0.04153789
238	0x3c508872	0.012727844
239	0xbb5c3ba3	-0.0033604882
240	0x3df6570a	0.1202832
241	0xbd6d2a75	-0.05790182
242	0x3cad30d6	0.02114145
243	0xbcba7dbd	-0.022765035
244	0x3cc9c3c2	0.024629477
245	0x3daa5d04	0.083185226
246	0xbd3e926a	-0.04652635
247	0x3d938cef	0.07204615
248	0x3d06a1c5	0.03286912
249	0xbc78bfca	-0.015182445
250	0x3d55046e	0.052006178
251	0x3b4e590e	0.0031486186
252	0xbdde4fd0	-0.10855067
253	0x3cd06e15	0.025443116
254	0xbd17293d	-0.036904562
255	0x3d6e7b55	0.058223087

a2c_network.actor_mlp.2.bias f4 [128]
0	0xbc5bd4ea	-0.013417462
1	0x3bd7691e	0.0065738102
2	0x3bd5d7e2	0.0065259794
3	0xbc24c96c	-0.010057788
4	0xbc885930	-0.01664409
5	0xba54edd7	-0.0008122599
6	0xbcca78ed	-0.024715865
7	0xbca5192f	-0.02015361
8	0xbcdf5e46	-0.027266633
9	0xbc23de6f	-0.010001763
10	0xbc084f17	-0.008319638
11	0xbc87a6ac	-0.016558968
12	0xbc0a9618	-0.008458637
13	0xbc5d0185	-0.013489132
14	0xbc8a1b6e	-0.016858783
15	0xbcd252ad	-0.025674189
16	0xbb9c7bcf	-0.0047755013
17	0xbcdf9418	-0.027292296
18	0xbb2831bf	-0.0025664417
19	0xbb33508f	-0.002736125
20	0x3c2d2284	0.010567311
21	0xbc00c7b4	-0.007860113
22	0xbc3cddfa	-0.011527533
23	0xbb5cf8b5	-0.0033717577
24	0xbe943613	-0.28947505
25	0xbbc46114	-0.005993018
26	0xbc366304	-0.011132006
27	0xbc731b2e	-0.014838023
28	0x3b925919	0.0044661877
29	0xbcf5d5d1	-0.030009182
30	0x3baa1290	0.005190201
31	0x3b887286	0.004164043
32	0xbcc5b08d	-0.024132038
33	0xbd144686	-0.03620007
34	0xbe64bf25	-0.22338541
35	0x3c58a1b6	0.013222149
36	0xbc84b41f	-0.01619917
37	0xbc7e8f69	-0.015537121
38	0xbc446462	-0.011986824
39	0xbd0592cf	-0.03261071
40	0xbd2b6ccc	-0.041851804
41	0xbb86edf5	-0.004117722
42	0x3b953c83	0.0045543327
43	0x3c3e34ef	0.0116093
44	0xbc6ba005	-0.014381413
45	0xbc51ede2	-0.012813063
46	0xbba4c8ab	-0.0050288043
47	0xbbc86859	-0.006115955
48	0xbc5e7212	-0.013577001
49	0xbb1f2cd7	-0.0024288201
50	0xbc67c36e	-0.014145715
51	0x3b3ef9d7	0.0029140615
52	0xbc71a9e2	-0.014749976
53	0xbca62e53	-0.020285761
54	0xbc85247c	-0.016252749
55	0x3b26a158	0.0025425758
56	0xbbfc7cea	-0.0077053206
57	0xbcb94932	-0.02261791
58	0xbd006c05	-0.031353015
59	0xbcbad04d	-0.022804404
60	0xbb190dd1	-0.0023354182
61	0xbb896501	-0.004192949
62	0xbcd57197	-0.02605514
63	0xbc59fa4b	-0.013304303
64	0x3c895e0c	0.016768478
65	0x3c170983	0.009218576
66	0xbc68998a	-0.014196763
67	0xbd19817d	-0.037477005
68	0xbb76faf6	-0.0037686205
69	0xbaf66242	-0.0018797594
70	0xbd32b23a	-0.043627
71	0xbbdf501c	-0.0068149697
72	0xbc936b2e	-0.017995443
73	0x3aa003d4	0.0012208172
74	0xbc07ba98	-0.0082842335
75	0xbcf03344	-0.02932132
76	0xbcd46725	-0.02592809
77	0xbc41c0b2	-0.011825727
78	0xbc61539d	-0.013752845
79	0xbc07e88e	-0.008295191
80	0xbcba9db3	-0.022780275
81	0xbc0aa047	-0.008461065
82	0x3a20d8bf	0.00061358133
83	0xbb5e9e93	-0.003396903
84	0x3b085719	0.0020803867
85	0xbd096153	-0.03354008
86	0xbbd62f5b	-0.006536407
87	0xbc7a4830	-0.015276
88	0xbcc2cc94	-0.023779191
89	0x3c73d481	0.014882208
90	0xbd25e535	-0.040501792
91	0x3ba5699a	0.005047989
92	0xbc813419	-0.015771912
93	0xbcc7766a	-0.024348456
94	0xbba944c9	-0.0051656705
95	0xbc92c797	-0.017917437
96	0xbca13786	-0.019679796
97	0xbd001e8f	-0.031279143
98	0xbe0dc7a7	-0.13845693
99	0x3be12ab1	0.0068715443
100	0xbb9f6be3	-0.004865156
101	0xb9e50cbd	-0.00043687774
102	0xbc0e7ceb	-0.008696775
103	0xbca6aabc	-0.020345084
104	0x3c6f5255	0.014607032
105	0x3914c79b	0.00014188739
106	0xbbf12fb9	-0.0073604253
107	0xbccf6c90	-0.025320321
108	0xbc028962	-0.007967325
109	0xbc2b82be	-0.010468183
110	0xbcd4eb5e	-0.025991138
111	0x3c129c8e	0.008948458
112	0xbc318124	-0.010834012
113	0xbc47e9c6	-0.012201732
114	0xbc373a15	-0.011183281
115	0xbc5ff7ed	-0.01366995
116	0x3b9ecbc6	0.004846069
117	0xbcc84289	-0.024445789
118	0xbba6c9f0	-0.005089991
119	0xbb88b737	-0.0041722315
120	0xbcf599a3	-0.029980486
121	0x3b4c0936	0.003113342
122	0xbb4334b7	-0.002978606
123	0xb9adf6f0	-0.00033181114
124	0x3b34a2c6	0.002756284
125	0xbd2d44c8	-0.042301923
126	0xbcbbb251	-0.022912176
127	0x3a37b03a	0.0007007156

a2c_network.actor_mlp.4.weight f4 [64, 128]
0	0x3cbdebfb	0.023183813
1	0xbc9eca3d	-0.019383544
2	0x3c354c22	0.011065515
3	0xbcc9d29c	-0.02463656
4	0xbcaaab95	-0.02083377
5	0x3d18fbcb	0.037349503
6	0x3bd6bb17	0.0065530646
7	0xbdc354b8	-0.09537643
8	0xbd610e70	-0.05494541
9	0x3d32ecf3	0.043683004
10	0xbd9ac435	-0.07556955
11	0xbd69c430	-0.057071865
12	0xbcd80215	-0.02636818
13	0xbca8d318	-0.02060847
14	0xbcf2269e	-0.02955943
15	0xbcbb182f	-0.02283868
16	0xbd110df6	-0.035413705
17	0x3bddd601	0.006769896
18	0x3ca312a8	0.019906357
19	0x3d406893	0.04697473
20	0x3c77fd99	0.015136146
21	0x3bf0fbab	0.00735422
22	0x3d1e8c36	0.038707934
23	0xbc2ee3d7	-0.010674438
24	0xbd6f2fd6	-0.05839523
25	0x3dc5ad9f	0.09652256
26	0xbbfcbfe7	-0.007713306
27	0xbd2976f3	-0.041373204
28	0xbbb97dd4	-0.005660752
29	0xbd64b770	-0.055839002
30	0xbc878321	-0.01654202
31	0xbde17014	-0.11007705
32	0xbbe068d0	-0.006848432
33	0xbd408cff	-0.047009464
34	0x3caecfb2	0.021339271
35	0x3d377807	0.0447922
36	0xbbb8aa99	-0.005635571
37	0x3c9805ec	0.018557511
38	0xbacc0968	-0.0015566768
39	0xbd17a631	-0.037023727
40	0xbbf5c7b7	-0.0075006145
41	0x3c84a3c6	0.016191375
42	0xbc9bab1f	-0.019002495
43	0x3cf60d7a	0.030035723
44	0xbcd6ce47	-0.026221408
45	0xbcc0eb16	-0.023549598
46	0xbc72f29d	-0.014828351
47	0x3cd661f7	0.02616976
48	0xbd1efcad	-0.03881519
49	0xbcd4f1c5	-0.025994191
50	0xbb8c9989	-0.0042907638
51	0xbc4e51dc	-0.012592759
52	0xbc861c87	-0.016371025
53	0x3b558f06	0.003258647
54	0x3ce5a392	0.028032098
55	0x3cf3ac76	0.029745322
56	0x3bcce897	0.006253313
57	0x3c77362c	0.015088599
58	0xbbffb793	-0.007803866
59	0x3dc36fe2	0.09542824
60	0xbd89b86b	-0.06724628
61	0xbcca6935	-0.02470837
62	0xbdef2256	-0.11676471
63	0xbd9ea41f	-0.07746147
64	0x3c79653e	0.015221892
65	0xbd93487e	-0.07191561
66	0xbd8f74c4	-0.07004693
67	0xbd6407fd	-0.05567168
68	0xbbdc9604	-0.0067317504
69	0x3c304fcd	0.0107612135
70	0x3d4a0290	0.04931885
71	0xbc4b152c	-0.0123951845
72	0x3daa246e	0.0830773
73	0xbd8307b8	-0.063979566
74	0x3da3751e	0.07981323
75	0xbbf53ad2	-0.0074838186
76	0x3d53635f	0.05160844
77	0x3d4d838f	0.050174292
78	0xbd34ec4a	-0.044170655
79	0x3cf686b6	0.030093532
80	0xbcfcf700	-0.030879498
81	0xbd411aa3	-0.047144543
82	0xbc882658	-0.016619846
83	0xbd0048d7	-0.031319465
84	0x3d031049	0.031997953
85	0xbdadb0e0	-0.08481002
86	0x3d49ad03	0.049237262
87	0xbcbccd62	-0.023047153
88	0x3ceb092f	0.028690903
89	0xbcc4d3f3	-0.024026847
90	0x3c276526	0.010216987
91	0x3c2f4eb8	0.01069992
92	0x3d2decb2	0.04246206
93	0xbd48eb6b	-0.049052637
94	0xbbb7d39c	-0.0056099426
95	0xbc41b3c7	-0.011822647
96	0x3c491d23	0.012275013
97	0xbd54f9ce	-0.051996045
98	0xbd1ecaa4	-0.038767472
99	0xbd98da76	-0.07463543
100	0xbc92bbf0	-0.017911881
101	0x3c096be7	0.008387542
102	0xbd36399f	-0.044488546
103	0xbceacaac	-0.028661095
104	0x3cb060ed	0.021530593
105	0x3d245110	0.04011637
106	0xbc11a3f2	-0.008889185
107	0x3d76cb6d	0.060252596
108	0xbde0898a	-0.109637335
109	0x3c0cb407	0.008587844
110	0xbde7d895	-0.113206066
111	0x3daff2b5	0.085912146
112	0xbdadc81a	-0.08485432
113	0x3c44c2d7	0.012009344
114	0xbcc42d20	-0.023947299
115	0xbd221b1b	-0.03957663
116	0xbdab203f	-0.0835576
117	0xbd9386cf	-0.07203447
118	0x3b645c67	0.0034845115
119	0xbd3771b4	-0.04478617
120	0x3b9bb85e	0.004752203
121	0x3b9de666	0.0048187254
122	0x3c523d1d	0.012831953
123	0x3d880a14	0.06642547
124	0x3daf3aca	0.08556135
125	0xbd94e8ed	-0.072709896
126	0x3c1c822f	0.009552523
127	0x3c125d72	0.008933412
128	0xbc25a601	-0.010110379
129	0xbb4addd1	-0.0030954967
130	0x3b8b55e2	0.0042521814
131	0xbcea53ce	-0.028604414
132	0xbc86ad3e	-0.01644003
133	0xbb0ae207	-0.0021191852
134	0x3c003737	0.007825664
135	0xbd4cccfb	-0.050000172
136	0xbd7c23bc	-0.061557516
137	0xbd464cef	-0.048413213
138	0x3d4bd2c7	0.04976156
139	0xbc64a8d1	-0.013956265
140	0xbad600ea	-0.0016327177
141	0x3be20a3a	0.0068981918
142	0x3d8c6253	0.06854691
143	0x3c96075e	0.01831406
144	0xbd6bc901	-0.05756474
145	0x3d51043d	0.051029433
146	0xbc5e4172	-0.013565408
147	0xbc456463	-0.01204786
148	0x3cfc0467	0.030763818
149	0xbce3040e	-0.027711894
150	0xbc602745	-0.013681238
151	0xbc49ad7d	-0.012309429
152	0xbe1e1c29	-0.1544043
153	0xbcbaf30f	-0.022820977
154	0x3cd1802d	0.025573814
155	0x3bcd32e4	0.00626217
156	0xbd0b84a4	-0.034062043
157	0xbd37aa6c	-0.04484026
158	0xbdc9d84d	-0.09855709
159	0xbcfebfd5	-0.031097332
160	0x3c91e06f	0.017807214
161	0xbc068dfc	-0.008212563
162	0xbd8ba3c4	-0.06818345
163	0xbd6e0ee9	-0.05811969
164	0xb9db0781	-0.00041776526
165	0xbd25f6f1	-0.040518705
166	0x3c980ffe	0.018562313
167	0xbcd54da8	-0.026038006
168	0xbd35f0ef	-0.044419225
169	0x3d596b31	0.05308074
170	0x3d91cabd	0.071187474
171	0x3d1f748b	0.038929503
172	0x3db424e1	0.087960966
173	0xbd28475e	-0.041083686
174	0xbc869037	-0.016426189
175	0x3d0e5279	0.03474662
176	0xbd180fc7	-0.03712442
177	0x3d02fbe9	0.03197852
178	0xbd5f639d	-0.054538358
179	0xbd3a2829	-0.045448456
180	0x3d1ed283	0.03877498
181	0xbd3bc24d	-0.045839597
182	0x3db24d23	0.08706119
183	0x3d3f8a78	0.046762913
184	0xbd543068	-0.051803976
185	0xbd363f0b	-0.044493716
186	0xbb1e1858	-0.0024123397
187	0xbcf88f9c	-0.030341916
188	0x3d27f472	0.041004606
189	0xbc94c4b6	-0.018160205
190	0x3c768348	0.015045948
191	0x3cf319de	0.02967542
192	0xbc5096c1	-0.012731255
193	0x3cf2deb0	0.029647201
194	0xbd6ade41	-0.057340864
195	0xbd5be188	-0.05368188
196	0xbd36a03b	-0.0445864
197	0xbd50a15b	-0.05093513
198	0xbd05b0d7	-0.03263935
199	0x3d219d8f	0.0394569
200	0xbd4b48e6	-0.04963007
201	0xbd076b50	-0.033061326
202	0xbbb70a44	-0.0055859406
203	0xbc6a4558	-0.014298759
204	0x3bf459f9	0.0074570146
205	0x3d308ec9	0.04310492
206	0x3c874188	0.01651074
207	0x393f5cf4	0.00018249807
208	0xbba8f638	-0.0051563047
209	0x3c05b8c0	0.008161724
210	0x3c8de7c1	0.017322423
211	0xbc91d1e6	-0.017800283
212	0xbc4db84c	-0.012556147
213	0xb9381ee5	-0.00017559117
214	0x3d42aa77	0.04752585
215	0x3c8f5167	0.01749487
216	0x3c7004db	0.014649595
217	0xbc4720e6	-0.01215384
218	0xbcb8ca51	-0.02255741
219	0x3ce05a59	0.027386831
220	0xbbe06784	-0.0068482775
221	0xbc2e7e7c	-0.010650273
222	0xbd8f9a28	-0.07011825
223	0xbd885130	-0.0665611
224	0x3b980937	0.0046397704
225	0xbd082ea2	-0.033247598
226	0x3bc6b822	0.006064431
227	0xbd1eddc9	-0.03878573
228	0xbc25265b	-0.010079945
229	0x3ab47a69	0.0013769391
230	0xbd091060	-0.033462882
231	0xbce95a7c	-0.02848553
232	0xbd27a544	-0.040929094
233	0x3c97e1de	0.018540319
234	0xbc7f3704	-0.015577082
235	0xbb0e967f	-0.0021757183
236	0x3c848718	0.016177699
237	0xbcc7cadb	-0.024388721
238	0xbd5f357a	-0.05449436
239	0x3c269fcc	0.0101699345
240	0xbd4d21f7	-0.05008122
241	0xbca866f2	-0.0205569
242	0x3d1ba614	0.03800018
243	0xbd080d7a	-0.033215977
244	0xbd011f3e	-0.031523935
245	0xbd23c5e1	-0.039983634
246	0xbcaa699b	-0.02080231
247	0x3c4b3071	0.012401686
248	0xbd0e90cf	-0.03480607
249	0xbbab6c27	-0.0052313986
250	0xbc0c6b36	-0.008570483
251	0x3d835d08	0.06414229
252	0xbc74bf90	-0.01493825
253	0x3c8e342d	0.017358864
254	0x3bf13232	0.00736072
255	0xbc2682c8	-0.010163017

a2c_network.actor_mlp.4.bias f4 [64]
0	0xbcc9eba2	-0.024648491
1	0xbd65b486	-0.056080364
2	0xbd1c20b3	-0.038117122
3	0xbcc4a0ad	-0.024002397
4	0xbbe74079	-0.0070572463
5	0xbe1ca8a6	-0.1529871
6	0xbdde48cd	-0.108537294
7	0xbc912803	-0.017719274
8	0xbda1b506	-0.078958556
9	0xbcc5d129	-0.024147587
10	0xbc44c724	-0.012010369
11	0x3cafcaad	0.021458948
12	0xbcb4177b	-0.021983853
13	0xbd94ceca	-0.072660044
14	0xbd2eff24	-0.04272379
15	0xbcccb44f	-0.024988322
16	0xbd483cda	-0.048886158
17	0xbdd1cbcd	-0.1024395
18	0xbc61a6e4	-0.0137727
19	0xbd6984e9	-0.05701152
20	0xbd54a658	-0.05191645
21	0xbd1db1a2	-0.038499482
22	0xbd23d38b	-0.039996665
23	0xbc0b5ab4	-0.008505512
24	0xbd6fbf7e	-0.05853223
25	0xbd22dbc9	-0.039760385
26	0xbdb4baa3	-0.08824661
27	0xbd25c408	-0.040470153
28	0x3caf0d53	0.021368658
29	0xbda5d234	-0.08096734
30	0xbdc39f51	-0.095518716
31	0xbd02a1eb	-0.0318927
32	0xbd5cd841	-0.053917173
33	0xbd0e9034	-0.03480549
34	0xbd9157cd	-0.07096825
35	0xbd44b2b6	-0.048021995
36	0x3c3ecb97	0.011645219
37	0xb9ddd9b8	-0.00042314618
38	0xbd4b9024	-0.04969801
39	0xbce96914	-0.028492488
40	0xbe2dc0fe	-0.16968152
41	0xbd010439	-0.031498168
42	0xbc9666f0	-0.018359631
43	0xbcaf84b6	-0.021425586
44	0xbd09e5ac	-0.033666298
45	0xbc2fe044	-0.010734621
46	0xbd49e6f3	-0.049292516
47	0xbcb4d4ed	-0.022074187
48	0xbc7327ea	-0.014841059
49	0xbd237d6d	-0.039914537
50	0xbc0ccf85	-0.008594398
51	0xbe47ca4e	-0.19510767
52	0xbd2dcc11	-0.04243094
53	0xbcf72153	-0.030167257
54	0xbc8ca795	-0.017169753
55	0xbabd32e3	-0.0014434721
56	0xbce5b8a8	-0.028042153
57	0xbc5a9d6d	-0.013343197
58	0xbcb4606a	-0.02201863
59	0xbc383b19	-0.011244559
60	0xbd2b64ee	-0.0418443
61	0xbca86b81	-0.020559074
62	0xbd846798	-0.064650714
63	0xbd1785bc	-0.036992773

a2c_network.value.weight f4 [1, 64]
0	0xbd0cf35a	-0.034411766
1	0xbc0d75a6	-0.008634007
2	0x3b2017dd	0.0024428286
3	0xbcbdcff0	-0.023170441
4	0xbb799c14	-0.0038087415
5	0x3d24262f	0.040075477
6	0x3bc7de4b	0.0060994974
7	0xbd0d3364	-0.034472838
8	0xbc31c33f	-0.010849773
9	0xbcad9131	-0.021187397
10	0xbc82d9a8	-0.015972927
11	0xbc42a291	-0.011879579
12	0xbc77189b	-0.01508155
13	0xbc89a49f	-0.01680213
14	0xbc314548	-0.010819741
15	0x3c5e1887	0.013555652
16	0x3c845e6a	0.016158301
17	0xbca6a640	-0.020342946
18	0xbcef8291	-0.029237064
19	0x3cc0c176	0.02352975
20	0x3cad624e	0.02116504
21	0x3d0d653f	0.034520384
22	0x3c991a5e	0.01868933
23	0xbd4b8447	-0.049686696
24	0x3c974f7f	0.018470524
25	0xbd134e63	-0.035963427
26	0xbc8f9a8f	-0.017529754
27	0xbbe39bfe	-0.006946086
28	0xbd0e86c7	-0.034796502
29	0xbc4d80d8	-0.012542926
30	0x3a9b20d9	0.0011835351
31	0xbc873e1d	-0.01650911
32	0xbbe2ab2e	-0.006917379
33	0x3b49834d	0.0030748427
34	0xbcdd6890	-0.027027398
35	0xbc074892	-0.008257048
36	0xbc961741	-0.018321635
37	0xbb7c82ce	-0.0038530114
38	0x3cd94ab3	0.026524877
39	0xbb290fa2	-0.0025796671
40	0x3d6280bf	0.055298563
41	0x3bf32ba0	0.007420972
42	0xbc3e739c	-0.011624243
43	0xbbf4fba2	-0.007476286
44	0xbd2408ed	-0.040047575
45	0xbc36c3ec	-0.01115511
46	0xbc69c2b6	-0.014267614
47	0xbce247b8	-0.027622089
48	0xbb9b870e	-0.0047463244
49	0xbcb8e207	-0.022568716
50	0x3c04b3a1	0.0080994675
51	0x3dc60d72	0.09670533
52	0xbbdee2a7	-0.0068019214
53	0xbc2c647b	-0.010522003
54	0x3ca7b883	0.020473724
55	0xbc1518fa	-0.009100193
56	0xbb8a47c0	-0.004219979
57	0xbb1fc8b8	-0.0024381112
58	0xbc2b6d9d	-0.010463146
59	0xbc8b47ee	-0.017002072
60	0x3c726500	0.014794588
61	0xbc253c93	-0.010085243
62	0xbc936d2b	-0.017996391
63	0x3c9a9214	0.018868484

a2c_network.mu.weight f4 [7, 64]
0	0xbc066883	-0.0082036285
1	0xbc0b8e0b	-0.008517752
2	0x3b390fcf	0.0028238182
3	0x3bf74e53	0.007547179
4	0x3c935e0b	0.01798918
5	0xbbb2e10d	-0.005458957
6	0xbc173af0	-0.00923036
7	0xbb4309d4	-0.0029760497
8	0xbc388c10	-0.011263862
9	0x3c981506	0.018564712
10	0xbb8416c6	-0.004031035
11	0x3b89237e	0.004185139
12	0x3c664759	0.014055097
13	0xbba067a8	-0.0048951693
14	0x3beb535e	0.007181569
15	0x3bc61b72	0.006045752
16	0xb754ca1d	-1.2683243e-05
17	0xbbcd9e1b	-0.006274951
18	0x3be035d3	0.006842354
19	0x3c5818b6	0.013189485
20	0x3cae47eb	0.021274528
21	0x3ca33da4	0.019926853
22	0x3c473e04	0.012160782
23	0xbb2de174	-0.0026532086
24	0x3c83844c	0.016054295
25	0xbbb9a39c	-0.0056652557
26	0xbbd15027	-0.0063877287
27	0x3c6555cb	0.013997505
28	0xbd2164cd	-0.03940277
29	0xbcce6889	-0.02519633
30	0xbba32122	-0.004978315
31	0x3bee9855	0.007281343
32	0x3bdbe6f9	0.0067108837
33	0x3c41ec99	0.011836194
34	0x3c1b6ebe	0.009486852
35	0xbc79df8e	-0.0152510535
36	0xbcea8970	-0.028629988
37	0x3cc38f8c	0.02387216
38	0x3c64e5f2	0.013970839
39	0x3ba5ec02	0.0050635347
40	0xbc0cd8a9	-0.008596578
41	0x3c601ab8	0.013678245
42	0xbca42227	-0.020035816
43	0xbc1e08dc	-0.009645667
44	0x3c68ed4c	0.014216732
45	0x3c98d692	0.018657003
46	0xbbc4d241	-0.0060065095
47	0xbc1bd9a7	-0.009512342
48	0x3c3b414d	0.011429143
49	0xbbd83450	-0.006598033
50	0xbbb89c09	-0.005633835
51	0x3b515e75	0.003194717
52	0x3b04959b	0.0020230773
53	0x3c076c14	0.008265514
54	0x3c18467d	0.0092941495
55	0xbcaef199	-0.021355437
56	0x3c94b124	0.018150873
57	0x3c15b662	0.009137722
58	0x3c92fd59	0.017943071
59	0xbbf2d04c	-0.007410085
60	0x3c1632cb	0.009167383
61	0x3c92eff1	0.017936679
62	0xbc3caf71	-0.011516438
63	0x3cd138a3	0.025539702
64	0xbb88c5ae	-0.004173956
65	0x3c12f922	0.008970531
66	0xbc2ffb42	-0.010741057
67	0xbbafa72d	-0.005360505
68	0xbba5fa0f	-0.0050652097
69	0x3be883f2	0.007095807
70	0x3b3e7d47	0.002906637
71	0xbbd396ed	-0.0064572007
72	0x3bedc62e	0.007256291
73	0xbc5cb5f4	-0.013471115
74	0x3b8c649a	0.0042844536
75	0x3ac87c9b	0.0015295924
76	0xbc28877a	-0.010286206
77	0x3aef7985	0.0018270469
78	0xbab956b9	-0.0014140225
79	0xbbd6d855	-0.0065565505
80	0xbb9115cd	-0.0044276477
81	0x3b6037a3	0.003421285
82	0xbbaa3b7c	-0.0051950794
83	0x3a2e17ba	0.0006641109
84	0x395eb050	0.00021237251
85	0xbbec098e	-0.0072032874
86	0xba467887	-0.00075710606
87	0x3a58e5fe	0.00082740176
88	0xba60d14d	-0.000857611
89	0x3bb7643d	0.005596666
90	0x3b84b33b	0.0040496862
91	0xbbbcbd67	-0.005759883
92	0xbb071b35	-0.0020615582
93	0x3c8d7d72	0.017271731
94	0xb95fc3b2	-0.0002133984
95	0x39361cff	0.00017367674
96	0xbc005fe6	-0.007835364
97	0xba74937d	-0.0009329839
98	0xbbb30447	-0.0054631564
99	0x3c7dc89b	0.015489723
100	0x383a8276	4.4467357e-05
101	0xbc8b269e	-0.016986188
102	0x3b8c5178	0.004282173
103	0x3c21543a	0.009846741
104	0x3ad6213c	0.0016336809
105	0x3b6b846f	0.003593709
106	0xbb639f92	-0.0034732562
107	0x3b96e792	0.004605242
108	0xbbb7b565	-0.0056063407
109	0xbbe5a524	-0.0070082117
110	0x3c1d571f	0.009603291
111	0xba0c985d	-0.000536328
112	0xbaad60a4	-0.0013227654
113	0x39902bc0	0.00027498417
114	0x3afa5209	0.0019097935
115	0xbb970e0d	-0.0046098293
116	0xbbf32bda	-0.007420999
117	0x39f3f38f	0.00046530037
118	0xbb560cae	-0.0032661366
119	0xbc3a16f0	-0.011358008
120	0xbb527e9b	-0.003211892
121	0x3b80be4b	0.0039289347
122	0xbbd52aff	-0.0065053697
123	0xba5cd4f7	-0.0008424068
124	0xbbe29e50	-0.006915845
125	0xbc150372	-0.00909506
126	0x3b9cf016	0.0047893627
127	0xbbc16685	-0.005902114
128	0x39fcf913	0.0004825076
129	0x3c67cddc	0.014148202
130	0xbc02e03d	-0.007988033
131	0x3a8c94ff	0.0010725557
132	0x3ae084b7	0.0017129396
133	0xbc9cb15f	-0.019127546
134	0xbc331196	-0.010929486
135	0xba7d12ac	-0.00096539664
136	0x3b5c5659	0.0033620803
137	0xbc01dc57	-0.007926068
138	0xbaa58b84	-0.001263008
139	0x3940038f	0.00018311873
140	0xbb503531	-0.0031769986
141	0xba3bdfdb	-0.0007166841
142	0x3b567a15	0.0032726575
143	0x3b313634	0.0027040364
144	0xbbcbe71c	-0.0062226187
145	0xb96dd1d2	-0.00022680245
146	0x3bd4098b	0.006470864
147	0xbc180e33	-0.009280729
148	0xbba88c7d	-0.0051437006
149	0xbca2effa	-0.01988982
150	0xbbb98f1e	-0.005662813
151	0xbac08368	-0.00146876
152	0xbbc899bf	-0.0061218436
153	0x3b92928b	0.0044730357
154	0xbb152306	-0.0022756471
155	0xbc236688	-0.009973176
156	0x3c942ce1	0.018087806
157	0x3bebcca2	0.007196025
158	0xbbb1ae74	-0.0054224078
159	0x3a8db303	0.0010810796
160	0x3b8386c4	0.004013868
161	0x3c0530a5	0.008129274
162	0x3bedce7e	0.007257282
163	0x3c834eef	0.01602885
164	0x3c2989f7	0.010347835
165	0x3bd7e914	0.0065890644
166	0x3b4c1503	0.0031140454
167	0xbc1b56ff	-0.009481191
168	0xbc67234e	-0.014107538
169	0xbbb59215	-0.005541096
170	0xbbc37275	-0.005964572
171	0x3b330750	0.002731759
172	0xbb7568c3	-0.0037446476
173	0xbbe16a40	-0.006879121
174	0x3c251b72	0.010077344
175	0x3aac7fc2	0.0013160633
176	0xbc16fb18	-0.009215139
177	0x3b07845d	0.002067826
178	0xbb02078b	-0.0019840922
179	0xbc27edcc	-0.010249566
180	0xbb8c8794	-0.004288623
181	0xbba0c997	-0.004906844
182	0x3b177253	0.0023108914
183	0x3bbf20af	0.0058327536
184	0xb9a239d6	-0.0003094214
185	0x3abe06c7	0.0014497869
186	0xbc3fec27	-0.011714018
187	0x3c3cadb0	0.01151602
188	0x39154cdb	0.00014238378
189	0xbb964a9b	-0.0045865304
190	0x3b2964b8	0.0025847387
191	0xbc56bf0d	-0.0131070735
192	0xbc187d09	-0.009307154
193	0x3c1ed536	0.009694388
194	0xbb4bb0af	-0.0031080653
195	0x3c060f52	0.008182364
196	0x3c10b509	0.008832225
197	0xbc84cd98	-0.016211316
198	0xbc415cab	-0.011801879
199	0xbad4c749	-0.0016233708
200	0x3a3ee24d	0.0007281646
201	0xbd4e29b6	-0.050332747
202	0x39f14bd5	0.000460236
203	0x3bf6c412	0.0075306976
204	0xbc68d3a0	-0.014210612
205	0x3be5b9fb	0.007010696
206	0x3bfbd617	0.0076854336
207	0x3c10b77b	0.008832808
208	0x3b1d81f9	0.0024033769
209	0x3b723041	0.003695503
210	0x3b7b4479	0.0038340373
211	0xbcc4fcf5	-0.0240464
212	0xbccb1097	-0.024788184
213	0xbd24cd16	-0.040234648
214	0xbb9b407b	-0.0047379113
215	0xbc676da9	-0.014125266
216	0xbc7f2d3c	-0.01557475
217	0xbc9e3a1c	-0.019314818
218	0x3ad42330	0.0016184803
219	0xbcb0f2a1	-0.02160007
220	0x3cd43b79	0.025907265
221	0x3dcf9bff	0.10137176
222	0xbbfb931f	-0.0076774503
223	0xbc3f048d	-0.0116588
224	0x3cabfc25	0.020994255
225	0xbc256072	-0.010093795
226	0x3bfdd3c3	0.007746191
227	0x3ca3f9dc	0.020016603
228	0x3cd19bcc	0.025586985
229	0xbc8ef70e	-0.01745179
230	0xbbb476dc	-0.005507333
231	0xbcdb65b5	-0.026781896
232	0xbc5f5044	-0.013629977
233	0xbd09120c	-0.033464476
234	0x3deb2576	0.114817545
235	0x3ac198a0	0.0014770217
236	0xbc83ecf1	-0.016104193
237	0xbd110f46	-0.035414957
238	0xb976c1c5	-0.00023532573
239	0xbc19be6a	-0.009383777
240	0xbb23e4d2	-0.0025008214
241	0xbba1056d	-0.004913977
242	0x3c436d9e	0.01192799
243	0xbd2c740f	-0.04210287
244	0x3b6a2ea1	0.003573336
245	0xbbdf13ba	-0.0068077715
246	0xbbd744c9	-0.006569479
247	0x3c3cce9e	0.011523871
248	0x3c8827c5	0.016620526
249	0x3bb9ddb3	0.0056721806
250	0xbccf6c6e	-0.025320258
251	0x3ca81757	0.020518942
252	0xbc5883d1	-0.013215021
253	0xbc10ed18	-0.00884559
254	0x3ba3b7a8	0.0049962588
255	0xbcf73bc1	-0.03017986

a2c_network.mu.bias f4 [7]
0	0x3ca4fb92	0.02013949
1	0xbc3b85b8	-0.011445455
2	0x3ad9db35	0.0016621115
3	0x3c97c923	0.018528527
4	0xbc59a0de	-0.013282983
5	0x3b0ad1a3	0.0021182082
6	0x3c3eedd6	0.011653384

exp_avg f4 [7]
0	0x3a2038e4	0.0006111993
1	0x397305d5	0.00023176458
2	0xba31e4df	-0.00067861186
3	0x3aef5e98	0.0018262444
4	0x3a88cde5	0.0010437338
5	0xbafa2351	-0.0019084011
6	0xbacad69c	-0.0015475336

exp_avg_sq f4 [7]
0	0x371c5d72	9.3200815e-06
1	0x3714b86e	8.864428e-06
2	0x37132211	8.7698145e-06
3	0x37333baa	1.0683123e-05
4	0x372bf94b	1.0250437e-05
5	0x3712d261	8.751261e-06
6	0x372034d7	9.549046e-06
