logs/rl_games/reach/2024-08-03_20-06-08/nn/last_reach_ep_2950_rew_-0.13158196.pth (torch, 622386 bytes, 36 tensors)

value_mean_std.running_mean f8 [1]
0	0xbfb32ed4c2fde96b	-0.07493333588164368

value_mean_std.running_var f8 [1]
0	0x3fcdf0560d1836e1	0.23389697684654379

value_mean_std.count f8 []
0	0x41b70c0001000000	386662401.0

running_mean_std.running_mean f8 [33]
0	0x3fb9000faa9ce2de	0.09765718379356822
1	0xbfae5fba19000ecc	-0.05932408862284219
2	0x3f9533868a740ba5	0.020704366875189745
3	0x3fd0f4b4fdba70fb	0.26493572977211927
4	0x3fbbc6eb948b70c0	0.10850403191165281
5	0xbfa35de32b82c2c0	-0.037825678883910197
6	0xbf8d9729697191f5	-0.01444847443617279
7	0x3f8715fce8e3af14	0.011272407395572816
8	0x3f962c425f8f1224	0.02165321071858463
9	0xbf89ec10a6f93c34	-0.012657289596203915
10	0x3f7435ea39412cb6	0.004934229789863289
11	0x3fb4d101ac675762	0.08131418665956638
12	0x3f9660c3096ebaf6	0.021853492212978907
13	0xbf7df7dcf4ad0c78	-0.007316458805522001
14	0xbf636468affa6852	-0.0023672146488254242
15	0x3f6f123084125961	0.0037928531242627382
16	0x3f53bc092ec65fdf	0.0012044992136903616
17	0xbf64e39b33e7b10f	-0.002549937372569151
18	0xbfc8bb1e47e9afe9	-0.19321039687508737
19	0x3ef59af1a54f9512	2.0604371758899355e-05
20	0xbee96fe1d9297dac	-1.2129325829223315e-05
21	0xbfb9999f69e338e0	-0.10000034651895673
22	0x3f4a17a1fdbc57e2	0.0007962742779195032
23	0x3fefffff5d391a0c	0.9999996968043106
24	0x0000000000000000	0.0
25	0x0000000000000000	0.0
26	0x401da28652907116	7.408715524736428
27	0xc01d2610b20c22b0	-7.2871730632693215
28	0x4020f63ca6b67cad	8.480931482101676
29	0x401f2a38a3781e1f	7.791231683927918
30	0x4020ffd177bc7c45	8.499644986875987
31	0xc01f6bf6e9844f85	-7.855434082699394
32	0xc01daba7dcdf40dd	-7.417632533193879

running_mean_std.running_var f8 [33]
0	0x3fd3cec223ea2250	0.30949452883991047
1	0x3fbd142890a534f8	0.11358884364490851
2	0x3f68f0bc8f2d13db	0.0030444796369999256
3	0x3ffa72c3d4289aa1	1.6530187880941087
4	0x3fce6aff953fa874	0.23764033114941052
5	0x3fa3d422d65288ed	0.038727844869997564
6	0x3f6fc63418dfd502	0.0038786904833566513
7	0x3f72a83a4f862f10	0.004554965759222332
8	0x3fc8ea74a6259a07	0.19465501892700862
9	0x3fc12e01b34b2aef	0.13421651129313925
10	0x3f83571642cf4e28	0.009443448938248514
11	0x3fd983de90ddcaf6	0.39867366931063886
12	0x3fc94fbbe8b33499	0.19774578916841248
13	0x3fbea1682cc9c72f	0.11965037435018354
14	0x3f9a98ed30305f82	0.02597399336454443
15	0x3f9fa5c3369bc578	0.030905771453892922
16	0x3fa59b8badfb2dbf	0.04220234392922916
17	0x3f9a26ff529ed02c	0.02553938810133631
18	0x3f68e563968792d4	0.0030390687063451636
19	0x3f4b4e9c52966c51	0.0008333457273467325
20	0x3f4b4f06c410b873	0.000833395293857965
21	0x3f217cb61f4682bd	0.00013341639681831676
22	0x3e363732086b5963	5.172474121508295e-09
23	0x3e463730ac0e56d7	1.0344938573992118e-08
24	0x3e3637311c190f54	5.172470841889461e-09
25	0x3e3637311c190f54	5.172470841889461e-09
26	0x408df8493aa48d15	959.035756383472
27	0x40901e1ec78e6b11	1031.5300581219528
28	0x408bf8c8e4c6b99d	895.0980926061053
29	0x408ec7ccbaf22fbb	984.9749659462753
30	0x40903e89e7bdff3d	1039.6346730887446
31	0x408ed5e562157c01	986.7370034864872
32	0x408ef07d38883291	990.0611429825241

running_mean_std.count f8 []
0	0x41a70c0002000000	193331201.0

a2c_network.sigma f4 [7]
0	0xc090cd6f	-4.5250773
1	0xc0888be3	-4.267076
2	0xc0928459	-4.5786557
3	0xc0879e8a	-4.238103
4	0xc08798c2	-4.237397
5	0xc085101f	-4.158218
6	0xc08d1801	-4.40918

a2c_network.actor_mlp.0.weight f4 [256, 33]
0	0x3b203440	0.0024445206
1	0xbd9f1439	-0.07767529
2	0x3c8d0ad1	0.017217072
3	0x3d05b57d	0.032643784
4	0x3d2f573b	0.0428078
5	0xbde4f25d	-0.111790396
6	0xbc21a156	-0.009865126
7	0xbab5b88d	-0.0013864205
8	0x3cab2f8b	0.020896694
9	0x3d5c5af4	0.053797677
10	0xbda67877	-0.081284456
11	0x3c951fb8	0.018203601
12	0xbc0806e3	-0.008302423
13	0x3d86bff5	0.06579582
14	0x3d4695f6	0.048482858
15	0x3cb62e13	0.022238767
16	0xbce05b21	-0.027387204
17	0xbb506898	-0.0031800624
18	0xbe729ba7	-0.23692189
19	0xbb10e428	-0.0022108648
20	0xbb81b148	-0.003957901
21	0xbb2e3227	-0.0026580186
22	0x3dbd2b60	0.09236789
23	0x3e147cf2	0.14500788
24	0xbb46759c	-0.0030282503
25	0x3e0b8116	0.13623461
26	0xbc082daa	-0.008311668
27	0xbdc64e4a	-0.09682901
28	0xbd778c0d	-0.060436297
29	0x3dfba077	0.122864656
30	0xbd825e4f	-0.06365644
31	0xbd9d927e	-0.07693957
32	0xbd71aead	-0.059004474
33	0x3d8c41be	0.06848477
34	0xbe13862e	-0.14406654
35	0xbd07c1e4	-0.033143893
36	0xbd8805d8	-0.066417396
37	0xbdd93fcf	-0.10607874
38	0x3c5c2ac2	0.013437929
39	0x3e38a937	0.180333
40	0xbe3f9c7e	-0.18712041
41	0xbdf313a2	-0.11868979
42	0xba7b3b3c	-0.0009583717
43	0x3e0f58ce	0.1399872
44	0xbe0a5fcd	-0.13513108
45	0x3d8eadfc	0.06966779
46	0x3dffa7c0	0.12483168
47	0xbf33d5ba	-0.70247996
48	0xbee3d1db	-0.44496045
49	0x3bd57a32	0.006514811
50	0x3cd9eda6	0.026602577
51	0x3efbdbc4	0.49191105
52	0x3bafac4c	0.0053611156
53	0xb9e36f7a	-0.0004337987
54	0x3a5b2dde	0.0008361022
55	0xbdde5838	-0.1085667
56	0x3d605648	0.054769784
57	0x3d16bcfe	0.03680133
58	0xbd35ca8d	-0.04438262
59	0x3e421da9	0.18956627
60	0x3dcf9e06	0.101375625
61	0xbd11934c	-0.035540864
62	0xbe5f80fa	-0.21826544
63	0x3d9dd7ea	0.07707198
64	0xbc23649f	-0.00997272
65	0xbd0a3adc	-0.03374754
66	0x3ce37427	0.027765347
67	0xbd14a946	-0.036294244
68	0x3d54b1d2	0.051927395
69	0x3bcbf2d6	0.0062240167
70	0xbc8ddf9f	-0.017318545
71	0xbdeabd9c	-0.11461946
72	0x3be2d5d4	0.006922463
73	0xbe7b82ec	-0.24561661
74	0xbd5549e7	-0.052072432
75	0xbd4c26b8	-0.049841613
76	0xbdd0931d	-0.1018431
77	0xbd0a30f0	-0.033738077
78	0x3d8a4beb	0.067527615
79	0xbd754e22	-0.059888966
80	0xbdddcb89	-0.10829837
81	0xbd17503e	-0.03694176
82	0x3c301a5d	0.010748473
83	0x3c6c13cb	0.014409016
84	0xbe5f56ca	-0.21810451
85	0x3cf36770	0.029712409
86	0x3c56b582	0.013104798
87	0xbcddbd21	-0.027067723
88	0xbd515c0b	-0.05111317
89	0x3cc0e448	0.023546353
90	0xbdf1951d	-0.11796019
91	0xbdf4b51c	-0.11948606
92	0xbbfef42f	-0.007780574
93	0xbdffbe88	-0.12487513
94	0xbdb8f924	-0.09031895
95	0x3e31a5ed	0.17348452
96	0xbd356c97	-0.044293012
97	0x3dac9fda	0.08428927
98	0x3c92df90	0.017928869
99	0xbc7fa6d3	-0.015603739
100	0x3e16ecbf	0.14738749
101	0xbdd1e5a5	-0.10248879
102	0xbe017563	-0.12642436
103	0xbc6762d9	-0.014122688
104	0x3d099497	0.033588972
105	0x3d4e1f4f	0.050322827
106	0xbe096867	-0.13418733
107	0xbe51bee2	-0.20482972
108	0x3db26a40	0.08711672
109	0x3c51986b	0.012792687
110	0xbd9b76ea	-0.075910404
111	0xbd43c9f4	-0.04780002
112	0xbce8e184	-0.028427847
113	0x3edc0e6c	0.42979753
114	0x3e5723bc	0.21009725
115	0xbce69bdd	-0.028150493
116	0x3b649ebb	0.003488465
117	0xbdfac825	-0.12245206
118	0xbc47e93b	-0.012201603
119	0xbb9d99c2	-0.004809589
120	0x3bf0baf6	0.007346506
121	0x3e175ee1	0.14782287
122	0xbe33f497	-0.17573772
123	0x3dbe89ac	0.093036026
124	0x3d7a958e	0.061177783
125	0x3d40dad3	0.047083687
126	0xbe16bcdc	-0.14720482
127	0x3e798ff3	0.24371319
128	0x3db5c9ab	0.08876356
129	0x3d8a69a1	0.06758428
130	0xbd2d15de	-0.042257182
131	0x3df88bc9	0.12136037
132	0xbd894709	-0.06703002
133	0xbe16da5b	-0.14731734
134	0x3dd383aa	0.10327847
135	0x3cd09e95	0.025466243
136	0x3dd89e25	0.10577039
137	0x3d524494	0.051334932
138	0x3d285592	0.04109723
139	0xbde7b516	-0.11313836
140	0x3c8c7c72	0.017149184
141	0x3dfdd56c	0.123942226
142	0xbd157370	-0.036487043
143	0xbd821ceb	-0.06353172
144	0x3c68f758	0.014219128
145	0x3d9da0bc	0.07696673
146	0xbe810ad5	-0.25203577
147	0xbd635cbe	-0.055508368
148	0x3cba82a3	0.02276737
149	0x3cac89e1	0.02106184
150	0x3ce1d37b	0.027566662
151	0x3ba675aa	0.0050799446
152	0xba9f5f72	-0.0012159182
153	0x3b18b9df	0.0023304147
154	0xbd08c02a	-0.033386387
155	0xbc888b79	-0.016668068
156	0x3c988f3d	0.018622989
157	0xbcfbeaa3	-0.030751532
158	0xbb7c2469	-0.003847385
159	0x3cafa76b	0.021442136
160	0x3df35aa1	0.118825205
161	0xbd989d23	-0.074518465
162	0xbd3dd156	-0.046342216
163	0x3c36b061	0.01115045
164	0xbc334bd4	-0.010943372
165	0x3baeb965	0.0053321593
166	0xbcb6d952	-0.022320423
167	0xbded819f	-0.11596989
168	0xbcb82ba8	-0.022481754
169	0x3d6e7b03	0.058222782
170	0xbd0e02b2	-0.03467054
171	0x3c75ade7	0.014995075
172	0xbe144e33	-0.14482956
173	0xbda9c742	-0.082899585
174	0x3d6f343f	0.058399435
175	0xbd4f0943	-0.050545942
176	0x3d2f8376	0.04284998
177	0xbb8da6ac	-0.0043228474
178	0x3c9b4869	0.018955426
179	0xbe2f973f	-0.1714754
180	0xbda69d42	-0.08135463
181	0xbc5933c2	-0.013256969
182	0xbc1ca86c	-0.009561639
183	0xbdfb64bf	-0.12275075
184	0x3b7f3b62	0.0038945307
185	0xbb98431a	-0.004646671
186	0xbb1d4b2b	-0.0024001102
187	0xbe10c4ce	-0.14137575
188	0x3d4e68ed	0.050393034
189	0xbda21b30	-0.07915342
190	0xbd0eefee	-0.034896784
191	0xbe43fca4	-0.19139344
192	0x3e584488	0.21119893
193	0x3e2a7dbf	0.16649531
194	0x3b23e3ba	0.0025007562
195	0xbdec14f8	-0.11527437
196	0xbe36116f	-0.17780088
197	0xbda63f84	-0.081175834
198	0xbcebf3d8	-0.028802797
199	0xbd2979bc	-0.04137586
200	0x3d319825	0.043357987
201	0xba572125	-0.0008206538
202	0x3dca7f21	0.09887529
203	0xbd426e05	-0.047468204
204	0xbdc5b725	-0.09654073
205	0xbe210ce1	-0.15727569
206	0xbc043ac0	-0.008070648
207	0x3d7a91c4	0.06117417
208	0xbdbf183a	-0.09330793
209	0xbdeeebc4	-0.116660625
210	0xbd5fe744	-0.05466391
211	0x3d923640	0.071392536
212	0xbdf9a932	-0.121904746
213	0x3c88fccf	0.016722111
214	0x3c808b5b	0.01569145
215	0xbb731c46	-0.003709571
216	0xbdb1f2fc	-0.08688924
217	0xba99070e	-0.0011675076
218	0x3b3c7343	0.0028755225
219	0x3be7342a	0.007055779
220	0xbd8b70d7	-0.06808632
221	0x3cf092ce	0.029366877
222	0xbe29b2cf	-0.16572116
223	0x3dc776f6	0.09739487
224	0xbd4f8bf3	-0.050670575
225	0xbd472f22	-0.048628934
226	0x3df1a6b3	0.117993735
227	0x3e2434b7	0.16035734
228	0xbc9c3c22	-0.019071642
229	0x3d7125d2	0.05887396
230	0xbcfd11f0	-0.030892342
231	0xbd44adfa	-0.04801748
232	0xbcee8740	-0.029117227
233	0x3cc1a716	0.023639243
234	0xbd1fb414	-0.038990095
235	0xbd57c36b	-0.0526766
236	0x3d8ccd3c	0.06875083
237	0xbc4bf62c	-0.012448829
238	0xbe0aba54	-0.13547641
239	0xbdaae323	-0.08344104
240	0x3df14242	0.11780216
241	0xbdc514bd	-0.09623096
242	0x3d11a86d	0.035561014
243	0x3d9129f5	0.07088081
244	0x3cac54e4	0.021036573
245	0xbdbf6391	-0.09345163
246	0xbc6e4f9d	-0.0145453485
247	0x3cad73ad	0.021173323
248	0x3c344f99	0.011005306
249	0x3e2c2512	0.16811016
250	0xbb998371	-0.0046848585
251	0x3aa1dd54	0.0012349286
252	0x3bb111d1	0.005403735
253	0xbe38dadc	-0.18052238
254	0x3dedf0f0	0.11618221
255	0x3e156fea	0.14593473

a2c_network.actor_mlp.0.bias f4 [256]
0	0x3dae6cdf	0.08516859
1	0xbd41dc5e	-0.0473293
2	0xbbbfc659	-0.0058525023
3	0xbd2f6d93	-0.042829107
4	0x3d005c16	0.03133782
5	0xbda41811	-0.08012403
6	0x3d8fe54d	0.070261575
7	0xbbe14cf9	-0.006875631
8	0xbd9ddacd	-0.077077486
9	0xbdf75dce	-0.12078439
10	0x3d99d964	0.07512167
11	0xbcc8542c	-0.024454199
12	0x3d98708e	0.07443343
13	0x3dd06f1a	0.10177441
14	0x3d0c738d	0.034289885
15	0xbc8b2009	-0.016983049
16	0xbd3fc87a	-0.04682205
17	0xbbde6c61	-0.006787822
18	0xbd1f2806	-0.03885653
19	0xbe1e2efe	-0.15447614
20	0x3da67d7b	0.08129402
21	0x3d92988b	0.071580015
22	0xbdfe995e	-0.12431596
23	0x3de1a575	0.110178865
24	0x3c1f72d6	0.009731969
25	0x3e2ddba1	0.16978313
26	0x39dae93c	0.00041753973
27	0x3ddb43a0	0.10706258
28	0x3d082847	0.033241536
29	0xbd8fd9fc	-0.07023999
30	0xbd7137ab	-0.05889098
31	0xbd61deec	-0.055144235
32	0x3e205540	0.1565752
33	0x3d9158f4	0.070970446
34	0x3d8e8c37	0.069603376
35	0xbd6f1d3e	-0.058377497
36	0xbe098713	-0.13430433
37	0xbdc9c828	-0.0985263
38	0x3d288b44	0.04114844
39	0xbd8a045a	-0.06739111
40	0xbd897891	-0.06712449
41	0xbda3d67c	-0.07999894
42	0x3da6d6bd	0.08146427
43	0xbd80c046	-0.06286673
44	0x3dd950c5	0.10611109
45	0x3e056efa	0.13030615
46	0x3d151661	0.036398295
47	0xbd573322	-0.052539
48	0x3cddb6b6	0.027064662
49	0x3de839c0	0.1133914
50	0x3df32e6e	0.1187409
51	0x3dfed249	0.124424525
52	0x3cddacf9	0.027060019
53	0x3d5362dc	0.05160795
54	0xbddfa525	-0.10920171
55	0x3c1e641c	0.009667423
56	0xbd595786	-0.053061984
57	0x3e07e6f0	0.1327169
58	0xbd0ee209	-0.034883533
59	0x3d8db474	0.06919184
60	0xbdac5295	-0.08414189
61	0xbd81671c	-0.06318495
62	0x3d7efef5	0.062254865
63	0x3d6b4cc2	0.05744625
64	0xbe0eedfb	-0.1395797
65	0xbd133277	-0.0359368
66	0x3d7c1251	0.061540905
67	0x3dd4668e	0.10371123
68	0xbd7a99a9	-0.061181698
69	0x3e045c87	0.12925921
70	0xbd932136	-0.07184069
71	0xbcc7db76	-0.02439664
72	0xbd90f983	-0.070788406
73	0x3d973b43	0.0738435
74	0xbc92732a	-0.01787718
75	0xbdba2809	-0.09089667
76	0x3db6d19a	0.08926697
77	0x3dbd92ca	0.092565134
78	0x3e012b74	0.12614232
79	0x3d21c7db	0.039497238
80	0xbddf81ad	-0.109134056
81	0x3d8582b7	0.065190725
82	0xbd65b887	-0.056084182
83	0x3e0aeeec	0.13567704
84	0x3cee64c4	0.029100783
85	0xbd2fd5de	-0.04292857
86	0xbd8f3a53	-0.06993546
87	0x3d8a81d7	0.06763046
88	0x3d0d76f5	0.034537274
89	0xbdaf9711	-0.085737355
90	0xbdd5833d	-0.10425422
91	0xbcfced4e	-0.030874874
92	0x3e06cb68	0.13163531
93	0xbc3ad180	-0.011402488
94	0x3e0f4ef7	0.13994966
95	0xbc8b6f1e	-0.017020758
96	0x3dac3bcf	0.08409845
97	0x3e163478	0.14668453
98	0x3df5b2d8	0.11997002
99	0x3dd07e78	0.10180372
100	0x3d1250f4	0.035721734
101	0x3d491726	0.04909434
102	0xbdf24b8f	-0.11830818
103	0x3df84c34	0.121239096
104	0xbe1a7840	-0.15084934
105	0x3d00bbba	0.03142903
106	0x3dc63416	0.09677903
107	0x3dca7abc	0.09886691
108	0xbe0f40e1	-0.13989593
109	0x3e1849c6	0.14871892
110	0xbe0d0bf5	-0.13774092
111	0xbbc6c541	-0.006065995
112	0x3e1e5efc	0.15465921
113	0x3dbb977d	0.091597535
114	0xbd6f5645	-0.058431882
115	0xbe22e158	-0.15906274
116	0xbdf5b33b	-0.11997076
117	0xbc81dc89	-0.01585223
118	0xbdcc79db	-0.099841796
119	0xbce4c900	-0.027927876
120	0x3d8fb861	0.07017589
121	0xbd0113d7	-0.03151306
122	0xbda8e5a5	-0.08246926
123	0xbdc51e12	-0.09624876
124	0xbd98f275	-0.0746812
125	0xbd9d4431	-0.07679022
126	0xbe05176e	-0.12997219
127	0x3d7f2976	0.0622954
128	0x3c0a58fd	0.008444068
129	0xbd99649a	-0.07489891
130	0x3da9ce27	0.082912736
131	0xbdd61c5c	-0.10454628
132	0xbdcd2784	-0.10017303
133	0xbb0d1582	-0.0021527712
134	0x3da07e42	0.07836582
135	0xbd4b77a1	-0.049674634
136	0xbde1b516	-0.110208675
137	0x3de4f42a	0.11179383
138	0xbcb18ebe	-0.02167451
139	0xbd214cfa	-0.03938005
140	0x3e163372	0.14668062
141	0xbd9448e5	-0.07240466
142	0x3cb99f24	0.022658892
143	0xbd836d2a	-0.06417306
144	0x3dc8efc0	0.09811354
145	0xbcf185cb	-0.029482743
146	0x3dc56b59	0.096396156
147	0x3d8a4b3e	0.067526326
148	0xbd132dd4	-0.035932377
149	0x3d0e0eb1	0.03468198
150	0xbe03d141	-0.12872793
151	0x3d9fa1c2	0.07794525
152	0xbd34332c	-0.043994114
153	0x3d7b5daa	0.061368622
154	0xbd5ecc7b	-0.054394227
155	0x3ddedbe4	0.108817846
156	0x3dc51435	0.09622995
157	0x3c07a4f8	0.008279078
158	0xbdd79033	-0.10525551
159	0xbd056bd7	-0.032573547
160	0xbd5ef44c	-0.0544322
161	0x3d61414c	0.054993913
162	0x3da536a2	0.08067061
163	0x3cb3bc19	0.021940278
164	0x3c6509e4	0.013979409
165	0x3d9d7745	0.076887645
166	0x3d5e2678	0.054235905
167	0x3cc1d1f2	0.02365968
168	0xbd9c63c6	-0.07636218
169	0x3df67753	0.12034478
170	0x3daefab7	0.08543914
171	0xbe0de5d7	-0.13857208
172	0x3e00cb98	0.12577665
173	0x3d5fd6fa	0.054648377
174	0x3beaca03	0.007165195
175	0x3c326449	0.010888168
176	0x3d48c091	0.04901177
177	0x3ca980c9	0.020691292
178	0xbdbd2a30	-0.09236562
179	0x3de4a138	0.111635625
180	0x3d57ab7e	0.052653782
181	0xbd6e734e	-0.058215432
182	0xbd14b901	-0.036309246
183	0xbdb53f4d	-0.08849964
184	0xbda8e4e4	-0.082467824
185	0xbd24d17f	-0.040238854
186	0x3bfb95a6	0.0076777516
187	0xbd79fba8	-0.061031014
188	0xbda64b65	-0.08119849
189	0xbc9dc138	-0.019257173
190	0xbe19a091	-0.15002657
191	0x3d77868d	0.060431052
192	0xbd000961	-0.031258944
193	0x3d078c8e	0.033093028
194	0xbdd1cc0b	-0.10243996
195	0xbc8bef55	-0.017081896
196	0xbd9bc5f1	-0.07606114
197	0x3dc77c05	0.09740452
198	0xbd0ffaea	-0.0351514
199	0x3c842666	0.016131591
200	0x3c0c2295	0.008553167
201	0xbb2faea9	-0.0026806986
202	0x3e386f88	0.18011296
203	0x3daf268b	0.08552273
204	0x3b812705	0.003941419
205	0xbd8a27dc	-0.06745884
206	0x3e2440f1	0.16040398
207	0xbe338c8c	-0.17534083
208	0xbc0184eb	-0.007905225
209	0x3e6b824d	0.22998925
210	0x3d9a154c	0.07523593
211	0xbd80ee47	-0.06295448
212	0xbdafdfd1	-0.085876115
213	0xbd0825d7	-0.033239212
214	0xbc9060ed	-0.017624343
215	0xbd61a4e7	-0.055088904
216	0x3c888711	0.016665967
217	0x3db8205c	0.08990547
218	0x3d264291	0.040590826
219	0xbdd12435	-0.10211984
220	0xbcb94740	-0.022616982
221	0xbe0ab4ec	-0.13545579
222	0x3d6b3db4	0.05743189
223	0xbc363837	-0.011121801
224	0xbd6c9ed4	-0.057768658
225	0x3dcce9db	0.10005542
226	0x3e1a6367	0.15076981
227	0xbd0019ae	-0.03127449
228	0xbd5ba940	-0.053628206
229	0xbcabf1ff	-0.020989416
230	0xbd865ec2	-0.06561042
231	0x3d30cf3c	0.043166384
232	0x3df00d23	0.11721256
233	0x3d473084	0.048630252
234	0xbc85f481	-0.01635194
235	0xbce0b611	-0.027430566
236	0xbd9eeb2e	-0.07759701
237	0x3deea996	0.1165344
238	0x3c44fcce	0.012023164
239	0x3d187d40	0.037228823
240	0x3ddbb136	0.1072716
241	0xbde3f82e	-0.11131321
242	0x3d96055a	0.073252395
243	0xbd8748e0	-0.06605697
244	0xbc450041	-0.012023986
245	0xbdeb680d	-0.114944555
246	0x3dcc2518	0.099680126
247	0x3e1eb857	0.15500008
248	0x3db304c8	0.08741146
249	0x3dd7e2b8	0.1054129
250	0x3d6256b0	0.055258453
251	0xbcf4e495	-0.029894153
252	0xb8245b6f	-3.91858e-05
253	0x3e1cd475	0.15315421
254	0x3d9c351f	0.076273195
255	0x3dc7b20a	0.09750755

a2c_network.actor_mlp.2.weight f4 [128, 256]
0	0xbd4658ed	-0.04842465
1	0x3d609dfd	0.05483817
2	0xbd9758a0	-0.07389951
3	0x3b31a218	0.0027104672
4	0x3d63c15d	0.055604327
5	0x3d18719b	0.037217718
6	0x3d393bad	0.045222927
7	0x3d8b82e6	0.06812076
8	0xbd855bac	-0.06511626
9	0xbd45b633	-0.04826946
10	0x3ba78f83	0.0051135435
11	0x3d00c641	0.03143907
12	0x3cb3fc3b	0.021970859
13	0x3d7b2ea6	0.061323784
14	0x3c980822	0.018558566
15	0xbb787d1b	-0.0037916366
16	0xbaa15245	-0.0012307843
17	0x3caf4121	0.02139336
18	0x3d99dd55	0.07512919
19	0xbd0db773	-0.03459878
20	0x3dc6b9b6	0.0970339
21	0xbc97160b	-0.018443128
22	0xbccc7dfd	-0.02496242
23	0xbbc9f0c7	-0.006162736
24	0xbdeb0daa	-0.114772156
25	0xbd17945c	-0.03700672
26	0x3d494e76	0.04914709
27	0x3e0bfa6d	0.13669749
28	0xbb9045d2	-0.0044028545
29	0x3d338eff	0.043837544
30	0xbd5f5e1c	-0.05453311
31	0x3c16306d	0.009166819
32	0xbd12989a	-0.035790063
33	0x3da4c1c2	0.08044769
34	0xbd09faa4	-0.033686295
35	0x3d538b2a	0.05164639
36	0x3d1f4c2b	0.038891
37	0xbde6722a	-0.11252244
38	0x3d5a08c3	0.053231012
39	0x3c8676a8	0.016414002
40	0x3cbadda5	0.022810766
41	0xbda5a357	-0.08087795
42	0x3dca263f	0.09870576
43	0xbca07f3d	-0.019591922
44	0x3cb2d3f8	0.02182959
45	0x3d30b17e	0.04313802
46	0x3dd3229d	0.10309336
47	0x3d346f2d	0.044051338
48	0x3b248faa	0.0025110045
49	0xbcf1dd3a	-0.029524434
50	0x3a4e0e2d	0.0007860389
51	0x3d105a42	0.035242327
52	0xbdc697f4	-0.096969515
53	0xbcfee72b	-0.031116089
54	0x3d9fbb2f	0.07799374
55	0x3d10f2f2	0.03538794
56	0x3d7d4a90	0.061838686
57	0xbc8e3174	-0.017357565
58	0xbdb2998d	-0.08720694
59	0x3dc443e6	0.09583263
60	0xbd690c15	-0.056896288
61	0x3d8e2eee	0.06942545
62	0xbda0a805	-0.07844547
63	0xbd721057	-0.059097614
64	0xbdd00914	-0.101579815
65	0xbcb950a2	-0.022621457
66	0x3db2f846	0.08738761
67	0x3c8fe9b3	0.017567491
68	0xbd6d1126	-0.057877682
69	0x3d9e4558	0.0772807
70	0xbc6f3ced	-0.014601928
71	0xbab65de1	-0.0013913476
72	0x3bbd505b	0.0057774014
73	0x3d70e318	0.058810323
74	0xbd1723cc	-0.036899373
75	0x3e1e5e25	0.15465601
76	0x3d9df592	0.077128544
77	0x3cfe876f	0.03107044
78	0x3dabcff1	0.08389271
79	0x3ca5cda5	0.02023966
80	0xbd4cb317	-0.04997548
81	0x3d7fabfb	0.062419873
82	0xbd1f7347	-0.038928296
83	0x3e2a3b4c	0.16624182
84	0x3dcc412a	0.099733666
85	0xbcf218bf	-0.029552815
86	0x3d14dc64	0.036342993
87	0x3bbbb5f1	0.005728476
88	0xbcf3f780	-0.029781103
89	0x3cf6c3a9	0.030122595
90	0x3be62a10	0.007024057
91	0x3c0a8768	0.008455135
92	0x3da945b2	0.082652465
93	0x3c81d513	0.015848672
94	0xbc8ba7c4	-0.01704777
95	0xbc078f6f	-0.008273943
96	0xbc8a39ad	-0.016873205
97	0xbcffa564	-0.031206794
98	0x3d1ee785	0.038795013
99	0xbd096fce	-0.03355389
100	0x3d8bf9fd	0.06834791
101	0x3dcb667e	0.09931658
102	0xbb261436	-0.0025341637
103	0xbacba795	-0.0015537614
104	0x3c3f2157	0.011665664
105	0xbd2aaac7	-0.041666772
106	0x3da02837	0.078201704
107	0xbb15f94a	-0.0022884184
108	0x3bc0b06b	0.0058804057
109	0x3b3cb1aa	0.002879242
110	0x3d0b1fba	0.033965804
111	0x3d043d6a	0.03228513
112	0x3e0b0163	0.13574748
113	0x3c827019	0.015922593
114	0x3c885178	0.01664041
115	0x3cfd4e85	0.03092123
116	0x3cfd41c0	0.030915141
117	0x3d546a8b	0.05185942
118	0x3d0c88f3	0.034310292
119	0xbde607d7	-0.11231964
120	0xbd520cff	-0.051281925
121	0xbd0c8786	-0.034308933
122	0xbcb8fb96	-0.022580903
123	0xbdc30939	-0.095232435
124	0xbb7caa6b	-0.0038553725
125	0x3c93e14b	0.018051764
126	0x3c381c60	0.011237234
127	0x3cea46e7	0.028598262
128	0x3de19133	0.11014023
129	0x3dc7b0ff	0.09750556
130	0x3e287884	0.16452223
131	0xbcebee61	-0.028800191
132	0x3c8e2715	0.01735262
133	0xbdecd537	-0.11564105
134	0xbc18e553	-0.009332019
135	0xbd105d66	-0.03524532
136	0x3c77df6a	0.01512895
137	0xbad5a9be	-0.0016301197
138	0xbd087204	-0.03331186
139	0x3d4cfc0f	0.05004507
140	0xbd650c5c	-0.05591999
141	0x3cf733b7	0.030176027
142	0x3bbc71d6	0.005750875
143	0x3d1da9cb	0.038492005
144	0xbd84ab96	-0.0647804
145	0x3bf38bcb	0.007432436
146	0x3d823e5d	0.06359551
147	0x3c9d6eea	0.019217927
148	0xbd48cd36	-0.04902383
149	0xbb048d13	-0.0020225688
150	0x3ca798fd	0.020458693
151	0x3d656ea0	0.056013703
152	0xbd3d7570	-0.046254575
153	0x3d8bfe83	0.06835654
154	0xbcc26b94	-0.023732938
155	0x3d9c2e15	0.07625977
156	0x3d3161da	0.04330621
157	0xbd69fb97	-0.0571247
158	0xbb79cbe7	-0.003811592
159	0x3c506755	0.012719949
160	0xbd479f82	-0.048736103
161	0x3d8c9282	0.06863882
162	0x3c29617a	0.010338182
163	0x3cff272e	0.031146612
164	0xbb15dcfd	-0.0022867315
165	0xbbfccaf6	-0.0077146245
166	0x3d87e835	0.06636087
167	0xbd07b72c	-0.03313367
168	0xbdac0bbe	-0.08400677
169	0x3cba1cd8	0.022718832
170	0x3acd1302	0.0015645924
171	0x3cca0588	0.02466084
172	0xbd791615	-0.060812075
173	0xbd0cc951	-0.034371678
174	0xbd33c315	-0.043887217
175	0x3cbda18e	0.023148324
176	0xbc6dd6e7	-0.014516569
177	0x3d1203aa	0.035648026
178	0x3d2c29f2	0.04203219
179	0x3c3c78b5	0.011503388
180	0x3ca2078c	0.01977899
181	0x3db9e2c4	0.09076455
182	0xbdc1cb03	-0.094625495
183	0xbb9aa3a1	-0.004719213
184	0x3d367d5a	0.04455314
185	0x3c1c1330	0.009526059
186	0xbc8fb641	-0.01754296
187	0xbd126221	-0.035738114
188	0xbdf26ddd	-0.11837361
189	0x3c4ae88b	0.012384544
190	0xbd63f20b	-0.055650752
191	0xbd20b622	-0.039236195
192	0x3d62c192	0.055360384
193	0x3df73df4	0.120723635
194	0xbd9ec9ab	-0.07753309
195	0x3ce518e4	0.02796597
196	0xbd4534bd	-0.048146
197	0x3c836208	0.016037956
198	0x3e8675a2	0.26261622
199	0x3cede102	0.029037956
200	0xbd029cfb	-0.03188799
201	0x3ca35e8a	0.01994254
202	0x3d23c071	0.03997845
203	0xbd2e798d	-0.04259639
204	0x3d6830e6	0.05668726
205	0x3d8a0bc1	0.06740523
206	0xbdb4b429	-0.08823425
207	0xbdad027e	-0.08447741
208	0x3bc2d63a	0.005945948
209	0xbbdf1ade	-0.0068086227
210	0xbd07687e	-0.033058636
211	0xb8ba8668	-8.894206e-05
212	0x3d07bcd2	0.033139057
213	0x3d1992db	0.037493568
214	0x3d1d2ba1	0.038371686
215	0xbcf7157d	-0.030161614
216	0x3cfe75bc	0.031062
217	0x3bcb3b43	0.006202133
218	0x3d935ad7	0.07195061
219	0x3d0a9b06	0.033839248
220	0x3d8e9751	0.06962455
221	0x3cc0945a	0.02350824
222	0x3dc46264	0.09589079
223	0x3cd7c12c	0.026337229
224	0xbcaa9685	-0.020823726
225	0xbc819fa7	-0.015823198
226	0x3df6fefa	0.12060352
227	0xbca46a90	-0.020070344
228	0xbcdd6d06	-0.027029525
229	0x3d574b53	0.05256207
230	0xbb2da346	-0.0026495024
231	0x3d1d7274	0.03843923
232	0x3c2d3716	0.010572216
233	0x3c259f7e	0.010108827
234	0x3cf73d9f	0.03018075
235	0x3aba8e12	0.0014233014
236	0xbd49711d	-0.04918014
237	0xbdaabb39	-0.08336491
238	0x3df39cf0	0.11895168
239	0xbc5c6ba8	-0.013453402
240	0x3de7e417	0.113228016
241	0xbddd3a7d	-0.108021714
242	0x3d04cbda	0.03242097
243	0xbd7e4289	-0.06207517
244	0xbcfed078	-0.031105265
245	0x3e1daa95	0.15397103
246	0xbd8b6f8d	-0.06808386
247	0x3d6d7a05	0.057977695
248	0xba6c1d98	-0.00090070954
249	0x3d563167	0.052293207
250	0xba7246f7	-0.0009242142
251	0xbc6cb0a9	-0.014446416
252	0xbdb76f99	-0.089568324
253	0x3d01abab	0.031657856
254	0xbc856d66	-0.016287517
255	0x3c546b6c	0.0129650645

a2c_network.actor_mlp.2.bias f4 [128]
0	0xbc8b8965	-0.017033288
1	0xbc8d9a00	-0.017285347
2	0x3b1875e0	0.0023263618
3	0xbc2bf5f7	-0.010495654
4	0xbbe05613	-0.0068461983
5	0xbb8a321a	-0.0042173984
6	0xbcad0fd0	-0.021125704
7	0xbd040e20	-0.032240033
8	0xbc1f11dc	-0.009708848
9	0xbcd8719b	-0.026421359
10	0x3b96ccb3	0.004602039
11	0x3a187bd5	0.0005816792
12	0xbc72fcb4	-0.014830757
13	0xbc4d7368	-0.012539722
14	0xbcb1e52d	-0.021715725
15	0xbc940794	-0.01807002
16	0xbb252a55	-0.0025202234
17	0xbc44d952	-0.012014704
18	0xbcb98d30	-0.022650331
19	0xbacd9144	-0.0015683551
20	0xb99af292	-0.00029553898
21	0xbcaebb88	-0.021329656
22	0xbc843879	-0.01614021
23	0x3b823436	0.003973509
24	0xbe8f140d	-0.27944985
25	0xbc73425d	-0.014847365
26	0xbcb5e94b	-0.02220597
27	0xbc08585b	-0.008321847
28	0xbc87d833	-0.016582584
29	0xbc0ef133	-0.008724499
30	0x3c81929a	0.015816975
31	0x3c5bbcd9	0.013411724
32	0xbbe45c62	-0.0069690207
33	0x3905fac6	0.00012777289
34	0xbe565124	-0.2092939
35	0x3bf7492c	0.0075465646
36	0xbc7b04d9	-0.01532098
37	0x3ab483ea	0.0013772224
38	0xbc894b15	-0.016759435
39	0xbcf93968	-0.030422881
40	0xbcee1781	-0.029063942
41	0xbc8cb476	-0.017175894
42	0xba18b6b5	-0.00058255653
43	0x3b5c1ead	0.003358762
44	0xbca2cc91	-0.019872935
45	0xbc62491e	-0.013811378
46	0xbc3a9715	-0.01138856
47	0xbc4fea44	-0.012690131
48	0xbc0d0c6d	-0.00860892
49	0x3b4b0ef9	0.0030984266
50	0xbd0e624b	-0.03476171
51	0xbc993077	-0.018699868
52	0xbc1c18c6	-0.009527391
53	0xbcc3e6a5	-0.02391369
54	0xbcee06e4	-0.02905602
55	0xbbfdb265	-0.0077422136
56	0xbc8957c7	-0.016765488
57	0xbc4ba2b8	-0.012428932
58	0xbcdebf7e	-0.02719092
59	0xbcdbd205	-0.026833544
60	0x3c80a5df	0.015704094
61	0xbcaf922e	-0.021432009
62	0xbca07faf	-0.019592134
63	0xbca2338c	-0.01979997
64	0x39cbc768	0.00038867746
65	0xbbe309a6	-0.0069286404
66	0xbb3edeac	-0.0029124422
67	0xbcdcc4a3	-0.026949232
68	0xbc7bef1e	-0.015376834
69	0xbbaf8bfc	-0.0053572636
70	0xbcc88e26	-0.024481844
71	0x3a8e30bc	0.0010848264
72	0xbc814c56	-0.01578347
73	0xbcb313f3	-0.021860098
74	0xbcba487d	-0.022739643
75	0xbd1bf5ab	-0.038076084
76	0xbcde3ece	-0.027129557
77	0xbca8b257	-0.020592852
78	0xbc362cf4	-0.011119116
79	0x3b8a616f	0.004223041
80	0xba86d66e	-0.0010287294
81	0x3bba492c	0.0056849923
82	0x3c969bc6	0.018384825
83	0xbc5f8bf8	-0.013644211
84	0xbc3fd667	-0.011708832
85	0xbce2c97d	-0.027683968
86	0xbca5937d	-0.02021193
87	0xbd140808	-0.03614047
88	0xbca0acb0	-0.019613594
89	0xbac6936e	-0.0015150139
90	0xbcb71bbb	-0.02235209
91	0xbaf5f6dd	-0.0018765588
92	0xbc999a50	-0.01875034
93	0xbcf422e2	-0.02980179
94	0xbc2ed52f	-0.010670944
95	0xbc862a60	-0.016377628
96	0xbd274402	-0.04083634
97	0xbce2a3b5	-0.027665952
98	0xbe05f0db	-0.1308016
99	0xbc8f6dc8	-0.017508402
100	0x3a138845	0.0005627911
101	0x3bd83bd1	0.0065989275
102	0xbb1f8a9c	-0.0024344092
103	0xbcd1c2f8	-0.025605664
104	0xbc672d47	-0.014109916
105	0xbc76b57f	-0.0150579205
106	0xbc830e34	-0.015997984
107	0xbcb7255d	-0.022356683
108	0xbb57fbc2	-0.0032956456
109	0xbc528d1e	-0.012851028
110	0xbbca171c	-0.0061673056
111	0xbc4028ef	-0.011728509
112	0xbc8e92bb	-0.01740395
113	0xba52d6c3	-0.0008042866
114	0xbc82009b	-0.01586943
115	0xbb9c1412	-0.0047631348
116	0xbc3ba6ae	-0.011453314
117	0xbcd59393	-0.026071345
118	0xbbedfa20	-0.0072624832
119	0xbad1bcea	-0.0016001735
120	0xbc4a8683	-0.012361172
121	0xbcc6f48f	-0.024286536
122	0xbc42493d	-0.011858282
123	0xbb7ac881	-0.0038266482
124	0x3c005167	0.007831908
125	0xbccf3f5a	-0.025298763
126	0xbbde1f68	-0.0067786463
127	0x3b53f1ac	0.0032340093

a2c_network.actor_mlp.4.weight f4 [64, 128]
0	0x3c72c9ac	0.01481859
1	0xbcb43be9	-0.022001224
2	0xbd204c8e	-0.03913551
3	0xbdabfb5f	-0.083975546
4	0xbc7cb7b3	-0.015424657
5	0xbd9a33c1	-0.075294025
6	0x3d0551e5	0.032548804
7	0xbd2e4d6a	-0.042554297
8	0x3c7fe892	0.015619414
9	0x3cd129ee	0.025532689
10	0x3c744e26	0.01491121
11	0xbd9cd246	-0.07657294
12	0xbc1255f2	-0.008931624
13	0xbdc7cfe5	-0.097564496
14	0xbb9c3466	-0.0047669886
15	0xbd38fefd	-0.04516505
16	0x3cf36334	0.02971039
17	0x3bd1a8df	0.006398305
18	0x3cb0b1ea	0.021569211
19	0x39e88432	0.00044348981
20	0x3cb3f401	0.021966936
21	0xbb916e49	-0.004438196
22	0x3b5fe20b	0.0034161832
23	0xbcff392c	-0.031155191
24	0xbdc50cbf	-0.09621572
25	0x3dcbc57e	0.09949778
26	0xbce0cb02	-0.027440552
27	0xbe0734ad	-0.13203688
28	0x3c96caf2	0.018407319
29	0xbd86ba94	-0.06578556
30	0xbc8babf0	-0.01704976
31	0xbcc26162	-0.023728076
32	0x3c0ee15a	0.00872072
33	0xbcd61916	-0.026135009
34	0xbb93d3b4	-0.004511321
35	0x3d000da0	0.031262994
36	0xbd0a3238	-0.0337393
37	0xbd4d3a3d	-0.05010437
38	0x3b52b4bf	0.003215119
39	0x3a60bc88	0.0008573015
40	0xb9273c38	-0.00015948794
41	0x3c442a1e	0.011972932
42	0xbb9b6b25	-0.004742997
43	0x3d4ab432	0.049488254
44	0xbc05f9d8	-0.008177243
45	0xbc857e74	-0.01629565
46	0x3c483523	0.0122197
47	0x3d0c9eec	0.034331247
48	0xbd66e48a	-0.056370296
49	0xbd528c35	-0.051403243
50	0x3d3395f8	0.043844193
51	0xbc37fbef	-0.011229499
52	0xbd86135d	-0.06546662
53	0x3bdd0933	0.0067454814
54	0xbcf44100	-0.02981615
55	0x3d4847ec	0.048896715
56	0xbb20ff29	-0.002456615
57	0x3cc30cbb	0.023809781
58	0xbba10b9c	-0.004914714
59	0x3b9dc738	0.0048150085
60	0xbcebf0b2	-0.028801296
61	0x3d16781c	0.03673564
62	0xbc7641bc	-0.015030321
63	0xbbb42415	-0.0054974654
64	0x3d2e2b99	0.042522047
65	0x3c0f4e78	0.008746736
66	0xbd9210bd	-0.07132099
67	0xbca2645a	-0.019823242
68	0x3d8541e0	0.06506705
69	0xbcec367c	-0.028834574
70	0x3d730547	0.059331205
71	0x3cb58037	0.022155864
72	0x3c12954e	0.00894673
73	0xbcca672c	-0.0247074
74	0x3d2f2b40	0.042765856
75	0x3d65d8ba	0.05611489
76	0x3d1f6efc	0.038924202
77	0x3c78a5d1	0.015176252
78	0x3d01fc48	0.031734735
79	0x3d4b3658	0.049612373
80	0xb9ca6648	-0.00038604648
81	0xbd7c8ad1	-0.061655823
82	0x3b270a6e	0.0025488394
83	0xbddfde47	-0.10931068
84	0xbd0a7e5a	-0.033811904
85	0xbd85fa90	-0.06541932
86	0x3c99d9c5	0.018780598
87	0x3d2e4a99	0.04255161
88	0xbc01d1c2	-0.007923545
89	0xbc31845a	-0.010834778
90	0xbcb115f5	-0.021616915
91	0xbd99dcb7	-0.07512801
92	0x3c8ba280	0.01704526
93	0xbd7a1db5	-0.061063487
94	0xbd30d13d	-0.043168295
95	0xba88847d	-0.0010415461
96	0x3cdd2647	0.026995791
97	0xbb9db4c1	-0.0048128073
98	0x3d316d05	0.04331686
99	0xbcd09f7c	-0.025466673
100	0x3d3dc277	0.046328034
101	0xbcb87e59	-0.022521185
102	0xbd85e877	-0.0653848
103	0xbc853c5d	-0.016264135
104	0x3afacd00	0.0019134581
105	0x3cb1e658	0.021716282
106	0xbc739892	-0.014867919
107	0x3db8a8af	0.09016549
108	0xbd04361a	-0.032278158
109	0xbd565c42	-0.052334078
110	0x37ad304d	2.0645699e-05
111	0xbd07737d	-0.033069123
112	0xbcd32dd5	-0.02577869
113	0xbc9fe0a4	-0.019516297
114	0x3c6681f3	0.014069068
115	0xbcd82dd2	-0.026389036
116	0x3c1d0f2e	0.009586139
117	0x3b5bbd47	0.0033529566
118	0xbc5f4fcf	-0.013629868
119	0x3cc82808	0.02443315
120	0x3d44a7f1	0.048011724
121	0x3d3eda59	0.04659495
122	0xbc2c19cb	-0.010504196
123	0xbcc44a50	-0.023961216
124	0xbd1da489	-0.03848699
125	0xbb4efad3	-0.0031582608
126	0xbd3a3f6a	-0.045470633
127	0xbd0f8637	-0.035040107
128	0x3cdff447	0.02733816
129	0xbcac37fe	-0.021022793
130	0x3d80656d	0.062693454
131	0x3bdd283c	0.006749181
132	0xbcc97e63	-0.024596399
133	0xbd04200a	-0.032257117
134	0xbd5a2638	-0.053259104
135	0xbcc45edd	-0.023971016
136	0xbc755fff	-0.0149765005
137	0xbce19438	-0.027536497
138	0x3d066cbf	0.032818552
139	0x3d0b6032	0.034027286
140	0xbd040e8c	-0.032240435
141	0x3d0056c5	0.03133275
142	0x3d256cb3	0.040386867
143	0x3ca9811f	0.020691453
144	0x3c6f5ba6	0.014609253
145	0x3d12d2f1	0.0358457
146	0x3bb5c46f	0.0055470983
147	0xbcb9ac7c	-0.022665255
148	0xbd3b7162	-0.045762427
149	0xbc97bc3d	-0.018522376
150	0xbb158ac7	-0.0022818313
151	0xbcb03ca8	-0.021513298
152	0xbe8749ad	-0.26423398
153	0xbcfec225	-0.031098435
154	0xbcfcde3c	-0.030867688
155	0x3ba004fd	0.004883407
156	0xbbb8df6f	-0.0056418697
157	0x3c26426f	0.010147675
158	0xbd69a471	-0.05704159
159	0xbd140a9d	-0.036142934
160	0x3c8e6f2d	0.017386997
161	0xbbe2366a	-0.0069034593
162	0xbda89290	-0.082310796
163	0x3b6b437f	0.0035898385
164	0xbd958299	-0.073003
165	0xbc026caf	-0.0079604825
166	0xbcc3dd1a	-0.02390914
167	0xbd273d44	-0.04082991
168	0x3bae41f2	0.00531792
169	0xbd08003e	-0.033203356
170	0xbd0a9812	-0.03383643
171	0x3cd2c9f9	0.025731074
172	0xbd40a9a6	-0.04703679
173	0x3c9d3696	0.019191068
174	0x3bacb77b	0.005270896
175	0xbd488df2	-0.048963495
176	0xbcddf294	-0.02709321
177	0xbc29c1ee	-0.010361178
178	0xbd157b00	-0.036494255
179	0x3c829f75	0.015945176
180	0x3cd89c1b	0.026441624
181	0xbd763a15	-0.060113985
182	0xbca67af2	-0.020322297
183	0x3ace4a54	0.0015738704
184	0xbd797e6f	-0.060911592
185	0x3c17a86d	0.009256464
186	0x3b9e1306	0.004824045
187	0x3bd85dd4	0.006602982
188	0x3baccc66	0.0052733896
189	0xbcfa2a09	-0.030537622
190	0x3c97af45	0.018516192
191	0xbbcf1eff	-0.0063208337
192	0xbb6f7f06	-0.0036544218
193	0x3d875f64	0.06609991
194	0xbdbf4f03	-0.09341242
195	0xbd8bb5d8	-0.06821793
196	0x3c5a5e87	0.013328201
197	0xbde5e39a	-0.11225052
198	0xbde07663	-0.109600805
199	0x3c3cd431	0.0115252
200	0xbd830114	-0.0639669
201	0x3aae257b	0.0013286317
202	0xbcecdac8	-0.028912917
203	0x3ad5892c	0.0016291491
204	0xbc078d54	-0.008273441
205	0x3cd61f2e	0.026137915
206	0xbd4a69bc	-0.049417242
207	0xbc257086	-0.010097628
208	0xbd2bd3f2	-0.041950174
209	0x3bec3e1d	0.007209553
210	0xbc84893e	-0.016178723
211	0xbd8df05a	-0.06930609
212	0xbc648513	-0.013947743
213	0xbd588094	-0.052856997
214	0x3c8b8c11	0.017034562
215	0x3c71b257	0.014751992
216	0x3d1cbac0	0.038264036
217	0xbd54bc0e	-0.051937155
218	0xbdaa1ad8	-0.08305901
219	0x3c17ef46	0.009273356
220	0xbad80264	-0.0016480205
221	0xbb19113d	-0.0023356222
222	0xbd38bb0f	-0.045100268
223	0xbd97ab27	-0.074056916
224	0x3c835945	0.016033778
225	0xbd12ed90	-0.03587109
226	0xbc6badab	-0.014384667
227	0xbb16cea1	-0.0023011344
228	0xbd948d14	-0.07253471
229	0xbcd4e6d0	-0.025988966
230	0xbd25c1ca	-0.040468015
231	0xb875bce3	-5.8588466e-05
232	0xbd1987f6	-0.037483178
233	0xbbe50cb9	-0.006990042
234	0xbc1a5298	-0.009419106
235	0xba2ece5f	-0.0006668325
236	0xbd9be5b9	-0.076121755
237	0xbc60cdb3	-0.0137209175
238	0x3c07d620	0.0082907975
239	0xbcfa7fb6	-0.030578475
240	0xbba04d5b	-0.004892034
241	0xbda546c0	-0.08070135
242	0xbc394e63	-0.011310193
243	0xbcce2318	-0.025163218
244	0xbd802d47	-0.06258636
245	0xbad4d3fd	-0.0016237494
246	0xbd3fd31b	-0.046832185
247	0x3cfe4e26	0.031043123
248	0xbd100026	-0.03515639
249	0xbc5f0d3f	-0.013613998
250	0xbd646834	-0.05576344
251	0xbc0f3dac	-0.008742731
252	0x3b80e60c	0.0039336737
253	0xbd09039e	-0.033450715
254	0x3bcc04b7	0.006226148
255	0xbc6730d8	-0.014110766

a2c_network.actor_mlp.4.bias f4 [64]
0	0xbcc36fcd	-0.023857022
1	0xbda46cc8	-0.08028561
2	0xbccd1e0b	-0.02503874
3	0xbceea63b	-0.029132
4	0xbd0e1943	-0.03469206
5	0xbe289b56	-0.16465506
6	0xbde24ec0	-0.110501766
7	0xbcc54ad8	-0.02408354
8	0xbdabd705	-0.08390621
9	0xbcc3fd5f	-0.023924528
10	0xbccbbf09	-0.024871366
11	0x3b57f6d6	0.0032953522
12	0xbcbaa532	-0.02278385
13	0xbd9d2c13	-0.07674422
14	0xbd63ad4c	-0.05558519
15	0xbc36df03	-0.011161569
16	0xbd80604f	-0.062683694
17	0xbdf22b3b	-0.11824652
18	0xbcc92568	-0.02455397
19	0xbce5c7b2	-0.028049324
20	0xbd53fbd3	-0.05175383
21	0xbbdf96b2	-0.006823384
22	0xbd29c6d8	-0.041449398
23	0xbb5e791b	-0.0033946696
24	0xbd93c8a3	-0.07216003
25	0xbd148e9a	-0.036268808
26	0xbdd3cfb7	-0.10342353
27	0xbcd7f646	-0.02636255
28	0xbb17d081	-0.002316505
29	0xbd9c6b77	-0.07637685
30	0xbdda730e	-0.10666476
31	0xbcc32892	-0.023823056
32	0xbd8545a6	-0.06507425
33	0xbc438434	-0.011933375
34	0xbd9e431d	-0.077276446
35	0xbd8eec88	-0.069787085
36	0xbc7ad29e	-0.015309004
37	0xbc0a67a2	-0.00844756
38	0xbd08beb2	-0.033384986
39	0xbc65ad2f	-0.014018341
40	0xbe37011c	-0.17871517
41	0xbca5ff04	-0.020263202
42	0xbc7924bb	-0.015206511
43	0xbd29e165	-0.04147472
44	0xbcc7eb88	-0.024404302
45	0x3af073ae	0.0018345022
46	0xbd19f0f9	-0.037583325
47	0xbc604cb4	-0.013690162
48	0xbc90c4f1	-0.017672034
49	0xbd47f331	-0.04881591
50	0xbca77ca4	-0.020445175
51	0xbe3af688	-0.18258107
52	0xbd66f75b	-0.05638824
53	0xbcc7cd9e	-0.024390038
54	0x3be0e8bd	0.006863682
55	0xbcfba1f5	-0.030716876
56	0xbd4b3bf0	-0.049617708
57	0xbcbfc198	-0.023407742
58	0xbc9d3b03	-0.019193178
59	0xbc185d15	-0.009299536
60	0xbcd84abf	-0.02640283
61	0xbd21cfd6	-0.03950485
62	0xbda0e9e8	-0.07857114
63	0xbcb8bbec	-0.022550546

a2c_network.value.weight f4 [1, 64]
0	0x3d30dbef	0.043178495
1	0x3d1720f5	0.036896665
2	0xbd02a840	-0.031898737
3	0x3d145d21	0.036221627
4	0x3b9aad63	0.0047203763
5	0x3cb59de2	0.022170011
6	0x3d6daa03	0.058023464
7	0x3d69299c	0.056924447
8	0x3d4da958	0.050210327
9	0x3c22795c	0.00991663
10	0xbd18255f	-0.037145015
11	0x3b63a2b0	0.003473442
12	0x3b20df13	0.0024547025
13	0x3c41e1c7	0.011833615
14	0x3d0ab56d	0.033864427
15	0xbb1e676d	-0.0024170533
16	0x3bf2964e	0.0074031716
17	0x3c5f2129	0.013618746
18	0x3d45bd52	0.048276253
19	0x3d6bcf9d	0.057571042
20	0x3c99f137	0.018791778
21	0x3d0c5f5c	0.03427063
22	0xbaf6f4f0	-0.0018841308
23	0x3d6b99fc	0.057519898
24	0x3c295c09	0.010336884
25	0x3dd6f9aa	0.104968384
26	0x3d39f8dc	0.045403346
27	0x3d1bdafd	0.03805064
28	0x3a8bd6fa	0.0010668926
29	0x38a61cb2	7.920842e-05
30	0x3d2c1024	0.04200758
31	0x3c447c3b	0.0119925095
32	0xbb5093bc	-0.0031826338
33	0x3c6bd846	0.014394825
34	0xbbaa2578	-0.005192455
35	0x3c22d54d	0.00993855
36	0xbc4cd35a	-0.012501562
37	0x3b84dcc6	0.0040546386
38	0x3d2cece7	0.042218115
39	0xbbb3e79d	-0.005490257
40	0x3d12f633	0.035879325
41	0x3bdd2bc1	0.0067496006
42	0xbc3264dc	-0.010888305
43	0xbaeed914	-0.0018222653
44	0x3cf039ec	0.029324494
45	0xba1b69db	-0.00059285545
46	0x3d4cee91	0.050032202
47	0x3d2f6af1	0.042826597
48	0xbad44310	-0.0016194303
49	0x3d58b8c7	0.052910592
50	0x3bd3ed8d	0.0064675272
51	0x3d7858ff	0.06063175
52	0x3c960eae	0.018317547
53	0x3d350e42	0.04420305
54	0x3a3a2c1a	0.00071019086
55	0xbc13e8bb	-0.009027655
56	0x3d1b9cfc	0.03799151
57	0xbbd56be3	-0.0065131052
58	0x3c56ce03	0.01311064
59	0xbaf79631	-0.0018889365
60	0x3d41043c	0.04712318
61	0x3c9fd552	0.019510899
62	0x3d54d0d6	0.051956974
63	0xbc031c5d	-0.008002368

a2c_network.mu.weight f4 [7, 64]
0	0x3c51c465	0.012803172
1	0xbc815874	-0.015789248
2	0x3bd11f35	0.006381894
3	0xbcff3ced	-0.031156981
4	0x3b2032aa	0.002444426
5	0xbb7c866b	-0.0038532268
6	0xba6eb608	-0.0009106104
7	0xbcaec30d	-0.021333242
8	0xbb6effba	-0.0036468343
9	0xbd8e8507	-0.06958967
10	0x3c1e2512	0.009652393
11	0x3c333ad1	0.010939316
12	0xbbaec608	-0.0053336658
13	0xbc960963	-0.018315023
14	0xbc576cf1	-0.013148532
15	0xbbe7fa25	-0.00707938
16	0xbc109ee7	-0.008826948
17	0x3be9c695	0.0071342685
18	0xbc0abed5	-0.008468349
19	0xbbfb7bd7	-0.007674675
20	0xbc15b625	-0.009137665
21	0xbbb511a8	-0.0055257864
22	0xbb9d9d7d	-0.004810034
23	0xbbb8bf50	-0.0056380406
24	0xbc4b8ab5	-0.012423207
25	0xbc7fced7	-0.015613279
26	0x3ace90cc	0.0015759706
27	0xbc447868	-0.011991598
28	0xbb935edd	-0.0044973926
29	0xbcbdc7f1	-0.023166629
30	0xbc0dc149	-0.00865204
31	0xbc90590b	-0.017620584
32	0xbc9cad38	-0.019125566
33	0x3a069e42	0.00051352766
34	0xbc6073df	-0.013699501
35	0xbc454d58	-0.012042366
36	0x3c4e68d9	0.01259824
37	0x3ba4e73a	0.005032447
38	0xbc40ee36	-0.011775544
39	0xbd1de0de	-0.03854453
40	0x3bb1f573	0.005430871
41	0x3cc62ece	0.02419224
42	0xbc88edd1	-0.016714962
43	0xbbf6c3dd	-0.007530673
44	0xbc4e1b50	-0.012579754
45	0xbb109592	-0.0022061807
46	0x3adf1d4f	0.0017022284
47	0xbb93e9de	-0.004513963
48	0xbc74bfe8	-0.014938332
49	0xbbe16538	-0.0068785213
50	0xbb23f3df	-0.0025017185
51	0xbc153552	-0.009106951
52	0xbc90a1c7	-0.017655266
53	0xbc35d745	-0.011098688
54	0x3c58d418	0.013234161
55	0x3ca371fd	0.019951815
56	0xbb91027c	-0.004425345
57	0x3c863450	0.016382366
58	0x3c6689ef	0.014070972
59	0xbb38de9a	-0.0028208853
60	0xbb7c6515	-0.0038512398
61	0xbc93ea2a	-0.018055994
62	0xbc8aa75c	-0.016925506
63	0xbc8956b3	-0.016764974
64	0xbc66a551	-0.0140775
65	0xbcf10d52	-0.029425297
66	0xbc0f8624	-0.008760009
67	0xbc0d3ecd	-0.00862093
68	0xbad535b9	-0.0016266621
69	0xbc3b0a80	-0.011416078
70	0xbcb9c9fd	-0.022679323
71	0xbc90ab8a	-0.017659921
72	0xbbb6744c	-0.005568063
73	0x3cee86a0	0.029116929
74	0x3d000272	0.031252332
75	0x3c5756cf	0.013143255
76	0xbbeaa655	-0.0071609416
77	0x3cae6d94	0.021292485
78	0xbca6b00b	-0.020347616
79	0xbc27f65e	-0.01025161
80	0x396a46cb	0.00022342351
81	0xbca87906	-0.020565521
82	0x3b7547b9	0.0037426783
83	0x3be25e9e	0.006908252
84	0xbc866d2b	-0.016409477
85	0xbc7fcd51	-0.015612916
86	0xbcc73fb6	-0.024322372
87	0x3c16bb11	0.009199874
88	0xbcd7f5e5	-0.026362369
89	0xbc421d87	-0.01184786
90	0xbc6ab7c6	-0.014326042
91	0xbbf7340b	-0.007544046
92	0x3b3c7168	0.0028754119
93	0x3d2417c7	0.04006174
94	0xbcb38e95	-0.021918574
95	0xbb2ff43a	-0.0026848451
96	0x3c82433f	0.015901206
97	0x3b847f98	0.0040435307
98	0xbca73865	-0.020412633
99	0x3ccab4ca	0.02474441
100	0xbc2f6896	-0.010706088
101	0xbc018587	-0.007905371
102	0xbad2a1e6	-0.0016069978
103	0x3d3af06c	0.04563944
104	0xbbf65a25	-0.0075180703
105	0x3ca57156	0.020195644
106	0x3d171cd2	0.03689272
107	0xbc928551	-0.017885836
108	0xbc73080e	-0.014833463
109	0x3ba041ec	0.004890671
110	0x3c920003	0.017822271
111	0x3bfb62fa	0.007671711
112	0x3c2c3b56	0.010512194
113	0x3a59da92	0.00083104626
114	0xbb1029c7	-0.0021997557
115	0xbc0a9c11	-0.008460061
116	0xbb42361c	-0.0029634302
117	0xbbc74ade	-0.006081923
118	0x3ccd686e	0.02507421
119	0xbd0e38ff	-0.034722324
120	0x3a85b79b	0.0010201813
121	0xbc3395aa	-0.010960976
122	0x3c665f63	0.014060828
123	0xbb99ee8c	-0.0046976265
124	0x3b8a128d	0.004213637
125	0xbcad913b	-0.021187415
126	0xbcc5c4d0	-0.0241417
127	0xbc93c36c	-0.01803752
128	0x3be9e0b6	0.0071373833
129	0xbcbbd99f	-0.022930918
130	0xb99bc718	-0.0002971224
131	0x3bae112a	0.0053121047
132	0xbbb6d584	-0.0055796523
133	0x3a937bf2	0.0011252149
134	0xbbfdc18d	-0.0077440203
135	0x39bfc39d	0.00036576102
136	0x3a8868b8	0.0010407185
137	0x3cef5b76	0.029218417
138	0xbcc04c2b	-0.02347382
139	0xbab42538	-0.0013744002
140	0xbc1c7d27	-0.009551323
141	0x3c4eabc2	0.012614192
142	0xbaa0f709	-0.0012280653
143	0x3bfd5ca0	0.007731989
144	0xbc21ff14	-0.0098874755
145	0xbbb49b05	-0.005511644
146	0x3b8d9d93	0.004321763
147	0x3c4ae61e	0.012383966
148	0xbc960445	-0.018312583
149	0x3beb1c96	0.0071750386
150	0xbc3988af	-0.011324092
151	0x3c8bc3ad	0.017061079
152	0xbcabd017	-0.020973248
153	0xbc8ed6ee	-0.01743647
154	0xbc2f01b7	-0.010681561
155	0x3c19b0f7	0.009380571
156	0xbce04a86	-0.027379286
157	0x3d013b79	0.03155086
158	0xbc821d41	-0.01588309
159	0x3bd49960	0.0064880103
160	0x3c2d72f3	0.010586488
161	0xb99aa738	-0.00029497757
162	0xbc03e740	-0.00805074
163	0x3c0ceae6	0.008600926
164	0xbc6f0147	-0.014587707
165	0xbcd6bdd3	-0.026213562
166	0x39d30ff6	0.00040256948
167	0x3ca77ceb	0.020445308
168	0x3bd48f5d	0.006486817
169	0xbc5bf2af	-0.0134245595
170	0x3c069dcd	0.008216334
171	0xba1fe07d	-0.000609882
172	0x3bcaec9c	0.006192757
173	0xbc64eda0	-0.01397267
174	0x3c4c10a6	0.012455141
175	0x3c570a4a	0.013125012
176	0x3c46ec23	0.01214126
177	0x3bf631a5	0.0075132423
178	0xbaf4b34b	-0.0018669156
179	0x3bccf67a	0.0062549682
180	0x3b3c48bc	0.0028729877
181	0x3ba34161	0.004982159
182	0x3b052904	0.0020318637
183	0xbc5e048e	-0.013550891
184	0x3b8ef792	0.004363009
185	0xbbdc6c2b	-0.006726762
186	0xbbcdebf7	-0.0062842327
187	0xbca92816	-0.020648997
188	0x3c52403b	0.012832697
189	0xbc8c8d40	-0.017157197
190	0xbc505e97	-0.0127178645
191	0xbc0da032	-0.008644151
192	0xbc9d81f0	-0.019226998
193	0x3ca5177e	0.020152804
194	0xbc613a54	-0.013746817
195	0x3cab9200	0.020943642
196	0x3bfdd27d	0.0077460394
197	0x3b57149e	0.0032818685
198	0xbad2f397	-0.0016094324
199	0xbb1ca92e	-0.002390455
200	0xbbccf35c	-0.0062545966
201	0xbb43b5b7	-0.002986295
202	0x3abb66bb	0.0014297584
203	0xbb03c2ac	-0.0020105047
204	0x3cb1d789	0.02170922
205	0x3d2ad304	0.041705146
206	0xbbbb95d8	-0.00572465
207	0x3bb47550	0.005507149
208	0x3cddb3c7	0.027063264
209	0x3a613dea	0.0008592295
210	0x3aefaa7d	0.0018285062
211	0x3b0f84f1	0.0021899308
212	0xbba6e6c0	-0.0050934255
213	0xbbba05ac	-0.0056769457
214	0x3c4d89a7	0.012545026
215	0x3c098582	0.008393647
216	0xba2c904f	-0.0006582783
217	0x3c851793	0.016246593
218	0x3a96aa2d	0.0011494808
219	0xbb8a1cf9	-0.0042148796
220	0x3bfb2612	0.0076644504
221	0x3d31f6ae	0.043448143
222	0x3c14e530	0.009087846
223	0x3be2f2f1	0.0069259335
224	0x3d4e0a40	0.050302744
225	0x3c1449a8	0.009050764
226	0x3d12abd1	0.03580839
227	0x3d1995b3	0.03749628
228	0xbbce0a89	-0.006287877
229	0xba7acbb9	-0.00095671
230	0xbb16042a	-0.0022890666
231	0xbc1a829a	-0.009430552
232	0xbc2db3f5	-0.010601987
233	0xbc7dd032	-0.015491532
234	0x3d39227b	0.0451989
235	0x3bb5c394	0.0055469964
236	0xbac173b5	-0.0014759215
237	0x3c1b79a5	0.009489452
238	0xbc283dc4	-0.010268632
239	0x3ace6709	0.001574726
240	0x3ca7249e	0.020403203
241	0x3b1c1863	0.0023818247
242	0xbabf3a13	-0.0014589451
243	0x3a249516	0.0006278319
244	0x3ceaa7a5	0.028644392
245	0x3b88173e	0.0041531613
246	0xbc8e75ad	-0.017390097
247	0xbb6ffd2e	-0.0036619413
248	0x3a5872b1	0.00082568364
249	0xbb8ce7ac	-0.0043000784
250	0x39b346d9	0.00034194326
251	0x3c00e84a	0.007867882
252	0xbbd995b2	-0.0066401595
253	0x3c31b38f	0.010846033
254	0x3c04f755	0.008115609
255	0x3c28c304	0.010300402

a2c_network.mu.bias f4 [7]
0	0xbbf04ee9	-0.0073336256
1	0xbbfe239f	-0.007755711
2	0x3ad62473	0.0016337767
3	0x3cda8d8f	0.026678829
4	0xbd0e4354	-0.034732178
5	0xbbc7d665	-0.006098556
6	0x3cc09638	0.02350913

exp_avg f4 [7]
0	0x3a5aebee	0.00083511963
1	0x3a933cfb	0.0011233384
2	0xb9d44e82	-0.00040494284
3	0x38c35028	9.313255e-05
4	0xb92ac844	-0.00016287068
5	0x3a67a8a2	0.0008837079
6	0xbad268dd	-0.001605298

exp_avg_sq f4 [7]
0	0x36d60189	6.3778757e-06
1	0x3731b813	1.059288e-05
2	0x36cce1ce	6.105961e-06
3	0x3728124a	1.0017839e-05
4	0x36cf8fe2	6.185831e-06
5	0x37163bf1	8.954653e-06
6	0x36e4bb3d	6.816727e-06
