logs/rl_games/reach/2024-08-03_20-06-08/nn/last_reach_ep_2900_rew_-0.1949047.pth (torch, 622332 bytes, 36 tensors)

value_mean_std.running_mean f8 [1]
00000000: 9c08 5d57 89d9 b2bf
-0.07363184340377632

value_mean_std.running_var f8 [1]
00000000: 1b7b c684 7b16 ce3f
0.2350611112896893

value_mean_std.count f8 []
00000000: 0000 0001 00a8 b641
380108801.0

running_mean_std.running_mean f8 [33]
00000000: 554e e15b ff23 ba3f 6adf f10d dedb afbf
00000010: eb57 0e29 5e49 953f 003b c056 f4f9 d03f
00000020: c5ba df92 40cb bc3f 75b8 f91b 353d a3bf
00000030: bdde a896 fb8a 8dbf d0b9 4440 cfd3 863f
00000040: 4f22 189c f4c5 963f 581c 90fc d92c 8bbf
00000050: 4945 f05f d448 743f 0b41 d542 11b0 b43f
00000060: 821b c4ac 77af 973f 6052 5b28 db46 7dbf
00000070: 729b a7ba d586 62bf baf6 486f 7723 6f3f
00000080: d1e9 c690 ae26 543f 42ae 9d5b 83f4 64bf
00000090: ba9e 4dc4 b5ba c8bf 49f9 2483 2963 f63e
000000a0: fb3d 5e96 69f8 e8be b4b0 97b6 a299 b9bf
000000b0: 6859 b2fd a117 4a3f 4cd8 2c5d ffff ef3f
000000c0: 0000 0000 0000 0000 0000 0000 0000 0000
000000d0: 796c 506f 644a 1e40 2273 3ce5 2e4c 1ec0
000000e0: d3c9 6e28 3727 2140 82fc 5fa9 c276 1f40
000000f0: 8c54 0db0 fe70 2140 4c20 65e7 5f7b 1fc0
00000100: a4fb d27b 2f21 1ec0
0.1021117781941084 -0.06222433014130398 0.020787688499318262 0.26525600883262257 0.11247638307370796 -0.03757635084626624 -0.014425244841830826 0.011146182202165372
0.022239515330541967 -0.01326914121638205 0.0049522682084142755 0.08081157571473711 0.023130292815973792 -0.007147651752991452 -0.0022615599057078046 0.0038010914525149183
0.0012299256078295193 -0.0025579991897098095 -0.193197937823461 2.135024278370729e-05 -1.1906796043153157e-05 -0.10000054319215473 0.0007962742778484912 0.9999996967151303
0.0 0.0 7.572648753436732 -7.57439764195877 8.576592696689579 7.865976950152914 8.720693112971524 -7.870483031794787
-7.5324076983951365

running_mean_std.running_var f8 [33]
00000000: b6d8 39bd 30ce d33f 3f78 d5e0 e113 bd3f
00000010: 8f81 3c1d a507 693f d1a9 e2b8 0888 fa3f
00000020: b05f 9708 4675 ce3f 685b 5876 b6e6 a33f
00000030: 023a ff24 32da 6f3f 5433 1d18 05a6 723f
00000040: 3766 9eb9 24ea c83f 3564 e32c 7e3d c13f
00000050: 5381 15fd 7129 833f 7c24 d6f0 0978 d93f
00000060: 8550 78e8 101a c93f ad0b da2a ef99 be3f
00000070: b98e 2328 8dd6 9a3f a0f6 4c25 44ca 9f3f
00000080: c620 3c38 84f8 a53f 8274 4654 6695 9a3f
00000090: d691 3093 3b4a 693f 76fd bf07 924e 4b3f
000000a0: 2001 785d 694e 4b3f 6847 e110 e77c 213f
000000b0: cf70 0323 4099 363e d87f a0c0 3e99 463e
000000c0: e113 9e32 3f99 363e e113 9e32 3f99 363e
000000d0: d853 0b7a ad67 8e40 7375 c39f 8421 9040
000000e0: bc33 6500 8a5a 8c40 6d66 fa8f 0432 8f40
000000f0: b5c2 9d9c e46a 9040 63de d03b e611 8f40
00000100: 4b7f 2383 0168 8f40
0.3094598625097079 0.11358463038547571 0.0030554032217795023 1.658211443146332 0.23795390529153115 0.03886957354205017 0.003888223589434193 0.004552860163880752
0.19464549125113859 0.13468911353882765 0.009356394325266726 0.39795158881367576 0.19610797263215232 0.11953635021386218 0.02620907361496336 0.031045021797800332
0.042911655296906256 0.02596053971648305 0.0030871547292170383 0.0008333409346050053 0.0008333219984138253 0.00013342209462279962 5.261654709340925e-09 1.0523299582480848e-08
5.261651373176951e-09 5.261651373176951e-09 972.9597054371798 1032.379515699428 907.3173835665143 998.2522277414806 1050.7232536935892 994.2374187772624
1005.0007384083959

running_mean_std.count f8 []
00000000: 0000 0002 00a8 a641
190054401.0

a2c_network.sigma f4 [7]
00000000: e053 92c0 b277 8ec0 8944 94c0 1801 8dc0
00000010: 8c67 88c0 6bf3 89c0 5c6c 8ec0
-4.5727386 -4.4521112 -4.633366 -4.4063835 -4.26264 -4.310964 -4.4507275

a2c_network.actor_mlp.0.weight f4 [256, 33]
00000000: ab5a cbbc c44d 95bd 9da1 fc3c 8ea0 d5bb
00000010: 5a56 763d 3e41 aebd 22cb 7ebc a900 043c
00000020: a56f 8fbc e319 443e 7cb5 bfbd ca26 4c3d
00000030: d355 1e3e 035c 813d ce34 853d 2a1d 413d
00000040: 1786 c03c 484c 0a39 c2e1 55be 11af d5bb
00000050: 3fad ba3b b8f5 4cbb 602b bd3d f27c 143e
00000060: 9c75 46bb 1681 0b3e 96b2 d5bb c968 ccbd
00000070: 9889 44bd 9a0e 093e 3a0c 80bd 43f6 9abd
00000080: 051e 8ebd a37a d93d 5438 32be 0ef1 53bd
00000090: c825 9cbd b973 aebd a8bb 1a3d 2f98 3d3e
000000a0: fbe9 4ebe 2799 17be 93b0 b9bd dafc 033e
000000b0: 3070 1abe bb1d 7fbb dfb6 aa3d ef6c 2ebf
000000c0: 9824 d5be 0144 cfba 4d2d d83b 6b7a f03e
000000d0: 711e 47bb cbf2 e939 4397 10bc 3858 debd
000000e0: 4856 603d febc 163d 8dca 35bd 653d 483e
000000f0: 0189 a43d aa43 37bd 8a4b 63be eea8 a93d
00000100: 04e6 a4bb 51eb 02bd 23be f2bc 996e 49bd
00000110: dea9 493d e24d 7dbd dc8f da3c 0220 43bd
00000120: 8438 42bd 22cf 33be acfe 13ba 6ce7 733b
00000130: 48e9 c3bd 0243 5a3d d049 2dbd 08fb b7bd
00000140: 4de1 5b3a b806 4ebe b5d5 b0bb 43bc fbbb
00000150: a2e4 3ebe 2db3 d0bb e435 c63b 383b ac3a
00000160: 0b5c 51bd 48e4 c03c 1d95 f1bd 1cb5 f4bd
00000170: 64fa e3bb 4691 09be 7b9e b4bd 3f9c 323e
00000180: 47a5 18bd 03ae bd3d 8d32 443c 85cc fa3c
00000190: bfcf c73d a068 f4bd b9ab 06be add1 3b3b
000001a0: 63c5 303d 3051 8a3d 8df6 27be 7659 06be
000001b0: 5d4c 0dbd 4067 683d 1ade a5bd 47bb 4dbd
000001c0: ccdd c9bc 4413 c43e d785 883e 9411 bebc
000001d0: 82de 513c 3186 13be 537d 463b 1727 69bb
000001e0: e07d 0fbb e15e 173e 97f4 33be ac89 be3d
000001f0: 8e95 7a3d 3684 733d 641b 33be 4033 783e
00000200: 4a1d b13d 4326 a03d b82c 19bd 972a f63d
00000210: 9094 20bd 8f3f 1ebe ffde d33d 0f81 1c3d
00000220: 6320 db3d 1ec7 1f3d 4b6b 863d 6198 14be
00000230: 32fa 0fbc 4f38 5f3d e974 8abd 7a90 adbd
00000240: 5ac2 8f3c a72d 923d 20e4 70be bfcd 96bd
00000250: 8c8b 21bb fec1 8e3c 032d 523c 3626 4b3a
00000260: bd4e ad3a 87e3 973b 2ac0 08bd 798b 88bc
00000270: 3d8f 983c a3ea fbbc 461c 643a b777 483c
00000280: 1a63 f23d 09d0 95bd e221 2ebd eb3b 573c
00000290: 0a27 4abc 0eb1 00bd 2d49 04bd 18cd 03be
000002a0: d544 a8bd 562d ae3d fa52 c13c 61c0 90bc
000002b0: a9fd d3bd dcb5 81bd 98b1 5fbd dfe5 f0bb
000002c0: 0301 ed3d b41a 84bc 2cc8 2e3c 0c0e 1dbe
000002d0: 2c94 acbd 26b0 0bbd cf76 edba 1d3a dabd
000002e0: 9e34 8d3a b786 d3bb 7c36 3abc cec4 10be
000002f0: ed68 4e3d 301b a2bd eeef 0ebd 7c78 46be
00000300: a43c 4f3e 0dc7 223e fff0 a5ba 9e21 efbd
00000310: 0369 29be 371d 9ebd 4495 3dbd 66ac 2dbd
00000320: d620 183d 5bfc abbc 5224 eb3d 6f9c ecbc
00000330: 88e4 cdbd 07f1 12be 4b1d 7dbc 476c fc3c
00000340: f066 d9bd 033b b7bd 6881 d83c 8475 9f3d
00000350: 7295 12be 266c 6c3b a748 a83b 22fc bbbb
00000360: 5b50 b5bd 07ef e9bb fe42 9dba 2c5c e83b
00000370: d770 8bbd ce92 f03c cfb2 29be f676 c73d
00000380: d25d 66bd d6d5 4bbd 91cb e73d a38f 1e3e
00000390: 9dfe 69bc 55ce 8a3d 8122 fcbc ed6c b1bc
000003a0: 0097 c7bc 8779 723c 1d11 edbc 8161 2cbd
000003b0: e96c 703d 2860 913c c001 3cbe 1d59 ddba
000003c0: a4ab debc eae3 37bd f088 673d 12ad d3bc
000003d0: 80ee 0abd 5f9a d4bb 241a fcbd 5568 d23b
000003e0: b303 09bc 00e9 163e 891f 50bb 1790 233b
000003f0: cbb6 253b dcda 38be f0f0 ed3d ea6f 153e
-0.024823507 -0.07290223 0.030838782 -0.0065193838 0.060140945 -0.08508538 -0.01555136 0.008056798
-0.017509291 0.191505 -0.09360787 0.04984168 0.15462427 0.06316378 0.06504212 0.047146954
0.023501439 0.00013189123 -0.20886901 -0.0065211137 0.005696922 -0.003127439 0.09236789 0.14500788
-0.0030282503 0.13623461 -0.0065215332 -0.09980924 -0.047982782 0.13384476 -0.06252332 -0.07566502
-0.069393195 0.10619094 -0.174043 -0.05174356 -0.07624394 -0.08518166 0.03777662 0.18515085
-0.20206444 -0.14804517 -0.09066882 0.12889424 -0.15081859 -0.0038927633 0.08335661 -0.6813497
-0.4162948 -0.0015813113 0.006597197 0.46968397 -0.0030383135 0.00044622118 -0.008825126 -0.1085667
0.054769784 0.03680133 -0.04438262 0.1955467 0.08033944 -0.044742264 -0.22196785 0.08284174
-0.005032303 -0.031962696 -0.02963168 -0.04917774 0.049234264 -0.061841853 0.026679926 -0.047637947
-0.04741718 -0.17559484 -0.0005645554 0.0037216796 -0.09565979 0.05328656 -0.04230672 -0.08983427
0.00083877594 -0.2011975 -0.0053965696 -0.0076823547 -0.18641904 -0.0063690157 0.0060489047 0.0013140207
-0.05111317 0.023546353 -0.11796019 -0.11948606 -0.006957339 -0.13434324 -0.0881929 0.17442416
-0.037266996 0.09261706 0.011974943 0.0306151 0.09756421 -0.11934018 -0.13151444 0.0028658912
0.043156993 0.067537665 -0.16402645 -0.13120064 -0.034496654 0.056739092 -0.08099003 -0.05022743
-0.024641894 0.38295949 0.26664612 -0.023201741 0.012809398 -0.14406659 0.0030287101 -0.0035576278
-0.0021895096 0.14782287 -0.17573772 0.093036026 0.061177783 0.059452258 -0.17490917 0.242383
0.086481646 0.07819798 -0.037396163 0.12019842 -0.03920418 -0.15453933 0.103452675 0.038209017
0.10699537 0.039008252 0.06563433 -0.14511253 -0.008787679 0.05449706 -0.0676058 -0.08474822
0.017548729 0.07137614 -0.23524523 -0.07363462 -0.0024649827 0.017426487 0.012828114 0.00077495293
0.0013222318 0.0046352777 -0.033386387 -0.016668068 0.018622989 -0.030751532 0.0008701723 0.0122355735
0.118353084 -0.0731507 -0.042512782 0.013136844 -0.012338409 -0.031418853 -0.03229635 -0.12871206
-0.08216254 0.08504741 0.023599137 -0.017669858 -0.10351116 -0.06333515 -0.054612726 -0.0073516215
0.115724586 -0.016126014 0.010667842 -0.1533739 -0.08426699 -0.034103535 -0.0018117073 -0.106556155
0.0010773127 -0.0064552682 -0.011365529 -0.14137575 0.050393034 -0.07915342 -0.034896784 -0.19381899
0.20237976 0.15896244 -0.0012660323 -0.11676334 -0.16543965 -0.07720416 -0.04628493 -0.04240074
0.03714069 -0.020994356 0.11481537 -0.028883187 -0.100533545 -0.14349757 -0.0154488785 0.03081335
-0.10615337 -0.089468025 0.026428893 0.07786086 -0.14314821 0.0036075204 0.005135614 -0.0057368437
-0.08853217 -0.00713909 -0.0011998115 0.007091066 -0.06808632 0.029366877 -0.16572116 0.09739487
-0.056241818 -0.049764477 0.11318124 0.1548448 -0.014281896 0.06777636 -0.030778171 -0.021658385
-0.024363995 0.014799482 -0.028938824 -0.042085174 0.058697615 0.017746046 -0.18360043 -0.001688752
-0.027181454 -0.04489509 0.05652708 -0.025839362 -0.033918858 -0.006488129 -0.123096734 0.0064211288
-0.008362698 0.1473732 -0.0031757078 0.002495771 0.0025285955 -0.18052238 0.11618221 0.14593473

a2c_network.actor_mlp.0.bias f4 [256]
00000000: e98c a73d 1dc1 49bd 45e7 3dbc 7d95 43bd
00000010: 733d f73c 1081 9fbd e52f 923d 3e72 92bb
00000020: fb05 b2bd a541 f5bd 27fb 9e3d 3c05 c3bc
00000030: 694f 943d 9ed0 cf3d 5c59 273d 345d a1bc
00000040: e923 40bd b34a 3abc 1f32 30bd 7fe8 19be
00000050: fecf a93d 26c4 a53d 5aa5 fabd 3829 e13d
00000060: 158c 883b 334d 2d3e 822c c0ba 4768 e63d
00000070: 5a00 e73c 2950 9dbd f8ef 80bd 1ef8 57bd
00000080: 4267 183e 0327 943d 66df 8b3d 9cec 6dbd
00000090: 7fd4 09be 7e3d c6bd f4a9 493d 80a2 76bd
000000a0: a995 8bbd a3ef abbd 12a6 a93d f69a 93bd
000000b0: b38d d53d 5a04 023e 4021 313d 81a6 49bd
000000c0: 4bd3 c13c 4d75 ed3d 7247 e73d 1c62 f73d
000000d0: 1ad8 6b3c 6af7 433d 422e e4bd ea5a f03b
000000e0: 64e2 6bbd c93e 073e cf9e 2abd 933f 903d
000000f0: 6175 a7bd 069c 83bd 312d 833d 082d 5e3d
00000100: 23d6 10be 855b 0abd 09ae 6c3d 57ee d33d
00000110: f9dc 87bd 9d2c 073e c179 9ebd 5401 e2bc
00000120: eb04 9abd e41a 9e3d 6292 e8bc ca3e b1bd
00000130: d142 c03d b8af bc3d 6b20 053e 4731 113d
00000140: 162b dcbd 1582 893d 6b7f 6abd 70a4 153e
00000150: 77af e03c 0bd3 46bd d671 8dbd 45ec 903d
00000160: eeb5 1a3d 8da8 9fbd 25ee e1bd 6b97 07bd
00000170: cb02 0c3e a114 4fbc f847 0a3e 6146 b4bc
00000180: f452 a73d 5ef5 113e cece eb3d 3fc7 c93d
00000190: 885a 1c3d 2400 593d c997 eebd 1ac7 ff3d
000001a0: d92b 20be 00fa 053d 127f cf3d 070c bc3d
000001b0: 05bc 0fbe ae6a 173e c2aa 0dbe f0cd 11bc
000001c0: 0e6b 203e fe8e be3d 05a6 6fbd e404 28be
000001d0: 9902 edbd 9d40 66bc df7e cfbd bb74 e5bc
000001e0: 94f8 8c3d 3cae f5bc b3a4 a1bd 2090 c1bd
000001f0: 5b85 a3bd fff3 9bbd e84d 0abe 437c 7c3d
00000200: e7cb 6f3c a19e 93bd 8eb9 ac3d 1ef3 dabd
00000210: 3d70 cbbd 3552 a338 c91e a33d 17d3 51bd
00000220: 0b32 e3bd d7e1 ea3d d119 89bc 0d40 26bd
00000230: 821a 133e 758b 99bd 6c41 c03c 72ec 83bd
00000240: def1 bb3d 5679 0dbd e285 be3d 5aa2 863d
00000250: e857 11bd d05a 063d f647 03be 195b a63d
00000260: f97b 49bd 72d7 843d 690b 61bd cb3f e63d
00000270: 208a c53d b260 833b 9d37 d2bd f6ae 04bd
00000280: 1b23 53bd 98cf 823d 7ced 943d 111e ba3c
00000290: 1353 263c 454d 8f3d 91e0 563d f70b c03c
000002a0: 9e55 a0bd 582a eb3d f48a b43d 02e5 0fbe
000002b0: 326a ff3d 3c29 583d 9bdb 203c d82f 853c
000002c0: e4e1 373d 27df a33c 94e9 b9bd 47f1 f13d
000002d0: 8649 573d 0b8b 50bd ba64 35bd 80b1 b4bd
000002e0: 1657 b0bd 0a73 36bd 4a41 3e3c abf7 82bd
000002f0: dbbd cbbd 5f36 7cbc d845 1abe 8fe0 783d
00000300: 4bed eebc 1599 133d 0a10 dcbd 4e12 3fbc
00000310: 707b 9dbd ea28 cb3d 2eec 1abd 56a8 9b3c
00000320: 9b6a 793b 10a0 b7bb 9306 3c3e 214f af3d
00000330: 25c7 f43b e65b 8dbd f79b 193e c123 3cbe
00000340: 34f0 2cbc d6be 673e 1fe8 963d 5651 6cbd
00000350: 4df9 adbd b30f 14bd ce42 9bbc 0d38 72bd
00000360: fe6f 8d3c 3633 b83d e232 303d 33c0 cfbd
00000370: e16e c9bc 9270 08be a8f9 843d 0165 20bc
00000380: 7ef1 6dbd 40c7 cb3d 0f5b 203e bfd6 f2bc
00000390: 4707 6fbd 1f19 d5bc 8dd6 86bd ed13 273d
000003a0: 2060 f53d dc87 423d 4e9d 70bc a87d eabc
000003b0: c168 adbd 4ed0 e53d b0f1 403c 733b 073d
000003c0: a1d5 e83d 965f e4bd 4f0e 963d 8d77 8bbd
000003d0: 2bd0 6abc deeb f3bd 8ecb c83d a279 213e
000003e0: 0245 b43d e8ae d13d 077c 4c3d 6194 f4bc
000003f0: 13cc 9dbb f9e9 1f3e 9e90 943d fc4b c93d
0.08181173 -0.049256433 -0.0115907835 -0.047749985 0.030180668 -0.077882886 0.071380414 -0.004469185
-0.08692547 -0.11975411 0.07762747 -0.023806207 0.07241709 0.101472124 0.040856704 -0.019697763
-0.046909247 -0.011370349 -0.04301655 -0.15030096 0.082916245 0.08094053 -0.122385696 0.1099419
0.0041670897 0.1692398 -0.0014661702 0.11250358 0.02819841 -0.07681305 -0.062957704 -0.052726857
0.1488314 0.072340034 0.06829719 -0.058086976 -0.13459967 -0.096796975 0.049234346 -0.060213566
-0.06815655 -0.083953165 0.082836285 -0.07207291 0.104274176 0.12696972 0.0432446 -0.049231056
0.023660323 0.11594639 0.11292924 0.1207926 0.014394784 0.047843374 -0.111416355 0.0073350566
-0.05758895 0.13207544 -0.041655358 0.07043376 -0.08176685 -0.064262435 0.06405104 0.054242164
-0.14144187 -0.033778686 0.05778316 0.10348194 -0.06633944 0.13200612 -0.077380665 -0.027588524
-0.07520469 0.07719973 -0.028390113 -0.08654554 0.09387744 0.09213203 0.13000648 0.035447385
-0.107504055 0.06714264 -0.05725042 0.14613509 0.027427418 -0.04854111 -0.06906478 0.07076315
0.037771158 -0.077958204 -0.110317506 -0.033103388 0.1367294 -0.012639196 0.13504016 -0.022006216
0.08170119 0.14253756 0.11514054 0.09852456 0.038172275 0.05297865 -0.116500445 0.124891475
-0.15641727 0.03270912 0.101316586 0.091819815 -0.14036568 0.14786789 -0.1383467 -0.008899197
0.15665838 0.09304617 -0.058507938 -0.16408116 -0.11572761 -0.014053491 -0.101316206 -0.028009763
0.0688335 -0.029990308 -0.07892742 -0.09451318 -0.0798442 -0.07614898 -0.13506281 0.061641943
0.014636016 -0.072079904 0.08433829 -0.10690902 -0.09933517 7.787758e-05 0.07964856 -0.0512267
-0.11093529 0.11468857 -0.016735943 -0.040588427 0.1436558 -0.074973024 0.023468696 -0.06441583
0.09176992 -0.034539543 0.0930288 0.06573935 -0.035484225 0.03280145 -0.1282042 0.08122844
-0.049190495 0.064864054 -0.054942522 0.11242636 0.09645486 0.0040093297 -0.10264514 -0.03239342
-0.05154715 0.063872516 0.07271859 0.022719415 0.010151642 0.0699716 0.052460257 0.023443205
-0.0782883 0.11482686 0.08815566 -0.14052203 0.12471427 0.0527737 0.009817983 0.016258165
0.04489316 0.020003868 -0.090777546 0.11813598 0.05256035 -0.05091385 -0.044285513 -0.08822918
-0.0861036 -0.044543304 0.011612246 -0.06394895 -0.099483214 -0.015393822 -0.15065706 0.06076103
-0.029165884 0.036034662 -0.10745247 -0.011662079 -0.076895595 0.09919913 -0.037822895 0.019001167
0.0038057927 -0.0056037977 0.18361883 0.085600145 0.007470029 -0.06902294 0.15000902 -0.18373014
-0.010555316 0.22631392 0.07368492 -0.057694755 -0.08494816 -0.036147784 -0.018952753 -0.059135485
0.017265316 0.08994143 0.043017276 -0.10144081 -0.024589004 -0.13324192 0.06492931 -0.009789706
-0.058091633 0.09950113 0.15659736 -0.029643415 -0.05835655 -0.026012955 -0.06583891 0.040790487
0.11981225 0.047492847 -0.014685942 -0.02862437 -0.08467246 0.112213716 0.011776373 0.03301568
0.113688715 -0.11151044 0.07326948 -0.06809912 -0.014331858 -0.119102225 0.0980445 0.15769055
0.08802225 0.10238439 0.04992297 -0.029855909 -0.0048155873 0.15616597 0.07254146 0.09828946

a2c_network.actor_mlp.2.weight f4 [128, 256]
00000000: 7db0 a8bd 1a7a b03d 05eb 1fbd 497d 59bd
00000010: c29d 8b3d ff64 4b3d 6007 ee3c 2cee 553d
00000020: 7571 8fbd 71e8 19bd 75f1 263c 00ab 823d
00000030: 14fa f9bb 36a7 db3d cfb0 dcbb 34ba 63bc
00000040: 7378 b8ba 8b03 3abc b28d b63d d467 3cbd
00000050: 1835 eb3d 0d2c d9bc 3591 c6bc 8cb7 1bba
00000060: 6771 00be 540d 90bd 9b5f 813d d0dc eb3d
00000070: d8bd f9bc 3ae3 8c3c f21f 33bd 14cd 07bd
00000080: 67f6 46bd 25d4 703d b393 eabc 6d77 973d
00000090: 90d3 1e3d 8c43 cabd 020a 373d e75c 5a3c
000000a0: 4944 e13c 2796 56bd 8ccb c03d 62cf f5bb
000000b0: d4ec bb3c a802 9b3d 0294 d13d 250b 883d
000000c0: a2fb 45bc a0bc abbc a378 2c3c 722a 4b3d
000000d0: a64a a1bd 6f9d 70bd 3447 513d c9a1 893c
000000e0: 8188 513d c205 eeba 1cd2 a2bd 9414 a93d
000000f0: 7a61 eebc 774d 863d 5a7c 74bd af7e 72bd
00000100: c9ba b4bd 114b 923c 0a22 c73d 19cf f33c
00000110: 4ef6 88bd b587 b63d 1dfd fcbc 86b0 933c
00000120: d9e8 a6bc 72d7 a03d 8fc3 52bd 4e1f 123e
00000130: 6018 673d 334b 093d 3f66 e93d 6718 d13c
00000140: 848e 13bd 1277 873d 5fe5 f7bc a6b6 123e
00000150: 6c83 873d ef65 28bd 3c84 72bc 3e87 eebb
00000160: d530 0fbd baff 073d 4e2c 71ba ca42 b3bb
00000170: bb9d cf3d fac1 2d3d 839d d4bc d0dc eb3a
00000180: 8c35 6abd 431a f8bc a03b 273d 2429 c7bb
00000190: 293e 523d 2c14 f53d 82f7 ee3c cefb f33c
000001a0: 7b1d af3c 6429 66bd 6e0a c43d 5552 3cba
000001b0: ab83 b53c 8b86 f23c cb2f af3d 4be4 053d
000001c0: fbc6 1f3e a393 b03c 0cac 4cbc a381 343d
000001d0: 405a 903d 5620 ab3d ac84 0abc cc6a d9bd
000001e0: b8b4 aabd 433f e8ba 55e5 07bd 6244 a7bd
000001f0: 137b d83c 837a 51bc 1d32 eabc 3723 1b3d
00000200: d06d 093e d111 bf3d 9c3e 593e 7481 e5bc
00000210: c236 983b a618 d7bd b684 2f3d 59f0 babb
00000220: 7179 3fbc e640 6eba bb89 85bc c9d7 0c3d
00000230: 1a6f 49bd be4a e83c 05d7 ffbb 8982 e03c
00000240: ea7d 73bd f76c 1dbc ed88 8f3d 9ae6 96bb
00000250: 6545 0cbd cb4a dcb9 f595 ba3c 3a17 b03d
00000260: d7b7 32bd adb9 be3d 2486 20bd 2a0b a93d
00000270: 97f2 893d b0a6 36bd c00e 2e3d 80e7 4f3c
00000280: 6442 a8bc 3c74 b03d f66a 413c 5fe7 10bc
00000290: 6f99 26bd 7699 babc 6635 ab3d 4336 1dbd
000002a0: ae80 53bd 4875 3d3c 6f0f fdbc b9fe a23c
000002b0: 2054 d7bc 54ef 83bb b0ff f7ba e9cc ae3d
000002c0: 60c5 293d b1e0 9d3d c940 573d 4e22 f43c
000002d0: 0c73 cd3c c4dd e33d 4676 afbd d7a6 303c
000002e0: 647b af3d aaf9 9a3c ab5d 11bc e8c6 cfbc
000002f0: d9dc 87bd 30e6 123a a1e7 acbd 87b0 75bd
00000300: 9c43 633d 8a79 e13d f5db b8bd aceb 763d
00000310: e8bf 32bb f360 023d a0bc 653e ab83 86bc
00000320: a94c e3bc 1251 863c f9fa 933d b21e 243c
00000330: 144a 7e3d 98bc a53d e131 99bd a6d0 88bd
00000340: 7838 fabc 2232 52bd 5ef4 8dbc 9a64 82bc
00000350: 5ba4 593d f7a3 303d 7c27 0d3b e025 16bb
00000360: 699a 483d bc93 403d 1c87 b63d c793 7c3d
00000370: 4e6c 8c3d 2866 333d 0734 cd3d a812 0b3d
00000380: a2ac 99bc 5135 90bc 0cc8 ec3d a1e2 a7bc
00000390: 3ceb 41bd 5e94 1a3d d7ac 073d fef0 5a3d
000003a0: 3739 ffbc ea0d 463c 4939 f13c 0363 aa3c
000003b0: 75b6 2ebd 5325 88bd f379 a83d 1dbd f9bb
000003c0: 37de bc3d d0d8 eabd 54f1 833d 3046 c2bd
000003d0: 792e cdbb fa0d 3b3e e6ce e0bd 3220 693d
000003e0: bbeb c63c 552f 113c dc39 753c cddb ccbc
000003f0: def9 9fbd c4c6 473c e3f5 6abd 5ff6 8a3c
-0.082367875 0.08617039 -0.03904249 -0.053097997 0.06817199 0.049656864 0.029056251 0.05222909
-0.07004062 -0.03757519 0.010189404 0.06380272 -0.0076286886 0.10725252 -0.0067349444 -0.013899375
-0.0014073983 -0.011353384 0.08913745 -0.045997456 0.11484736 -0.026510263 -0.024239162 -0.00059401314
-0.1254326 -0.07033792 0.063170634 0.11516726 -0.030486032 0.017198194 -0.043731637 -0.033154562
-0.04857483 0.058796067 -0.028634882 0.073958255 0.03877598 -0.09876165 0.04468728 0.013327814
0.027498381 -0.05238929 0.094138235 -0.0075015286 0.022940077 0.07568866 0.102333084 0.06642751
-0.01208392 -0.020963967 0.010526809 0.049601026 -0.07875566 -0.05874389 0.051093295 0.016800778
0.05115557 -0.0018159675 -0.079502314 0.08255878 -0.029099215 0.06557744 -0.059688903 -0.059202846
-0.08824689 0.01785806 0.09723289 0.029761838 -0.06687604 0.08912603 -0.030882413 0.018028509
-0.020374702 0.07853593 -0.05145603 0.14269754 0.05641973 0.03351898 0.11396455 0.025524331
-0.036024585 0.06614508 -0.03026074 0.14327487 0.066168636 -0.041112836 -0.014802035 -0.0072793057
-0.03495868 0.033202864 -0.00092000223 -0.0054706084 0.101375066 0.04242132 -0.025954014 0.0017994884
-0.057179973 -0.03028596 0.040828347 -0.0060779024 0.05132881 0.11966738 0.029170755 0.029783156
0.021376362 -0.056191817 0.09572302 -0.0007183899 0.02215751 0.02960517 0.08554038 0.03268842
0.15603249 0.021554774 -0.012492191 0.044068944 0.07048464 0.08355777 -0.008454483 -0.10616073
-0.083352506 -0.0017719049 -0.033177692 -0.0816734 0.026425874 -0.012785557 -0.028588349 0.03787538
0.13420796 0.0932957 0.2121529 -0.02801583 0.0046451995 -0.10502748 0.042851172 -0.005704921
-0.011686669 -0.000908865 -0.016301027 0.034385476 -0.04917822 0.028355952 -0.0078076147 0.027405994
-0.059446253 -0.009608499 0.070085384 -0.0046051266 -0.034245867 -0.00042017395 0.022776583 0.0859818
-0.043632355 0.093127586 -0.039190426 0.082540825 0.067357235 -0.04459256 0.042494535 0.012689471
-0.02053947 0.0861592 0.011805287 -0.008844226 -0.04067367 -0.022778254 0.08359794 -0.038381826
-0.05163639 0.011563607 -0.030891148 0.019896852 -0.026285231 -0.004026333 -0.0018920805 0.08535177
0.041447997 0.07708872 0.05255202 0.029801514 0.025079273 0.11126283 -0.08567481 0.010781965
0.08568457 0.018917877 -0.00887243 -0.0253634 -0.0663392 0.00056037586 -0.08442617 -0.059982803
0.0554844 0.1100951 -0.090263285 0.060283348 -0.002727503 0.03183074 0.22435236 -0.016420206
-0.027746515 0.01639608 0.072256036 0.010017084 0.062082365 0.08092612 -0.07480217 -0.066804215
-0.030544505 -0.05131734 -0.017328437 -0.015917111 0.053135257 0.04312512 0.0021538427 -0.002291076
0.048975382 0.04701589 0.08912489 0.06166437 0.06856595 0.043798596 0.10019689 0.03395334
-0.018759076 -0.017603548 0.115615934 -0.020493807 -0.047343478 0.03773915 0.033123817 0.053452484
-0.031155212 0.012088278 0.029446261 0.020799166 -0.042654473 -0.06647744 0.08226385 -0.007621421
0.092220716 -0.11467135 0.06442514 -0.094860435 -0.0062616435 0.1826705 -0.10976963 0.05691547
0.024282327 0.0088613825 0.014967408 -0.025007153 -0.0781133 0.0121933855 -0.057363402 0.016963182

a2c_network.actor_mlp.2.bias f4 [128]
00000000: 1663 3abc 8507 88bc 375b 3cbc 6db8 e2bc
00000010: fb71 86bb e237 3fbc 7646 adbc 22c3 dabc
00000020: 6989 a2bb 1b0f 2fbc e82e 333b 70d0 62bb
00000030: 2dff eebc 194f 0dbb 4fd5 95bc 7a33 fabb
00000040: 5a22 adbb 83ff 0cbc 81ad b7bc df4d 933a
00000050: 2baf ecbb 6318 02bc b4c0 c2bc 64b9 3fbc
00000060: bc34 8abe 8d6d 75bb 9b8f d1bc f2ee 61bc
00000070: fcda 42bc b2f0 4ebc 7c29 0f3c 64fc 2e3b
00000080: 6c31 5ebc 3bb6 43bc c8be 44be 4ec9 a33b
00000090: 64f8 b7bb 215c 57bb 48da b8bc 53b5 82bc
000000a0: a734 d1bc 630b 06bc 4917 9cbc 8f77 9d3b
000000b0: d377 abbc f9a4 46bc 1da7 9fbc 80c8 b0bc
000000c0: a415 0dbc 17ee 1bbb dc9b a4bc 851e 9bbc
000000d0: c793 31bc efff 56bc 7949 93bc e8fe bdbb
000000e0: e167 9cbc f3e3 02bd 10f8 dfbc 0572 b4bc
000000f0: c8bc feba 28d7 8abc 00f9 c0bc 668f aabc
00000100: d9b3 853c 3616 44bb 9a8e 11bc 3273 04bd
00000110: 76ec fdbb d79c cebc 8ffb b8bc 221a 46bc
00000120: 1fba 4cbc 380b a1bc a06f e9bc 8dc4 2fbd
00000130: 4af9 04bd eb50 d4bb af76 58bc c6ad a2ba
00000140: e040 2bbc 1b37 bdbb d40f 873b a440 03bc
00000150: 4d6f 9ebb 8e54 dabc ab82 8bbc e717 b9bc
00000160: 456b 9dbc d27b ebbc 38b7 a4bc 26d7 3dbb
00000170: 76ca 93bc 31a1 d0bc 2ff3 95bc 87d5 b4bc
00000180: f8d8 93bc 7c4b aebc e626 07be 47e8 983b
00000190: a2db 41bc da2c 1ebc 3182 d3bb aad8 c2bc
000001a0: 59cf a4bc 5c5c 4fbb 4839 88bb 3b9a cdbc
000001b0: 1797 c4bb add1 46bb 398b b3bc 8e5c 98bb
000001c0: 2d0f a9bc f99a 0bbc b0e2 8ebc 010f 83bc
000001d0: c3f5 02bc 799c e9bc 54ce 92bc 15bf cfbb
000001e0: ae71 64bc 51bc 81bc 2b93 ddbb f60d 05bc
000001f0: be14 f7b8 d7c1 eebc 3417 54bc 3e2f a7bb
-0.011376163 -0.016605148 -0.011496357 -0.027675832 -0.004102943 -0.011671038 -0.021151762 -0.026704375
-0.004960228 -0.010684754 0.002734119 -0.0034609102 -0.029174412 -0.0021562038 -0.01829019 -0.007635531
-0.005283636 -0.008605841 -0.0224216 0.0011238417 -0.00722303 -0.007940385 -0.023773529 -0.011701915
-0.26993358 -0.003744933 -0.025581172 -0.013789879 -0.01189303 -0.012630628 0.008737918 0.002670073
-0.013561588 -0.011945303 -0.19213402 0.0049983626 -0.0056143273 -0.003286131 -0.022565022 -0.015955603
-0.025537802 -0.008181426 -0.019054072 0.0048055123 -0.02093116 -0.0121242935 -0.019488866 -0.02157998
-0.008611117 -0.0023793036 -0.02009385 -0.018935451 -0.0108384555 -0.013122543 -0.01797937 -0.0057982095
-0.019092502 -0.03195567 -0.027339965 -0.022027025 -0.0019434923 -0.016948298 -0.023556232 -0.02082033
0.01632111 -0.0029920465 -0.0088840965 -0.03233642 -0.0077491356 -0.025221271 -0.02258089 -0.0120911915
-0.012495547 -0.01965867 -0.02849561 -0.042912055 -0.032464303 -0.0064793727 -0.01321189 -0.0012411408
-0.010452479 -0.0057743913 0.00412176 -0.008011017 -0.0048350454 -0.026651647 -0.01703008 -0.022594405
-0.01921619 -0.028745566 -0.020106897 -0.002896735 -0.018040877 -0.025467487 -0.018304436 -0.022074474
-0.018047795 -0.021276228 -0.13198432 0.0046663615 -0.01183215 -0.009654248 -0.006454729 -0.023784954
-0.020118402 -0.0031640744 -0.004157219 -0.025097957 -0.0059994566 -0.003033738 -0.021916972 -0.0046497053
-0.02063712 -0.008520835 -0.017442077 -0.015998365 -0.0079931645 -0.028516995 -0.01792065 -0.0063399174
-0.013943119 -0.015836867 -0.0067619286 -0.008121004 -0.00011781741 -0.029145164 -0.012944985 -0.0051020673

a2c_network.actor_mlp.4.weight f4 [64, 128]
00000000: a8d9 183d 3bf9 803c 7ccf 7f3b 9d96 34bd
00000010: a7ec e43c 814d 9bbd 0242 953c 52fc 78bd
00000020: 76c1 1dbd 80e0 14bc 2774 6bbc 19d5 f93a
00000030: 7820 71bc 5974 90bc 8180 2f3d f80b 62bd
00000040: be05 463b cea5 e63b 1b7e 8a3b e7f0 00bc
00000050: d47f 603a 3694 0cbd e437 8bbc 9366 a53b
00000060: a095 48bd 2472 a73c 0fe4 edbc 16b7 c9bc
00000070: 1f92 02bb 0c6e fabc d86d b03c ebd9 4fbd
00000080: 1147 e73c c409 9a3c 3550 e3bb 51a3 8d3c
00000090: 9430 4f3b 7ca3 98bc 2578 793d 820f 13bd
000000a0: af52 fbbb eb9b 383d 56e4 4f3c e12e e63c
000000b0: be05 40bc 03a9 793c d130 0d3d 8aa8 9a3a
000000c0: 0567 d8bc e8fa a33b b1bd 9d3d 3df1 0ebd
000000d0: abb4 1bbd 46ed a5ba 4180 17bc e431 e23c
000000e0: 3ad8 ed3c 0e65 103d 6def 0bbd 9c03 8ebc
000000f0: 9aaa dfbb 91bb 263c b2a2 96bc 11f4 f13c
00000100: d54f 833b f9ff e4bc 3b93 b03c 7404 d7bb
00000110: 31e9 fd3c 09b3 a2bc fe98 1a3d 76cb 603b
00000120: 12ff b4bb 0c00 f3bc 8c77 013c 3c1a 4b3d
00000130: 3b6e 7b3d 0212 00bd 87e7 743b d260 c03c
00000140: 5336 d13c 0249 2dbd a42e 233d b20f a5bd
00000150: bca3 343d 073b f23a 4b31 db3b abed 093d
00000160: 8f3b 463c 205c e93a b504 163d 46d9 35bd
00000170: ba4d 353d 4f7e ecbc 369e 81bd 9ecb 3f3d
00000180: 4bf8 e53c 78c7 89bc 5593 8c3b 96ab 04bc
00000190: 7e60 863d 398e 80bc 8b5b bfbc b497 1bbc
000001a0: 3282 d3bc e6a6 163b 55fe 5d3d 88c6 443d
000001b0: 72d9 05bd e42e 8ebd 398a 92bc 8fdd 02bd
000001c0: b763 ddbc fba6 81bc d294 a23c f93b cc3b
000001d0: 0c89 d9bc fcd0 ee3c 39fa 88bc 8459 8a3c
000001e0: 9ea2 d03d 5fb4 f53c 2890 1bbc 879d d8bc
000001f0: 6c66 20bc 8829 273d cb07 e6bc 490d 8b3c
00000200: 2bd9 d13c b8d8 5dbd 4e15 253d e184 2e3b
00000210: 11f0 1f39 08a4 bdbc 78cd 45bd 0b39 4dbd
00000220: c666 713b 4965 8cbd 5352 213d 74e2 b4bc
00000230: 0425 0cbd 5b48 62bc d8e7 673c 92f4 8b3c
00000240: c34c d4bc 7e18 b83c f608 b6bc c4f0 8cbc
00000250: d3c9 1abd eb97 16bd d045 68bd 4be9 c03a
00000260: a494 7bbe f5c9 19bd 3873 cbbc be04 3dbc
00000270: be37 f5bb bafd debc 1396 60bd c012 10bc
00000280: 099f 263d 053b 823a dd7e bcbd 1f38 1c3b
00000290: f69d b5bd 9716 e7bb 37fe a7bd d257 81bd
000002a0: 5631 52ba f032 5ebd 107d 72bd 74f2 753d
000002b0: d8d5 f0bb df36 91bb b1b6 18bc 42ce 34bd
000002c0: 763e e8bc 599b 513d ab74 40bd 4d41 bf3b
000002d0: e106 3a3d 6af7 b1bd e5fd ccbc a6a6 483c
000002e0: 8b2e babc 3007 fdbc e654 82bd 9a6e a4bb
000002f0: 5b00 873c b2f9 33bd 2e08 a2bc 5ac8 05bd
00000300: 08fe 513d be12 a23d 8569 ccbc 8b5b c8bd
00000310: 7f43 ce3b 0a7d 96bd 033f b1bd 0522 18bc
00000320: ee56 6ebd 6e34 61bc 1c89 2bbd 6df3 51bc
00000330: 3278 bb3b d887 ae3c fbd4 5abd d635 a73b
00000340: 0c52 273a 384a c7bc 4d38 f83c c1b5 a6bd
00000350: 7d51 0abd 0f10 d7bc 56ae 013c d63b 583a
00000360: c772 623b 8b58 22bd 3842 50bd 7184 c73c
00000370: 2a76 343c dd28 22bc db8d 4dbd afbd ecbd
00000380: ea7c 6ebb bfa5 67bd 45c5 3abd 1ce5 073c
00000390: 48a5 083c 4508 06bd 0bdc 3bbc ace8 c4bc
000003a0: 3f16 87bd fb3d cebc e377 09bd 98b2 f8bc
000003b0: e3e5 b93b a6aa 71bc 352e 563c 3ac6 cdbc
000003c0: dd89 283c 4094 fbbb 0e5b f23a c0d7 08bb
000003d0: 56a5 12bd 2409 ebbc fc17 37bd 1526 2c3d
000003e0: 6b53 10bd ea7b b5bc 847a 80bc 339d cbbc
000003f0: 8057 9cbc 4702 90bd 600f 84bd 003c c43c
0.03731695 0.015743842 0.0039033582 -0.04408895 0.027944876 -0.07583142 0.018219952 -0.060787506
-0.038514577 -0.009086728 -0.014370955 0.00190607 -0.014717214 -0.017633604 0.04284716 -0.055187196
0.0030215825 0.0070388084 0.0042264587 -0.007869936 0.000856397 -0.034321032 -0.016994424 0.005047628
-0.04897082 0.020440169 -0.02903941 -0.024623435 -0.001992352 -0.030570053 0.021536753 -0.050744932
0.02823213 0.018803485 -0.0069370517 0.01728979 0.0031614648 -0.018632643 0.060905594 -0.03590346
-0.0076697688 0.04507057 0.012688717 0.028098525 -0.011720119 0.015238049 0.034470383 0.0011799496
-0.026416311 0.0050042756 0.077021964 -0.03489803 -0.038014095 -0.0012659214 -0.009246887 0.02761168
0.029033769 0.035252623 -0.03416388 -0.017335705 -0.006825757 0.010176555 -0.018388126 0.029535325
0.0040073195 -0.027954089 0.02155458 -0.00656181 0.030994983 -0.019860761 0.03774356 0.003430096
-0.005523571 -0.029663108 0.007902037 0.049585566 0.06138442 -0.031267174 0.0037369446 0.023483668
0.0255386 -0.042305954 0.0398394 -0.08059634 0.04410146 0.0018480726 0.006689226 0.033673923
0.012099161 0.0017803945 0.036625583 -0.04439666 0.04426358 -0.028868822 -0.063290045 0.046825044
0.028072497 -0.016818747 0.0042900243 -0.00809755 0.06561373 -0.015692817 -0.02335908 -0.009496618
-0.025818918 0.0022987663 0.054197628 0.048040897 -0.032678075 -0.069425374 -0.017888175 -0.031949576
-0.027025087 -0.015826693 0.019846354 0.0062327352 -0.026554607 0.029152386 -0.016720878 0.016888388
0.10187267 0.029993234 -0.009494819 -0.026442302 -0.009790044 0.04081109 -0.028079888 0.016974108
0.02561625 -0.054161757 0.04030352 0.0026629495 0.00015252853 -0.023149505 -0.048291653 -0.05010323
0.003683494 -0.06855256 0.03938515 -0.022080638 -0.03421499 -0.013811196 0.014154397 0.017084394
-0.02591551 0.022472616 -0.02222107 -0.01720465 -0.03779013 -0.036765974 -0.056707203 0.0014717964
-0.2456842 -0.037546117 -0.024835214 -0.011536775 -0.0074834516 -0.027220596 -0.054830622 -0.008793533
0.04067901 0.0009935802 -0.09203885 0.0023837162 -0.08868019 -0.0070522535 -0.082027845 -0.063155785
-0.0008018216 -0.054247797 -0.0592013 0.060045674 -0.007349711 -0.00443159 -0.009320901 -0.044142015
-0.028350096 0.05117354 -0.046986263 0.005836642 0.045416716 -0.086897686 -0.02502341 0.012246763
-0.022727272 -0.030887216 -0.06363849 -0.0050180675 0.016479662 -0.0439393 -0.019779291 -0.032661773
0.051267654 0.07913731 -0.02495266 -0.097830854 0.0062946673 -0.07348068 -0.08654597 -0.009285455
-0.05818837 -0.01374541 -0.041878805 -0.012814385 0.0057211155 0.02130501 -0.05342577 0.0051028533
0.00063827704 -0.024327382 0.030300284 -0.081401356 -0.03376912 -0.026252775 0.0079151 0.00082486623
0.0034553276 -0.039635222 -0.0508444 0.024355145 0.011014501 -0.009897438 -0.050184112 -0.11559617
-0.0036390373 -0.056554552 -0.045598287 0.00829437 0.008340187 -0.03272273 -0.011466037 -0.024036728
-0.0659604 -0.025176039 -0.0335616 -0.030358598 0.0056731566 -0.014750158 0.01307254 -0.025118936
0.010286775 -0.007677585 0.0018490271 -0.002088055 -0.035802208 -0.028690882 -0.044700608 0.042028505
-0.035235804 -0.022153813 -0.01568342 -0.024855232 -0.019084692 -0.07031684 -0.06448245 0.023954391

a2c_network.actor_mlp.4.bias f4 [64]
00000000: 86c4 90bc 2e3b adbd ed5d f9bc a7ec 1cbd
00000010: 275f 22bd cfaf 2bbe fe15 efbd 4340 e2bc
00000020: 8a52 b5bd 03a6 23bd 4a02 8fbc 9687 c5b8
00000030: 34c8 1bbd e9a9 babd 6121 87bd 06ca 04bd
00000040: c8a0 98bd 7706 02be c648 c1bb 1fee cebc
00000050: e9ab 5cbd fc4b 84bc 0a72 5fbd e453 96bc
00000060: 85fa b3bd 0b4f a6bc 8467 d9bd 6011 c1bc
00000070: faac aebb 3688 b3bd bfd7 e5bd a5d4 ddbc
00000080: c2bc aabd 6506 02bd e875 b1bd 890a b2bd
00000090: 8b7c a2bc 6fb1 903a bb1b 05bd b75b ebbc
000000a0: bd95 30be 75b1 bdbc f931 fdbb d2a1 41bd
000000b0: b15a debc 6435 83bc d49f 0bbd 419a b4bc
000000c0: 752a 03bd 2572 24bd 13a9 24bd 37ce 42be
000000d0: e463 8ebd d8cd a5bc 1c63 01bc 447d 30bb
000000e0: b2c6 0dbd 0335 c3bc d8b8 17bd d41a a3bc
000000f0: 3725 26bd ed36 47bd 4baf bebd 5b99 c6bc
-0.017671835 -0.08458553 -0.030440295 -0.038311627 -0.039641526 -0.16766284 -0.116741166 -0.027618533
-0.08853634 -0.039953243 -0.017457146 -9.418947e-05 -0.038032725 -0.09114439 -0.065981634 -0.032419227
-0.074525416 -0.12697779 -0.005898568 -0.02526003 -0.053874884 -0.016149513 -0.054552115 -0.018350549
-0.08788017 -0.020301362 -0.10615447 -0.023567855 -0.005330679 -0.087662145 -0.11222791 -0.027078936
-0.08336784 -0.03174438 -0.08665067 -0.08693416 -0.019834777 0.0011039207 -0.03249715 -0.028730256
-0.1724462 -0.023155907 -0.0077269045 -0.047273465 -0.027142854 -0.01601667 -0.03408797 -0.02204621
-0.032022912 -0.04014792 -0.040200304 -0.19023977 -0.069526464 -0.020239756 -0.007897165 -0.0026930133
-0.03461332 -0.023828989 -0.037041515 -0.019910254 -0.040562835 -0.048636366 -0.09310778 -0.024243047

a2c_network.value.weight f4 [1, 64]
00000000: e99a 4e3b 593f 8e3b ab93 80bd 16bf b83b
00000010: 4059 17bc 5e83 793d 6f83 3f3c c675 903b
00000020: f174 6938 03e8 843c 8b97 63bc 18df 8d3c
00000030: d8b5 603b 6695 023b 89c0 913b a3df ec3b
00000040: 8c7f 0bbb 296a 913c ed16 6a3a 7edb 38bb
00000050: e29b 8d3c bdc0 b13b f6ed f03c c6c0 e8bc
00000060: 481f 293c b3f9 6bb9 4869 e33b 3ab1 283c
00000070: 9a77 19bb a887 ebba de21 ea3b c3ca 3cbc
00000080: 4fe0 2f39 f37e b2bb 0e9e 91bb e5e4 b8bb
00000090: ac4e 1cbb ad7d 6ebc ed8d 49bc a6e0 0d3c
000000a0: c535 963d 1138 ab3c 4b95 813a 3e3e cd3b
000000b0: 0aa3 85bc b860 3ebd d787 d43b 3ba5 0bbc
000000c0: e8fc 4c3c 68dc 1bbc ec5f aa3c c951 b63d
000000d0: 2b64 2e3b ae04 8cbb e91c 0f3c 445d 82bb
000000e0: e724 213b 6487 be3b e657 483c 71a0 d83a
000000f0: cc13 093d 5c98 00bc 4d17 41bc e9f9 99bb
0.003152544 0.0043410477 -0.062781654 0.0056380136 -0.009237587 0.060916297 0.011689051 0.004408571
5.566044e-05 0.016223913 -0.013891111 0.017318293 0.0034288075 0.0019925474 0.004448001 0.007228808
-0.002128574 0.017750816 0.0008929808 -0.0028207 0.017286245 0.0054245875 0.029410344 -0.028412234
0.010322399 -0.00022504367 0.0069400407 0.01029616 -0.0023417235 -0.0017969506 0.0071451506 -0.011522952
0.00016772862 -0.0054472624 -0.0044438904 -0.0056425207 -0.0023850603 -0.014556331 -0.012301904 0.008659517
0.073344745 0.020900758 0.0009886412 0.0062635234 -0.016313095 -0.046478957 0.00648592 -0.008523281
0.012511469 -0.009512998 0.020797692 0.08902318 0.0026609998 -0.004273019 0.00873492 -0.0039784033
0.0024588646 0.0058144797 0.012227988 0.0016527307 0.033466145 -0.007848825 -0.0117853405 -0.004698981

a2c_network.mu.weight f4 [7, 64]
00000000: 3f2d 293b b2bc 5abb 18be d0bb 97b1 95bc
00000010: 3e24 233b c11c 753b c4c3 e7ba 2932 3eba
00000020: caf3 193b 4f9a 3fbd f305 3ebb e6ab 45bc
00000030: 3c23 b1bb d81e b43b eacb dabb 68f7 903b
00000040: 7611 adba 3d3f 7bba 187a 1b3b 5786 a9ba
00000050: 7575 183c fb73 6c39 d102 2139 a526 d1bb
00000060: 4976 a33b 3088 f03b 2f67 643b 9eec 77bb
00000070: 0da9 a439 3d30 8e3b 9fc9 953a a8b5 3f3a
00000080: ae8a 5c3b b576 e9ba 9c3a a33b f8e8 d53b
00000090: 31ce 09bc 3d78 163b 9919 6b3b 2819 18bd
000000a0: 0e3a bbb8 aff3 fa3c dd58 d93b 5856 0f38
000000b0: cfdb 81bb 4ee8 86bb 2090 243c e11e 5fbb
000000c0: 007e 313b f8c7 ebbb 9f88 c0bb e229 723a
000000d0: 2441 f73a 8075 2c3b a1f7 863b ea98 c8bb
000000e0: 7732 34b8 2733 0e3b febf 59ba 4a6b e03b
000000f0: 710e 13bc 72ec 72bb 71c7 e5ba cd16 a3bb
00000100: 69dd adbb 5d89 423a 19d9 183c dc5f 293c
00000110: 3102 07bc f270 c33a abff 5ebb f315 233b
00000120: 4e24 cabb 4672 2c3d 2741 9d3a ec37 ebbb
00000130: e0a6 413a 3392 843a 4cd8 d0ba bd49 13bb
00000140: f3b1 60bb 4e78 8aba 021b a23a e72f 4d3b
00000150: c1fa dbbb 41c8 fbba 5b17 1b3c 5525 d63b
00000160: 4e32 81bc 0abf 68bb f513 9abb e46a 5a3b
00000170: de44 32bc 2890 8eba 07e8 06bc 684f 883b
00000180: 4108 d5bb 000d 83bc b46e a5b8 041d 09bc
00000190: 0992 82bb 5711 2a3c d54a 00bb 5f02 7c3d
000001a0: b036 773b 76a7 bd3c f2f0 813b 0904 743b
000001b0: 68ef a1bb 97f9 b739 9a8b 263d 966f 08bb
000001c0: 3db7 80bc eea2 ddba d87d 95bb 54db a93b
000001d0: 1915 ab3b ddc5 2e3b dcc5 89ba 3284 87bc
000001e0: 059b 2b3a 35c6 7d3b 4f35 c7bb 4105 2c3c
000001f0: 0722 443c ca90 3b39 17a9 cbb9 765a bf3b
00000200: 4d0a 28bc 0443 b63a 0564 443c 476d 53bc
00000210: 0c10 99ba 0692 903b 736f 253c 49c3 f0bb
00000220: b248 ea3b faf5 6abb 9308 04bc b8f9 573b
00000230: 42b5 df3b afac 0c3b da55 583c ad2e 81bb
00000240: bf94 1a3b 96c6 0b3c cf9b 62bb 700d b63b
00000250: 7ec7 acbb 2c9d ddbb 9769 8a3b c17e 393c
00000260: e57b 39bc fed0 0abc 91b0 2a3c a89c 5c3c
00000270: 2bac 28bc df5d 253b dd48 c33b ac60 8e3a
00000280: 09e1 663b 2eab d1bb f66c 8b3c 3d05 383b
00000290: f289 54bc 8234 aebc 2587 dbbb f822 ed39
000002a0: 3ab9 f53b 633c dc3c 21a8 e73a 86a8 723c
000002b0: ec49 993a 9b7d a33b 6a5a 1d3d 508e 25bc
000002c0: e12e 963b 0a26 bb3b e5f4 f73b 0aca 313c
000002d0: eb30 083b 48c3 8dbb fc4a 19bb d823 9ebc
000002e0: d24b 8f3b bd45 503b 7532 debb d776 2f3a
000002f0: e6ab 663c 8052 00bc 31e2 ce3b 8f60 e33b
00000300: 4fe8 4b3c 40e3 1039 1f36 b93b 8fbf 56bc
00000310: bbe9 5a3b 0950 2c3b 718d b43b 90d9 583b
00000320: 9698 fb3b 08d8 0dbd 4d35 80ba d8b2 45bb
00000330: 6b1e 25bb efbf 26b9 040e a73b bfcd 15ba
00000340: c281 01bb 3e08 963b f871 40ba 268d 2cbb
00000350: a54a 1eba 7a66 1fba d1e2 103b 96b0 7b3b
00000360: a3c1 04b9 4200 b93b 58e2 083c 5601 24bb
00000370: 0c1b 583c bce6 e83a 7ffc 133c 72b8 94bb
00000380: ba40 cf3b d790 273b a479 ac3b fb56 0b3c
00000390: 4fac b5bb 69ed c73a 7116 ad3b 9644 c9bc
000003a0: f308 b9b9 3567 703c 4703 c6bb 051d 4b3b
000003b0: 0807 413c 2d67 433c 209b 093a 8738 14bc
000003c0: a892 af3b 4bbd 6cbb d975 d9bb d620 ef3a
000003d0: cc57 6cbb c69b 903a 9453 193c a55b 45bc
000003e0: 4083 9abb bc84 5a3a 4747 8f3b 7914 043b
000003f0: 4e5b 793b 0741 d6bb a99c 3fba ace8 7dbb
0.0025814322 -0.0033376631 -0.006370317 -0.018273158 0.0024893428 0.0037401172 -0.0017682244 -0.0007255399
0.0023491257 -0.04677802 -0.0028995245 -0.01206491 -0.0054058116 0.005496841 -0.0066771405 0.0044240244
-0.0013204056 -0.00095843134 0.0023723897 -0.0012933713 0.009305348 0.0002254992 0.00015355206 -0.0063827806
0.004988466 0.0073404536 0.0034851541 -0.0037830244 0.0003140647 0.0043392465 0.0011427886 0.00073131407
0.0033651995 -0.0017811867 0.004981352 0.006528016 -0.008410976 0.0022959851 0.0035873412 -0.037133366
-8.9276684e-05 0.030633776 0.006632908 3.417427e-05 -0.003962971 -0.0041170483 0.010044128 -0.0034045505
0.0027083158 -0.007195469 -0.0058756615 0.00092378084 0.0018864018 0.0026315153 0.004118875 -0.0061217444
-4.2962343e-05 0.002169797 -0.0008306502 0.0068487274 -0.008975611 -0.0037067202 -0.0017530752 -0.0049770833
-0.005305935 0.00074209814 0.009329104 0.010337796 -0.008240269 0.001491098 -0.0034026902 0.002488491
-0.0061688786 0.042101167 0.0011997566 -0.0071782973 0.0007387232 0.0010114372 -0.0015933602 -0.0022474371
-0.0034285753 -0.0010564418 0.0012367668 0.003130907 -0.006713242 -0.0019209461 0.009466018 0.006535212
-0.015771057 -0.0035514259 -0.004702086 0.0033327872 -0.010880677 -0.0010876702 -0.008234031 0.0041598566
-0.006501228 -0.01599741 -7.888433e-05 -0.008368734 -0.003984694 0.010380111 -0.0019575853 0.0615257
0.0037721805 0.02315114 0.0039654905 0.003723385 -0.0049418695 0.0003509044 0.04066048 -0.0020818464
-0.015712375 -0.0016909519 -0.004562121 0.0051836167 0.005221021 0.0026668229 -0.0010511237 -0.016542528
0.0006546232 0.0038722877 -0.006079353 0.0104992995 0.011971003 0.00017887648 -0.0003884516 0.005839641
-0.010256362 0.001390547 0.011986737 -0.012904472 -0.0011677756 0.0044119386 0.010097372 -0.0073474986
0.0071497792 -0.003585218 -0.008058685 0.003295524 0.0068270275 0.0021465232 0.013204062 -0.0039423318
0.0023587195 0.008531233 -0.0034577732 0.005555801 -0.0052728048 -0.006763121 0.004224013 0.011321724
-0.011321043 -0.008472679 0.010418073 0.013465084 -0.010294954 0.0025232953 0.0059596137 0.0010862551
0.0035229346 -0.00639858 0.01701973 0.0028079294 -0.012972342 -0.021265272 -0.00669946 0.00045230216
0.0074988874 0.026884263 0.0017674008 0.014810687 0.0011695004 0.0049893386 0.038416304 -0.010104731
0.004583225 0.0057113217 0.0075670355 0.0108513925 0.002078111 -0.004326258 -0.0023390641 -0.019304201
0.004373052 0.0031779849 -0.0067809173 0.0006693429 0.01407907 -0.0078321695 0.006313585 0.006939001
0.012445523 0.00013817567 0.0056522037 -0.013107195 0.0033403474 0.0026292822 0.005510025 0.0033088662
0.007678102 -0.03462985 -0.000978151 -0.0030166414 -0.0025195132 -0.00015902494 0.0050981063 -0.00057145575
-0.001976118 0.0045786193 -0.00073412014 -0.0026329248 -0.00060383446 -0.0006080639 0.002210785 0.0038404814
-0.00012660636 0.0056457827 0.008354746 -0.002502521 0.013190042 0.001776896 0.009032368 -0.004538589
0.0063248547 0.002556851 0.005263524 0.0085046245 -0.0055442224 0.0015253249 0.0052822162 -0.024568837
-0.00035292617 0.014673044 -0.006042871 0.0030992639 0.011781462 0.0119264545 0.00052492507 -0.00904668
0.005358059 -0.003612357 -0.006636363 0.0018244039 -0.0036063073 0.0011032752 0.0093583055 -0.012045776
-0.0047153533 0.0008335819 0.0043725106 0.0020153804 0.0038048807 -0.0065385136 -0.0007309416 -0.003874342

a2c_network.mu.bias f4 [7]
00000000: bca9 16bb 6e71 83bc f0a2 a8bc 5448 ee3c
00000010: 83f7 2ebd 0867 72bc c5a9 133d
-0.0022989353 -0.016045298 -0.020585507 0.029087223 -0.042716514 -0.014795072 0.036050577

exp_avg f4 [7]
00000000: c383 55ba aa71 00ba d961 cdb9 8198 a438
00000010: 46c8 6238 4b45 71b9 7abd 993a
-0.0008144939 -0.000489975 -0.0003917355 7.8485355e-05 5.4069118e-05 -0.00023009365 0.0011729442

exp_avg_sq f4 [7]
00000000: bec3 e736 d0ee d236 9bab ca36 372b 0237
00000010: d330 1f37 9af7 1937 5672 2337
6.907124e-06 6.286289e-06 6.0400466e-06 7.758666e-06 9.488506e-06 9.17716e-06 9.742178e-06

exp_avg f4 [256, 33]
00000000: 7386 f2b8 5409 f338 3a8b 6eb9 397b 08b9
00000010: 8899 0db9 b58a fa38 5e79 0e39 5190 cab8
00000020: be29 f1b7 33cc c437 6a28 e8b7 d83e 9eb8
00000030: ae6b cfb7 3990 5037 4430 2637 416f 6eb7
00000040: cc1f e539 3db4 cfb9 f2ab 97b8 0ef6 d0ba
00000050: 5214 9dba 03e3 a1ba 0400 0000 0400 0080
00000060: 0000 0000 0000 0000 0a1c 1ab9 9987 1539
00000070: 8650 34b9 4060 1eb9 e244 29b9 3b78 1f39
00000080: 430e 1639 7c93 3e38 5b87 3fb8 fde8 c238
00000090: 3af5 5538 d52a 6d38 f8f9 45b8 5cb1 6db8
000000a0: 562e 2938 dc1c 4c37 24b1 1eb7 319a 5c37
000000b0: 164d 0838 265e 4137 564b a8b6 01d4 9db6
000000c0: 3ed3 c936 c77f a1ba 4385 2b3a 1b3e fb37
000000d0: 44a8 1e3a 4209 55ba 89e0 923a 0400 0000
000000e0: 0400 0080 0000 0000 0000 0000 ec8c 7a38
000000f0: 9556 73b8 3ce5 9238 74a7 8038 ef65 8a38
00000100: ce1e 81b8 f6b6 74b8 3143 1739 9f28 18b9
00000110: 24f5 9a39 ccca 2939 e117 3e39 8409 1db9
00000120: b477 3eb9 9602 0839 b03e 2638 25dc efb7
00000130: 0bea 2638 bd61 d438 d141 2c38 af76 88b7
00000140: d19e 3db7 ade1 8e37 4438 0137 2c36 1339
00000150: 4d89 c938 93e4 96ba c628 823a 5f8c da3a
00000160: 0400 0080 0400 0000 0000 0000 0000 0000
00000170: 1629 4839 405a 42b9 ebb4 6a39 e946 4d39
00000180: 8fc0 5d39 6dd2 4db9 2fda 43b9 04e3 31b6
00000190: 0a89 3036 376f 95b6 b22c 47b6 edc3 26b6
000001a0: 73f4 3536 a69f 4336 fc1a 0bb6 7ab9 5db5
000001b0: 9c1e 1f35 ab6d 70b5 6ed0 17b6 97c8 fdb5
000001c0: edb8 c634 26fd b335 fcc4 a6b4 d693 c638
000001d0: 341e 7b39 f282 cbb5 9419 0fbb c39d 8bb9
000001e0: 426a 813b 0400 0080 0400 0000 0000 0000
000001f0: 0000 0000 bafa 4cb6 8571 4a36 54c9 6bb6
00000200: 2b64 49b6 8587 62b6 13c5 4e36 8514 4636
00000210: 9ed4 52b8 8bd7 5438 9d16 e1b8 d204 6db8
00000220: e261 8db8 2acd 5b38 4718 8c38 f65b 48b8
00000230: 7839 70b7 e795 3837 d421 78b7 5d76 1db8
00000240: 573c 7eb7 4244 ca36 35f0 9336 e60b cdb6
00000250: ba08 cdb9 810f 7439 b9ec 13b8 3212 69b9
00000260: 0c96 c7ba b19d 7d3a 0400 0000 0400 0080
00000270: 0000 0000 0000 0000 a084 90b8 4371 8c38
00000280: 82b2 a9b8 7542 94b8 66c7 a0b8 1e31 9438
00000290: 54c3 8d38 7533 9b38 82e5 9ab8 cfac 1139
000002a0: 6bd1 af38 f46f a438 6e40 9fb8 f090 a6b8
000002b0: 9726 6b38 be70 8a37 0dc3 85b7 ea86 7937
000002c0: aa53 4438 ff04 3237 91b4 feb6 af4f 11b7
000002d0: caf4 2337 ea11 b1ba 162b 613a 201b 3338
000002e0: 95b2 b73a 772c 6e3a 7f6e 1a3b 0400 0000
000002f0: 0400 0080 0000 0000 0000 0000 b100 bc38
00000300: 0011 b6b8 6db6 da38 ccc2 c138 7e7f cb38
00000310: 8465 c4b8 3846 b5b8 1b51 01b8 f939 0238
00000320: ea48 84b8 1c9f 11b8 f8e4 21b8 d029 0638
00000330: f2a8 2238 20ef e8b7 92e7 12b7 6461 c936
00000340: 4bc6 e8b6 2b2a b8b7 32f6 23b7 c5ec 6c36
00000350: 677c 0836 80ab 6ab6 a660 d6b8 b8ca f8b7
00000360: 5862 acb7 9f38 2d3a 6517 94ba 0adc 00ba
00000370: 0400 0080 0400 0080 0000 0000 0000 0000
00000380: d237 2bb8 ee41 2638 1b57 48b8 9146 2fb8
00000390: faae 3db8 cbda 2f38 c77a 2738 2367 1f39
000003a0: 6fee 1fb9 5d84 9e39 784a 3339 705d 3e39
000003b0: f5f1 24b9 b200 40b9 84ec 0839 b60c 2738
000003c0: 0195 fab7 75ee 2238 d2ff d438 d9c1 2538
000003d0: 47cd 8bb7 b465 54b7 a54c 9937 d66a c2b9
000003e0: fa36 9739 65e1 cb38 caf8 423a 16ba 0d3a
000003f0: 2f08 b23a 0400 0080 0400 0000 0000 0000
-0.00011564502 0.000115888804 -0.00022749315 -0.00013015875 -0.00013504003 0.00011946765 0.00013587388 -9.6589916e-05
-2.8748877e-05 2.3460108e-05 -2.7675374e-05 -7.545733e-05 -2.4726465e-05 1.2431346e-05 9.905609e-06 -1.4211809e-05
0.00043701974 -0.00039616405 -7.2322684e-05 -0.0015942471 -0.0011984205 -0.001235098 6e-45 -6e-45
0.0 0.0 -0.0001469703 0.00014260261 -0.00017196135 -0.0001510391 -0.00016142757 0.00015208211
0.00014310428 4.5436886e-05 -4.566401e-05 9.294038e-05 5.1011542e-05 5.6545094e-05 -4.720126e-05 -5.6670382e-05
4.0335894e-05 1.2166067e-05 -9.458778e-06 1.3148922e-05 3.249672e-05 1.1525617e-05 -5.0155604e-06 -4.703645e-06
6.0148586e-06 -0.0012321406 0.000654299 2.9950452e-05 0.0006052295 -0.00081266847 0.0011205833 6e-45
-6e-45 0.0 0.0 5.973589e-05 -5.801635e-05 7.004521e-05 6.134706e-05 6.5993394e-05
-6.156937e-05 -5.834453e-05 0.00014425513 -0.00014510982 0.00029555813 0.00016192644 0.00018128708 -0.00014976232
-0.00018164405 0.00012970934 3.9635866e-05 -2.8593533e-05 3.9795454e-05 0.00010127153 4.1069292e-05 -1.626773e-05
-1.1302255e-05 1.7032808e-05 7.7020995e-06 0.00014039193 9.610001e-05 -0.0011512212 0.0009930364 0.0016673914
-6e-45 6e-45 0.0 0.0 0.00019088792 -0.00018534902 0.00022383376 0.0001957674
0.00021147936 -0.00019628713 -0.00018677929 -2.6507196e-06 2.630581e-06 -4.453493e-06 -2.9679327e-06 -2.4849971e-06
2.711339e-06 2.9150192e-06 -2.072832e-06 -8.259882e-07 5.927666e-07 -8.9566555e-07 -2.2622075e-06 -1.8908348e-06
3.7014925e-07 1.3410215e-06 -3.1063234e-07 9.468912e-05 0.00023948477 -1.5162789e-06 -0.0021835314 -0.00026629688
0.0039494345 -6e-45 6e-45 0.0 0.0 -3.054431e-06 3.0166423e-06 -3.5134917e-06
-3.000964e-06 -3.3755507e-06 3.0811104e-06 2.9516243e-06 -5.0265917e-05 5.074548e-05 -0.00010733048 -5.6509693e-05
-6.741636e-05 5.2404743e-05 6.680242e-05 -4.776936e-05 -1.4318495e-05 1.10021565e-05 -1.4789828e-05 -3.754195e-05
-1.5153629e-05 6.0280154e-06 4.408905e-06 -6.1108612e-06 -0.0003910715 0.00023275429 -3.5267996e-05 -0.0002222739
-0.0015227213 0.0009674682 6e-45 -6e-45 0.0 0.0 -6.8911584e-05 6.696817e-05
-8.091798e-05 -7.0695685e-05 -7.6665354e-05 7.066339e-05 6.7597866e-05 7.4005606e-05 -7.3860414e-05 0.00013892654
8.3836574e-05 7.840982e-05 -7.593712e-05 -7.9424935e-05 5.6064306e-05 1.6503382e-05 -1.5945663e-05 1.4872969e-05
4.680796e-05 1.061079e-05 -7.5908106e-06 -8.661226e-06 9.7725515e-06 -0.0013509367 0.0008589489 4.2702188e-05
0.0014015014 0.0009085605 0.0023564396 6e-45 -6e-45 0.0 0.0 8.964667e-05
-8.681603e-05 0.000104290295 9.239241e-05 9.7035416e-05 -9.364917e-05 -8.643832e-05 -3.0831532e-05 3.1048407e-05
-6.307832e-05 -3.4718876e-05 -3.8598635e-05 3.198703e-05 3.8781152e-05 -2.7767906e-05 -8.756195e-06 6.0016046e-06
-6.937223e-06 -2.1954145e-05 -9.772879e-06 3.5304558e-06 2.033799e-06 -3.4968543e-06 -0.00010222317 -2.9658302e-05
-2.0549793e-05 0.00066078635 -0.0011298476 -0.0004915601 -6e-45 -6e-45 0.0 0.0
-4.0821564e-05 3.9638886e-05 -4.776484e-05 -4.178897e-05 -4.522407e-05 4.1927018e-05 3.9930248e-05 0.00015201843
-0.00015252245 0.00030234727 0.00017098512 0.0001815462 -0.00015730395 -0.00018310806 0.0001305808 3.982774e-05
-2.9871708e-05 3.884589e-05 0.00010156598 3.95196e-05 -1.6665681e-05 -1.2659864e-05 1.8274712e-05 -0.00037082162
0.00028841925 9.721777e-05 0.0007437585 0.0005406452 0.0013582761 -6e-45 6e-45 0.0
