logs/rl_games/reach/2024-08-03_20-06-08/nn/reach.pth (torch, 619220 bytes, 36 tensors)

value_mean_std.running_mean f8 [1]
00000000: ec0d 353c d6bd 40bf
-0.0005109115667569198

value_mean_std.running_var f8 [1]
00000000: de40 9d86 bf91 e93e
1.219240603558862e-05

value_mean_std.count f8 []
00000000: 0000 0004 0078 9341
81657857.0

running_mean_std.running_mean f8 [33]
00000000: 81d7 bc7d c4d2 d03f 1fd0 116e aabb c4bf
00000010: 1525 11b5 46dd 9e3f 72b8 0954 b1e3 e23f
00000020: 50e9 b1f7 a246 cd3f 9142 aa50 2421 b8bf
00000030: 12c6 21fd d0fe 66bf e2f6 fd3a fab9 79bf
00000040: 1148 ed23 9e8f ad3f 94ef 2996 925a a1bf
00000050: 835d aff7 8841 7c3f 0f39 e750 4065 c53f
00000060: 17e6 167b ded0 a53f bf9e dfdc b79a 90bf
00000070: b0a5 35b1 d68d 683f 524c e215 3f27 633f
00000080: aa5e fba1 c4fa 5b3f 68bc cb9a 105f 71bf
00000090: 8bd2 f3bd 22ac c8bf 424b a123 7ae0 fe3e
000000a0: 9966 4498 8ae1 d8be 1176 e17c 5199 b9bf
000000b0: 3f3d 47f5 a117 4a3f 61c9 d952 ffff ef3f
000000c0: 0000 0000 0000 0000 0000 0000 0000 0000
000000d0: bb1d f7e7 4642 3240 2ea0 9023 de4d 32c0
000000e0: 1d9c e1f7 2c42 3240 684e bd12 be37 3240
000000f0: 3d47 0c4e b63f 3240 db52 c578 7e2b 32c0
00000100: 6b2a 5904 b63c 32c0
0.26286422995632824 -0.16197710394374185 0.030140976716471608 0.5902945176474204 0.2287181577156141 -0.0942557045875765 -0.002807052785151817 -0.006280877554557059
0.05773634136734541 -0.033894139128249595 0.0068984365743384206 0.1671524424586512 0.042609169507567816 -0.01621520314793545 0.0029973214347378194 0.002338050092541213
0.0017077369920367826 -0.004241051542279363 -0.19275316500683845 2.9446471878034947e-05 -5.932097682648284e-06 -0.09999570177884488 0.0007962742625355136 0.9999996774843504
0.0 0.0 18.258894441443527 -18.304170821007737 18.25849866159489 18.217744036881783 18.248875501630426 -18.16989855592224
-18.23715235878846

running_mean_std.running_var f8 [33]
00000000: b9c5 be83 9965 d53f 5232 6575 5367 bf3f
00000010: edfd 4f7f 77e8 703f d088 00f2 26a4 ff3f
00000020: 6b5b 068d cd55 d03f e9e6 c08f ca0c a53f
00000030: 3f97 c852 8309 303f 3d38 a1bb 7fe1 3b3f
00000040: e75f 3979 40c2 be3f f219 176c 4361 b13f
00000050: a83c 6acc 9bcc 733f 8cf6 53cf 0cee d23f
00000060: ed10 6a65 8c03 c03f 7e17 984d 97b9 a93f
00000070: 95db 1482 0e7b 983f 5d58 4a39 a7e9 a03f
00000080: 9c33 eea4 da39 b43f ceb7 e48e 0327 b03f
00000090: f4a9 7782 5e88 643f cc79 01c4 2652 4b3f
000000a0: b9d7 ac9f b144 4b3f 9043 765b 2176 213f
000000b0: 48d8 ff2c 6f4c 5a3e df51 598c 6d4c 6a3e
000000c0: 3ab1 3e15 6e4c 5a3e 3ab1 3e15 6e4c 5a3e
000000d0: 21d1 ca64 9b5f 9740 8589 2b23 ad61 9740
000000e0: c075 399e f15d 9740 6e07 03e5 e35e 9740
000000f0: 738f c69d 366c 9740 aa44 be39 975d 9740
00000100: c546 1ebc 205d 9740
0.3343261515211356 0.1226703797921769 0.004127947603592014 1.9775762036520526 0.25523699542957584 0.041113214538610006 0.0002447076429085044 0.00042542808990198353
0.12015154800008042 0.06789037121698252 0.004833801830172714 0.29577942129967805 0.12510828925963527 0.0502440721721049 0.02390692395166701 0.03303263258310161
0.07900778318999219 0.06309530485734102 0.0025064321414351946 0.0008337678227794908 0.0008321635535597428 0.00013322026437070618 2.449245323218296e-08 4.8984860206869374e-08
2.4492437702688483e-08 2.4492437702688483e-08 1495.901751679434 1496.419079475659 1495.485955140888 1495.7225532983098 1499.0533362412505 1495.3976812104615
1495.28196761424

running_mean_std.count f8 []
00000000: 0000 0008 0078 8341
40828929.0

a2c_network.sigma f4 [7]
00000000: cf0e 13c0 5f21 11c0 626e 11c0 fbaa 11c0
00000010: 5f5c 12c0 cdfc 11c0 3645 11c0
-2.2977788 -2.2676618 -2.2723622 -2.2760608 -2.286888 -2.2810547 -2.2698493

a2c_network.actor_mlp.0.weight f4 [256, 33]
00000000: 0e2e ec3d 15c4 efbd 1dde f43d 0b93 c83d
00000010: 7ced 303e a260 8ebd 99b7 4ebd 7688 93bc
00000020: b05a a8bc a61e 423d e33a 113e d0c3 ac3d
00000030: a339 82bd e268 953d fe27 be3d 5546 e33b
00000040: 0696 aebd a263 0abe 9493 c6bd 855d a6bd
00000050: f398 393e 78fa bdbb 602b bd3d f27c 143e
00000060: 9c75 46bb 1681 0b3e 2522 dabc cd3f acbd
00000070: 16cb 383c ba8f 9a3d 647d d4bc 3ca4 15bc
00000080: c6c9 bdbd d73a 013e 74c9 fcbd 2596 25bd
00000090: 183f 89bd 1385 163e 9171 173d d985 273e
000000a0: 3949 e7bd 1412 41be 1c87 28be 6dfc a2bc
000000b0: bff9 803c 9617 f93d 5513 253e 6263 26be
000000c0: 1472 95bd 5d75 743d 5d41 7bbd 5ab1 603e
000000d0: e691 05bd 2968 473b 55a5 0bbd 3858 debd
000000e0: 4856 603d febc 163d 8dca 35bd 3817 4c3e
000000f0: b952 d03d f735 e9bd 6385 d8bd acc9 3b3e
00000100: 4e93 b7bd f707 8fbd dd33 55be c273 efbd
00000110: 9b58 203d b376 77bd 5981 20be 90f7 01bd
00000120: ebc7 f5bd 3c14 0dbe 9e2a 14be f149 09be
00000130: ef37 09be 7ca9 d93d 5fb7 193d ae99 8b3c
00000140: eedb 29be fef7 3ebe 6274 aabc d1e1 4e3c
00000150: d538 45be 52b3 83bd a15d bbbd c270 8cbc
00000160: 0b5c 51bd 48e4 c03c 1d95 f1bd 1cb5 f4bd
00000170: 6713 fbbd a12b c6bd 5b57 13be d173 d13d
00000180: 92dc f6bd 16c6 0b3e d5bf ac3d 6b31 31be
00000190: 87f2 733e 04be c3bd 2d3d e3bd 8289 3ebe
000001a0: 66b7 afbd b71a 6e3d 0163 17bd 9a2f 253d
000001b0: 48de 49bd 9959 b03a 2e45 6dbd 04f6 f1bc
000001c0: c0c1 f53d bcaf 3d3e dc1c ce3d f1e3 443d
000001d0: c626 84bd 728a 8fbd a5d5 28bd b730 c0bc
000001e0: cb26 adbd e15e 173e 97f4 33be ac89 be3d
000001f0: 8e95 7a3d ef91 ea3c 2e44 b5bd a39c 2e3e
00000200: 6ba5 823d 323c 1bbc 7bee 53bd f893 e33d
00000210: a246 363c 87da 0bbe 97e1 403e c3f3 083e
00000220: b066 90bd 7454 13be 6e13 4abc a388 b63d
00000230: 3c63 a4bd 41da 7bbd db17 1abd 5b2e 20be
00000240: 718e 8e3d ebbd 333e facc 39be dd3d 0b3d
00000250: c528 4e3d 11fb 913c ec0d 4fbc 9978 723d
00000260: 4472 4e3d 425d 283d 2ac0 08bd 798b 88bc
00000270: 3d8f 983c a3ea fbbc 66a7 d2bc fc76 a93d
00000280: 972d 013e 0302 493c 63a0 93bd 73fd 6cbd
00000290: 6fa8 8ebd b86e 5f3b 1914 633d 4847 24be
000002a0: 204d 52bd acc3 c83d 11dc b23d a565 95bc
000002b0: db78 a4bd 411d e2bd 9626 f6bd ab3d 52bd
000002c0: 074e 9c3d 95e5 91bb b67e 8f3d 5c0f 4bbe
000002d0: 1b01 5abd cee1 72bc ff88 093e 969a 423d
000002e0: dbe0 1cbd 2169 303d b887 b4bc cec4 10be
000002f0: ed68 4e3d 301b a2bd eeef 0ebd b245 51be
00000300: ab04 473e 45bf b53d 6305 243d 0bc6 20be
00000310: 9d43 25be c00a eabd dca4 643e 3ecf 3e3d
00000320: 92fe 2f3e 307f 183e 60e7 c43d 1843 9fbd
00000330: 6f53 09be 12f3 42be 8cc6 febd c939 4c3d
00000340: 24c5 e5bd f122 8dbc e147 94bd 7f06 92bc
00000350: 1b52 c0bd 1794 37be bb72 9a3d 3213 58bd
00000360: 2e88 ba3d 2c19 3dbd ee45 0cbe e17b 6abd
00000370: d770 8bbd ce92 f03c cfb2 29be f676 c73d
00000380: 11f0 05bd b64f 2a3c 46a4 2e3e 1a0d 403e
00000390: 9deb a0bd c2b9 c13d 1031 e4bd 7f1e 043d
000003a0: aae7 eb3d 67be 33bd 9618 b4bc 0361 74bd
000003b0: bbe6 bcbd 7412 c83d baa9 19be 90c2 883d
000003c0: cfec f43d aedd 273e 7bac 4bbd 3c3d 7abe
000003d0: fd58 363d e5f0 9f3d 6209 debd cf5f eebc
000003e0: b03c e8bd c242 58bb b3bc 93bd 9976 80bd
000003f0: 3507 36bd dcda 38be f0f0 ed3d ea6f 153e
0.11532222 -0.117073216 0.11956427 0.09793671 0.17278093 -0.06952025 -0.05046806 -0.018009406
-0.020551056 0.04739251 0.1418262 0.08435786 -0.063586496 0.072953954 0.09284972 0.0069358745
-0.085247084 -0.1351457 -0.09696117 -0.08123306 0.18124752 -0.0057976805 0.09236789 0.14500788
-0.0030282503 0.13623461 -0.02662761 -0.084106065 0.011278888 0.07546945 -0.025938697 -0.009133395
-0.09267001 0.12620102 -0.12343112 -0.040426392 -0.06701487 0.14699201 0.03697354 0.16359653
-0.11293263 -0.18854553 -0.1645779 -0.019895757 0.015744088 0.12162702 0.16120656 -0.16248849
-0.07297149 0.05968224 -0.061341632 0.21942654 -0.032609843 0.0030427075 -0.03409322 -0.1085667
0.054769784 0.03680133 -0.04438262 0.19930732 0.10172028 -0.11387246 -0.105723165 0.1833865
-0.08963643 -0.06983941 -0.20820566 -0.11692001 0.039147 -0.060415935 -0.15674342 -0.031730235
-0.12001022 -0.1377725 -0.14469382 -0.13407113 -0.13400243 0.1062803 0.037528392 0.017041054
-0.16587803 -0.18649289 -0.020807449 0.012627081 -0.19259961 -0.06430687 -0.09148718 -0.01714361
-0.05111317 0.023546353 -0.11796019 -0.11948606 -0.1225956 -0.0967629 -0.14388792 0.10227168
-0.12053789 0.13649783 0.084350266 -0.17304008 0.23822986 -0.09557727 -0.11095653 -0.18607143
-0.08579902 0.058130946 -0.03695965 0.0403286 -0.04928425 0.0013454437 -0.057927303 -0.029536255
0.119998455 0.18524069 0.10064098 0.048068944 -0.06452708 -0.07008828 -0.041219372 -0.023460729
-0.08454665 0.14782287 -0.17573772 0.093036026 0.061177783 0.02863404 -0.08850895 0.1705194
0.06379207 -0.009474801 -0.051741105 0.11112207 0.011125239 -0.1365758 0.18836056 0.13374238
-0.07050836 -0.14387685 -0.012333734 0.0891278 -0.0802674 -0.06148744 -0.037620407 -0.15642683
0.06960762 0.17552917 -0.18144599 0.033994544 0.05033185 0.017819913 -0.012637597 0.059197042
0.05040194 0.041104563 -0.033386387 -0.016668068 0.018622989 -0.030751532 -0.025714587 0.082746476
0.12615047 0.012268546 -0.07208326 -0.057858896 -0.0696572 0.0034093093 0.05543909 -0.16042817
-0.051343083 0.098029464 0.087333806 -0.018236944 -0.08030864 -0.11040736 -0.120190784 -0.051328342
0.0763207 -0.004452417 0.0700659 -0.19830078 -0.05322371 -0.014824344 0.13431166 0.047510706
-0.038300376 0.04306901 -0.022037372 -0.14137575 0.050393034 -0.07915342 -0.034896784 -0.20436743
0.19435374 0.088743724 0.0400442 -0.15700547 -0.16139074 -0.11427832 0.22328514 0.04658436
0.17186955 0.14892268 0.09614444 -0.07776469 -0.13410734 -0.19038036 -0.124402136 0.049859796
-0.11219242 -0.017228575 -0.07240272 -0.017825363 -0.093906604 -0.17927586 0.07541414 -0.05275268
0.091080055 -0.046166584 -0.13698551 -0.057247046 -0.06808632 0.029366877 -0.16572116 0.09739487
-0.03269965 0.010394981 0.17054853 0.18754998 -0.0785744 0.094592586 -0.111421704 0.032255646
0.11518796 -0.043882754 -0.02198438 -0.05966283 -0.09223696 0.09769145 -0.15006152 0.06677735
0.1195923 0.16393158 -0.049725037 -0.24437422 0.04451846 0.07809619 -0.108416334 -0.02909842
-0.113397 -0.0032998775 -0.07213726 -0.06272621 -0.044440467 -0.18052238 0.11618221 0.14593473

a2c_network.actor_mlp.0.bias f4 [256]
00000000: a150 fa3d 3ee2 783d 3710 4f3d 0841 ecbd
00000010: 83e1 953d 2bab febd a94f 033e e9cd 23bd
00000020: d2a2 c3bd 3db4 21be 1fc9 cd3d 65a5 adbd
00000030: c7bb cf3d 1d3a fc3d a5e4 393d 1df8 673d
00000040: 0485 e0bd 68db 51bd f6d1 b33c b1f0 ccbd
00000050: f7a8 ea3d aae0 e93d 5c08 c7bd 35bd 513d
00000060: 6850 bd3d da42 ea3d d126 183d 0343 bc3d
00000070: 267d 4e3d 225b e0bd cd53 883d 07ce 5f3d
00000080: 0230 ca3d ed7f fa3d cbfb bc3d 2c21 e7bd
00000090: 8246 08be e4b4 0dbe 8ade 783d cc26 e43c
000000a0: 1d6a cbbd c53e 11be 085a 003e 93c9 a1bd
000000b0: ea21 0b3e 6a0e 213e 9a6a a33c 07dc 09be
000000c0: f70f 2e3d 7d0a f03d 57ec f23d adb8 203e
000000d0: 4782 cbbc 52fe 913d 24fb 10be f2cb db3d
000000e0: 0c10 abbd 9eb7 e83d 8cf3 183d fc70 d93d
000000f0: c3d2 b2bd 4447 b6bd eef0 773d 8328 013e
00000100: b6fd 63bd e4e4 85bd b081 e73d ae66 a83d
00000110: 782d 523c df7a f43d 18c9 e5bd 46a3 06be
00000120: 7c59 f1bd 79cd e23d d1f0 82bb e587 dfbd
00000130: 0c60 753d 8a19 e63d f430 de3d cb66 173e
00000140: cd22 12be 1e86 d03d d255 3bbd 9257 b33d
00000150: dd5b 983b 1a71 c3bd fa2f d6bd 129d 943d
00000160: fb3e 9d3d 5f04 c6bd e97f 0cbe 465f 8abd
00000170: d8dc f33d 368d 59bd b65c d03d 727b 833d
00000180: a7c6 c13d f591 c33d 3d3d 8e3d 06ec 5d3d
00000190: 7aaf 483b 44cf e63d 566d fabd b72c 0d3e
000001a0: fd0d 30be ffcc 68bd 0bd0 073e 9459 b63d
000001b0: e3eb efbd 3305 e63d a4af 16bd 556b b1bc
000001c0: ceec c03d 0f69 c83d a72a 07bd 64c7 46be
000001d0: 33b4 06be 752e e0bd 1d7f 18be 2cad 963d
000001e0: c7fb cf3d 4166 b63a e74c 86bd cd5f 02be
000001f0: e7f7 20be 5f08 88bc 0084 21be ab90 823d
00000200: 1d44 983d 607c 98bd 38f1 963d f16b 3fbe
00000210: 2563 cebd 9a0d 7abd 9715 1a3e 066b bdbc
00000220: 982d f2bd df85 6e3d 1dc8 ff3c a160 a4bd
00000230: 1667 0c3e 4a50 e9bd 9086 a73d 27b2 0dbe
00000240: 5827 cd3d d60c c43c c9b2 113e 33f8 a83d
00000250: 2558 fcbd f33c f93d a1a4 1bbe 5c17 c43d
00000260: 3968 a6bd 4a35 bb3c 4d28 b43c cea5 6d3d
00000270: a5c5 123e e942 16bd d145 503d b2ae 903b
00000280: 6bda 54bd 5862 8f3d 771b cc3d 0e62 213d
00000290: f850 323d 96af dd3d 8113 b23d c1a6 2b3d
000002a0: fc54 74bd 59a4 9a3d 250f df3d ab99 0cbe
000002b0: c896 e53d 256f fe3d 3246 023e eea3 9a3d
000002c0: 1343 c43d 1531 363d 2c43 06be e016 fd3d
000002d0: 0ad9 a83d cc38 133d 2c5f 873d 5565 19be
000002e0: 4eaf b8bc 3590 c2bd d343 6b3d 5eb9 683c
000002f0: ab84 1dbe 80de 173e ee84 28be fe83 b63d
00000300: 208d 29bd e77c 7d3d f439 02be 14c9 153d
00000310: 19ee 6abd ce1a 113e 4001 95bd dda2 a23d
00000320: e455 4c3c 9836 c23d f60d 123e c052 c53d
00000330: 8e35 433d 1458 2abd c5d6 ed3d 8c88 57be
00000340: 4a38 3e3d b918 e23d 4d2a 4c3d f0de 42bd
00000350: ccef 0abe 00f7 803d d2c0 0a3d 0208 23bd
00000360: 6e91 823d 7b08 133e c081 db3b b8ea 50bd
00000370: 7694 fe3d ce22 b6bd bf74 da3d db17 66ba
00000380: 4204 523d cc60 103e 5377 b63d 70ae 06bc
00000390: e164 9a3b 826f 26bd 76e7 03be 0a1f f03d
000003a0: 43ce f93d 7454 933d db3b ca3c 6332 b2bd
000003b0: 36c2 32bd 7f28 f93d 6a37 92bd 2301 e33d
000003c0: 43f1 fb3d 82ee b1bd b702 d53d 74d9 4ebc
000003d0: 0c79 dcba aa0d 26be d0e4 92bb a2ae df3d
000003e0: 2971 023e 954c 6a3d 9b2e f73d 05ad aebd
000003f0: 37e2 8c3d ccd7 fe3d a58b a13d 2667 f93d
0.1222241 0.060762636 0.050552573 -0.11535841 0.073184036 -0.124349914 0.12823357 -0.039991293
-0.0955254 -0.15791412 0.100481264 -0.08478812 0.101432376 0.12315772 0.045384068 0.056633104
-0.10962871 -0.051234633 0.021950703 -0.10006846 0.11458009 0.114198044 -0.09718391 0.051205833
0.09243852 0.11438532 0.037146393 0.09192469 0.05041232 -0.10954882 0.06656609 0.054639842
0.09872438 0.12231431 0.09227713 -0.11285624 -0.13308147 -0.13838536 0.060759105 0.027850531
-0.09932349 -0.14184101 0.12534344 -0.07899775 0.13587156 0.15728155 0.019948293 -0.1346284
0.042495694 0.117207505 0.118614845 0.15695448 -0.024842395 0.07128586 -0.14158303 0.10732259
-0.0835267 0.11363147 0.03734164 0.10617253 -0.08731606 -0.089003116 0.060532503 0.1261311
-0.05566188 -0.06537798 0.11304033 0.082227096 0.012828223 0.11937498 -0.11219996 -0.13148221
-0.11784646 0.11074347 -0.0039959927 -0.10914592 0.05990605 0.1123534 0.10849181 0.14785306
-0.14271088 0.10181831 -0.04573614 0.08756937 0.004649623 -0.09543057 -0.104583696 0.07256521
0.07678028 -0.096688025 -0.13720669 -0.06756453 0.11907357 -0.053113185 0.10173933 0.0642003
0.09461718 0.095493235 0.06945274 0.054180168 0.003062217 0.112700015 -0.122278854 0.13786589
-0.17192836 -0.056836125 0.13262956 0.089038044 -0.11714914 0.112314604 -0.036788598 -0.021657625
0.09420167 0.09785663 -0.03299966 -0.19411999 -0.13154678 -0.10946361 -0.1489224 0.07357249
0.101554446 0.0013915972 -0.06557637 -0.12731858 -0.15719567 -0.016605554 -0.1577301 0.063752495
0.074348666 -0.07445598 0.073702276 -0.1869352 -0.10077504 -0.061048128 0.15047298 -0.023122322
-0.118251026 0.05823314 0.031223351 -0.08026243 0.13711199 -0.11392267 0.08179963 -0.13837491
0.1001727 0.023931902 0.14228357 0.08250465 -0.123215 0.12169828 -0.1519952 0.09574768
-0.08125348 0.022852559 0.021991873 0.05801945 0.14333208 -0.036684904 0.050847832 0.0044153566
-0.051966112 0.070011795 0.09966176 0.039400153 0.04353425 0.10824506 0.08695126 0.041907076
-0.05965136 0.07550878 0.108915605 -0.13730495 0.112104 0.12423543 0.1272209 0.07550798
0.09583106 0.044480402 -0.13111562 0.12357879 0.08244522 0.035942838 0.066099495 -0.14980061
-0.02254453 -0.095001616 0.05743773 0.014204351 -0.1538264 0.14830971 -0.16456959 0.08911894
-0.041394353 0.061886694 -0.1271742 0.036568716 -0.057355974 0.14170381 -0.07275629 0.0794122
0.01247165 0.09483069 0.14263138 0.09634924 0.047658496 -0.041587904 0.1161323 -0.21048182
0.0464404 0.11039872 0.04984503 -0.04757589 -0.13568038 0.062971115 0.033875294 -0.03980256
0.06375395 0.14358704 0.006698817 -0.051005095 0.124306604 -0.08893357 0.10666799 -0.00087773585
0.05127359 0.14099425 0.08909478 -0.0082203 0.0047117327 -0.040633686 -0.12881264 0.1172467
0.121975444 0.071938425 0.024686744 -0.08701017 -0.043642245 0.12165927 -0.07139476 0.11084201
0.123018764 -0.0868807 0.104009084 -0.012625087 -0.0016820743 -0.1621615 -0.004482843 0.109219804
0.1273848 0.05720194 0.12069436 -0.085290946 0.068790846 0.12443504 0.07887963 0.12177877

a2c_network.actor_mlp.2.weight f4 [128, 256]
00000000: 2468 64b9 329c bdbc fe62 a4bd a6d8 d83c
00000010: 3e1b 14bb f6b9 e33d 1d2e 53bd fb57 67bd
00000020: 9b02 613d 9863 933d e38e 243a 6eb8 a13d
00000030: d4b6 7c3c eb76 79bc b869 64bd 2013 313d
00000040: 529a 92bc 803a 3c3d 084d 9e3b b874 84bc
00000050: 5806 87bc e8e1 28bd b9ca b03d 04e6 383d
00000060: f2e4 71bb ded2 05bd 5084 873c 5406 1c3d
00000070: 365c 87bd db6a 873d 00bb 993b 3ba7 043c
00000080: a7a4 983c c5ff 2f3d c128 a7bd 030c a53d
00000090: 65d5 01bd c7fa c03c 22ae 833d 4b58 46bd
000000a0: 8a38 a639 961e dcbc 89df b9ba ccb7 e53b
000000b0: 20cc adbd f35e 38bc 7f62 93bb e43c 4f3b
000000c0: 956c d2bc e75a 1fbc b58c 2dbc d5c0 37bd
000000d0: bb64 523d 4cbc 41bb b8b4 943b e743 953d
000000e0: 1e27 a23c 8381 d53b a559 7c3c 1356 d6bb
000000f0: f871 bd3d 9fee 203d 44b9 083d 2ec9 cbbc
00000100: 32bb a03d e8df 1b3d a1b2 70bd a907 603d
00000110: 674d 63bc 33cc 45bc 8a6f e0bc aff3 a83a
00000120: 4e82 943d ebe6 45bd b811 97bb f103 de3d
00000130: b2d7 7abd debd 76bc 1d32 803c a439 f83b
00000140: 8863 ba3c 896b 9dbd 1376 07bd fb7b 5abc
00000150: 4b36 c1bc e4e6 f7bc c9b2 e53c 81da eb3c
00000160: cfec 25bd e8ee 76bc 60d4 183d 713a 85bc
00000170: f599 9abd 96ca 11bb 02a0 213d 0414 cdbc
00000180: 1b63 4cbd a508 5fbd 9155 f7bc f92f aa3c
00000190: a99e 263d 2f14 d4bc c3da 12bd 2581 54bd
000001a0: fb89 133d af06 7c3d 8b44 b43c 76a6 84bc
000001b0: 792c ae3d d866 33bc 9a1f 0fbc 5c64 223d
000001c0: 0f82 62bc 29b8 bf3b 6275 3ebb fd2d a33d
000001d0: 6837 cdbb 1473 683d d203 c4bc c0e8 0b3d
000001e0: 8bc8 57bd 917f b5bb f52a dbbc 0f11 9dbb
000001f0: 24f2 a63c 1add 82bd 32dc 5d3d 8737 4bbb
00000200: c551 f23c 6657 753c 82d4 61bd f644 673c
00000210: 461b b13d bb32 403d 3dc0 86bb de9c 893c
00000220: 2383 6c3d 151c 08bd 9d4a 37bd 12c4 f0bc
00000230: a1a7 73bd 6fe8 463d 6a5f 113d a5a8 203d
00000240: 80d8 61bd 0bca c73b 06ad ef3c 8d66 99bc
00000250: e016 b0bc 7fc3 2ebd 299f eb3c 543d ba3c
00000260: e7e6 50bb b743 02bd 011b 4d3c 5700 2abd
00000270: 08cd aebc 2ccf 0a3c 963c 143d fc71 b23b
00000280: 20e6 acbc 16b3 85bd f7a3 6f3c e1c1 cc3b
00000290: 6472 d8bc 946c aabd 9f0e 0cbd 34e4 35bd
000002a0: 6b8d 6a3d 14cd 693d fb55 08bd 1950 883d
000002b0: b524 37bd 2912 2dbd d0d0 53bd 8c01 62bd
000002c0: 3fc0 443d 47fe 483d 304c ac3d e8f6 1fbd
000002d0: 63ac c53c 5f48 48bb 1dbb 593d 20e6 30bd
000002e0: 66b2 01bd 3011 21bd 3029 3abb cafe 27bd
000002f0: e920 1abd e628 923c 5c4c a13d 1103 213d
00000300: 5a41 ac3d d2ee d6bc 7b77 babb efae 9bbd
00000310: 41be 9c3d 5661 03bb 70f3 b23d 523f 4cbd
00000320: 32cb 843a 79ba 29bd 05f3 80bd 375e 34bd
00000330: d62c 923c f67e 413d 3a9e 383c 912d 91bc
00000340: 58f4 9c3c 9a24 7e3d 400a ea3c 8243 4cbc
00000350: 1b93 8d3b 9f9f 743d b96d e1bc f974 98bd
00000360: e8cc 3d3d 4725 6abc 360e 15bd 7788 4cbd
00000370: 2e2b a43b c6f3 b93b 3679 4fbd 121f 22bc
00000380: 6884 313d b2cc 813c bf17 373d 5187 813c
00000390: 64be 90ba 58bd 963d ef42 023b 9c81 42bc
000003a0: 999f 463c ddd6 abbd ba3a 6c3c 0b46 e93c
000003b0: 6078 11bd 18db 7a3c 29ad 9fbc 12ed 343c
000003c0: 4399 babd 1141 1dbc 1976 a1bd 535e a43c
000003d0: 562b 5e3c 54c7 c03d f7f2 533d 1845 50bd
000003e0: 1b80 cfbb f23d 013d 6bb7 8dbd 3483 1fbd
000003f0: 1f73 82bc 90f6 84bd b9e1 31bc 74b8 1f3d
-0.0002178257 -0.023145769 -0.08026694 0.026470494 -0.0022599245 0.111194536 -0.05155765 -0.05648039
0.054934125 0.071967304 0.00062773953 0.07896505 0.015424449 -0.015226106 -0.055764884 0.04323113
-0.017895851 0.045954227 0.00483096 -0.016168937 -0.016482517 -0.041231066 0.08632416 0.045141235
-0.0036910144 -0.0326718 0.016542584 0.038091972 -0.06609385 0.06612178 0.0046914816 0.0080965115
0.0186332 0.04296853 -0.0816207 0.08058932 -0.03169765 0.02355708 0.064296976 -0.048424046
0.00031704112 -0.026870053 -0.0014180999 0.0070104357 -0.084861994 -0.011253106 -0.0044978256 0.0031621987
-0.025686542 -0.009726263 -0.010592629 -0.044861633 0.051365595 -0.0029561697 0.004538145 0.07288342
0.019794043 0.006515683 0.015402232 -0.0065410226 0.092502534 0.039290067 0.033379808 -0.024876203
0.07848205 0.03805533 -0.058764104 0.054694805 -0.013873435 -0.012072611 -0.027396936 0.0012890006
0.07251416 -0.048315924 -0.0046102665 0.108405955 -0.06124086 -0.015059916 0.015648896 0.0075752307
0.022752538 -0.07686526 -0.03307159 -0.013335223 -0.02358546 -0.030261464 0.028039353 0.028790714
-0.04050904 -0.015071608 0.03731191 -0.016263219 -0.07548896 -0.0022245995 0.039459236 -0.025033958
-0.0498992 -0.054451603 -0.030192168 0.020774828 0.040678654 -0.02588853 -0.03585316 -0.051880974
0.03602026 0.06152981 0.02200534 -0.016192656 0.08504576 -0.010949813 -0.008735562 0.03964649
-0.013824954 0.005850811 -0.0029061665 0.07967756 -0.0062627085 0.056750372 -0.023927603 0.034157515
-0.052681487 -0.0055388887 -0.026753882 -0.0047932933 0.020379134 -0.06389828 0.054165073 -0.0031008439
0.029580006 0.014974451 -0.055134304 0.014115563 0.0864778 0.04692338 -0.004112272 0.016798433
0.05774225 -0.033229906 -0.04474889 -0.029390369 -0.059486035 0.04856151 0.035491385 0.039223332
-0.05513811 0.0060970834 0.029257309 -0.018725658 -0.021495283 -0.04266691 0.028762417 0.022734322
-0.003187591 -0.03180286 0.012518645 -0.04150423 -0.021338 0.008472245 0.03619059 0.005445717
-0.021105826 -0.065282986 0.014626495 0.006248698 -0.026421733 -0.08321491 -0.03419363 -0.044407085
0.057263773 0.057080343 -0.033285122 0.066559024 -0.04471274 -0.042253647 -0.05171281 -0.055177256
0.048034903 0.049070623 0.08412969 -0.039053828 0.024130052 -0.0030560715 0.05315696 -0.043188214
-0.031664275 -0.039323032 -0.0028405897 -0.04101447 -0.03762904 0.017841768 0.078758925 0.039309565
0.08410902 -0.026236925 -0.0056905127 -0.07601725 0.076534756 -0.002004703 0.08737838 -0.049865074
0.0010131358 -0.0414376 -0.06296352 -0.044035163 0.017843645 0.04724022 0.011268193 -0.017721923
0.01915948 0.062046625 0.02856934 -0.012467267 0.004320515 0.05972254 -0.02751814 -0.07444186
0.046337992 -0.014291114 -0.036390506 -0.04993483 0.00501003 0.005674812 -0.050652705 -0.009895103
0.043339163 0.015844677 0.04470038 0.015811594 -0.0011043069 0.07360333 0.0019876321 -0.011871722
0.012123012 -0.08390591 0.014418298 0.028475782 -0.03551519 0.015311025 -0.019491749 0.01104285
-0.091112636 -0.009598033 -0.078838535 0.020064509 0.013560137 0.09413019 0.05174538 -0.050847143
-0.00633241 0.031553216 -0.0691975 -0.038943484 -0.015924035 -0.064923406 -0.010857039 0.038994268

a2c_network.actor_mlp.2.bias f4 [128]
00000000: a964 8ebc 92b7 063e ac48 59bd a448 853d
00000010: 0dff 98bd 3f3a 0a3e 507c c13d 9f2f bdbc
00000020: f436 de3d a94c aebd 44fa a1bd 1cbd 553d
00000030: 6698 d9bd b4c8 8ebd 00c1 06bd 09b8 073d
00000040: 4db2 923c b484 fd3d 8dda cbbd 117f 85bc
00000050: caee 6f3d b6e0 0d3e c883 413d 1f7d a3bd
00000060: c360 d53a 58e0 bfbd da37 cbbd 1d53 a33d
00000070: eafc 80bd 626e b83d 5789 48bd c492 0f3e
00000080: b362 443d 5294 c43d 7acc cebd ef0f ba3d
00000090: 2e3c 3ebd 2766 b8bd 568d d03d bcba 243d
000000a0: 32b1 86bd 00aa 1e3c 78f4 2f3d 53a6 88bc
000000b0: 0da9 a3bd 52bb 52bd 769d cb3d 6818 303d
000000c0: 2de7 593c 4eb8 8e3d 4d5b 79bd 97f8 afbd
000000d0: db7e 8f3d 7671 8f3c f043 b43d 84e7 5dbc
000000e0: e966 8b3d 1f52 5f3d 2b02 93bc 45f9 03be
000000f0: 2a78 cabb 37ef c5bc 2a27 a13d 9aab 0dbd
00000100: 6ade 84bd a2b4 ad3d 827c 0b3e e48c 133d
00000110: 0eef ca3d d582 373d 1426 1d3d 4ffe ddbd
00000120: 191b 70bd d28e d73d ac76 ddbd 990a 7dbb
00000130: 3df6 f93d debd bbbd 5d31 90bd a8c9 7fbd
00000140: f2e2 0e3e 128f 68bd 06f6 f8bc b800 95bd
00000150: 425d 70bd 2cb2 27bd 2a66 c43d 7480 b13d
00000160: 4cb5 9fbd ed0b 783d 2a3f dc3d 5ab5 61bd
00000170: 5a98 f53d 1bb7 8abd 7ca3 c03d 29da 52bd
00000180: 5632 5b3d 7b5b 8dbd 8647 79bd ccfc 82bc
00000190: dd21 27bd 924d ad3d a55f 9abc 7018 8cbd
000001a0: 04be be3d 50a3 7ebd 3cea 84bd 7682 5f3d
000001b0: fda4 693d 0026 223d 1a6e ff3d 2f89 143d
000001c0: 6a50 f33c 7ae5 eb3d 05ac d73d e197 0dbe
000001d0: efba cabd 2b07 88bd 682e b13d fc46 b5bd
000001e0: 8494 dabd b134 ca3b f4ec 93bd aa7a a2bd
000001f0: 9f29 08be 02e9 b0bd 1b27 a93d a393 bbbd
-0.017381983 0.13155964 -0.05304782 0.06507996 -0.07470522 0.13498782 0.09447539 -0.023093997
0.10850325 -0.085107155 -0.079090625 0.052182302 -0.10624771 -0.06971875 -0.032898903 0.033134494
0.017907286 0.12378827 -0.09953795 -0.016295942 0.058577336 0.13855252 0.047244817 -0.07982849
0.0016279448 -0.09368962 -0.09922762 0.07974837 -0.062982395 0.09005429 -0.048959102 0.1402083
0.04794569 0.09598602 -0.100975946 0.0908507 -0.04644411 -0.09003859 0.10183208 0.040217146
-0.06576766 0.009684086 0.042957753 -0.016680872 -0.07991228 -0.051448174 0.09942143 0.042992026
0.0132997455 0.06968747 -0.060878087 -0.085923366 0.07006618 0.017510157 0.088020205 -0.013543967
0.06806738 0.054521676 -0.01794537 -0.12888058 -0.0061788755 -0.024161918 0.07868798 -0.03458748
-0.064877346 0.084817186 0.13621715 0.036023036 0.09908877 0.044802506 0.038366392 -0.10839521
-0.058619592 0.10525288 -0.108136505 -0.0038611053 0.12205169 -0.09167074 -0.07040665 -0.062448174
0.1395376 -0.056777067 -0.03039075 -0.07275528 -0.058682688 -0.040941402 0.09589799 0.086670786
-0.077982515 0.06055825 0.10754235 -0.05510459 0.119919494 -0.06773206 0.09406182 -0.051477585
0.0535148 -0.06902214 -0.060859226 -0.015989684 -0.04080378 0.08462061 -0.018844435 -0.068405986
0.09313586 -0.062167466 -0.06489989 0.054567777 0.05704211 0.03958702 0.12472172 0.03626364
0.02970143 0.115183786 0.10530857 -0.13827468 -0.09898936 -0.06641992 0.086514294 -0.0885143
-0.10672858 0.006170832 -0.072229296 -0.079335526 -0.13297127 -0.08638193 0.08259412 -0.09159019

a2c_network.actor_mlp.4.weight f4 [64, 128]
00000000: 9392 aabc e0c9 0dbd 9ed8 bf3b 0744 f93c
00000010: 06b2 c83c ca45 813d a17d 3dbd 76e2 273d
00000020: b966 bd3d ad54 7e3d 1629 42bd 8580 b43c
00000030: d9aa 553d e45b 673d 5721 11be ee4d 9fbc
00000040: b810 cfbd a239 c63c 4745 93bd b586 ccbb
00000050: 94d8 95bd 947f 41bd 7701 483d 53a9 303c
00000060: 4fed 2dbd 915b 64bd 9b19 a63a a076 113d
00000070: 2cc9 95bd eeca 91bc 976f e43c 00a2 2d3d
00000080: 527c 0dbd aed0 46bc 955e d2bd dd96 00bc
00000090: 1250 8e3d 0a5a 3d3d 9806 953b 3bbe 14bc
000000a0: 097b 09bd 9fe5 5bbd 7c4d 11bd dfc2 9c3b
000000b0: 2722 ea3c aa16 50ba 108e 1ebd 9da2 8a3d
000000c0: 652f 8c3d 181a 653c d301 d13c 3b7e f63c
000000d0: e08c 0abc 8552 6fbd 4c94 babd a560 f2bc
000000e0: c5a7 0b3b 9912 963d 5295 efbc 75f0 0f3b
000000f0: 5bfe 193d 538c 62bc fe54 21bd 539b fdbc
00000100: be46 c2bd 789b fcbc d27e b03d db16 a5ba
00000110: 9577 453d e7cb bcbc 14d8 cabc 6a45 8abd
00000120: 2e27 8f3d f6fe 03bd cb10 fabb 40ec 60bd
00000130: b876 2fbb fe87 62bc 8c94 51bd 4f87 313d
00000140: f451 3abb b41d 1cbd 4b6a 21bd a6f6 56bb
00000150: 4304 9a3b 38c1 74bd ea78 8f3d cf32 6cbd
00000160: 5170 d93b ab53 aa3c c107 223c bb2f 143d
00000170: 7184 fb37 eb96 9fbb a12b 53bb 8a22 823d
00000180: d95d 98bc 6b01 033d c9dc 9fbd 1dbb f6bb
00000190: 7569 c7bd fffc ec3c 75ae f73c c85d b8bd
000001a0: fbab 633d 0984 ae3c 7128 543d 0761 aa3d
000001b0: 7687 2cbd de19 96bd 5bf9 03bd 551e 853d
000001c0: e8d5 95bc 1355 303d f36f dcbd e8d9 26bc
000001d0: 3816 133b 623e c9bd f16a 2ebd 4e0e 91bc
000001e0: aa1c 96bd beb0 8b3c 9f24 253d 8f97 96bc
000001f0: 12fb 15bd 906c 95bd 9437 913d 2924 85bc
00000200: 07f2 883c c6d2 483d 8e5c 8cbd 5b13 aa3d
00000210: 93e6 d0bd d1c0 0abd a9e9 763c 586d d93c
00000220: fa31 34bd cc72 95bb 9d12 40bd 7db9 a1bd
00000230: efaa 933d e897 47bd 89a8 b0bd c87d 0bbc
00000240: c1c5 b33d edbf 223b 1ee7 bf3c fb68 38bd
00000250: 6ba6 0a3d ee65 d43d ffd0 36bd 7b46 4ebd
00000260: 3d6d 863d 8558 cabd d7b0 a43b ec6e 0f3c
00000270: 6411 b83d b603 0dbd d0bc 753c 371f 953c
00000280: b8fb efbc e40a 7cbd 67ca 503d 9b3a 713d
00000290: 9f5b 95ba 0dce 3d3d 6caf 453d 6312 ff3b
000002a0: 49fe 9bbc 4837 973d 67b9 2bbc 75aa 9fbd
000002b0: a619 12bd 4c25 3bbd 75ad bdbd 428d 9abd
000002c0: 50c5 853d f1a0 703c 1884 a2bc 8fbf 4f3d
000002d0: 35b6 48bd 98d6 cdbd 4176 84bd b438 a9bd
000002e0: 8b2f 0abb 2c87 033d 0754 77bd aa07 f03c
000002f0: a5d8 5fbd c38c b8bd 5d82 983d a035 123d
00000300: 5bbe a63d 7766 10bc a74c 2b3d de57 a8bd
00000310: 65e8 47bd 0973 08bc b75d 833d 8bca 1abd
00000320: b4a6 7ebd 5c9b f8bc 289c 4b3d 3745 493d
00000330: 308f 36bd 0037 a7bd fcf5 cdbc 538a a8bc
00000340: 442e e3bc e449 16bd f17a 463c 7313 30bc
00000350: 6c50 9f3d db8b cb3c c603 42bd e027 60bd
00000360: 5a0f a5bd c240 c6bc ba62 503d df01 633c
00000370: 3074 1b3d 0e08 fe3c ce5d 1ebd 0f5e f13c
00000380: 7996 183d 332a f33b c1f1 033d 1f0a fabd
00000390: 6690 9b3d 354b 063c f9d6 e4bd e631 37bd
000003a0: 7927 663d 3c8e 473c cb47 35bd f05c 5f3d
000003b0: 209b 163d b38a 173d 0cfb 053b 7d59 afbd
000003c0: b7e3 24bd 9f52 9c3d 871f 403c 0ac3 99bc
000003d0: 7d0d 893d a1de f9bd 3884 543d da71 d13c
000003e0: f85e 483c 4fc1 e13a 8887 82bd 691b 53bd
000003f0: ecf5 debd 4c5f 333d 11b6 2abd 0899 73bd
-0.020821845 -0.03461635 0.00585468 0.030427946 0.02449895 0.06312139 -0.046262387 0.040987454
0.092481084 0.062092472 -0.047402464 0.02203394 0.052164886 0.056484118 -0.14172874 -0.01944634
-0.10110611 0.024197403 -0.07190948 -0.0062416443 -0.073166996 -0.04724081 0.048829522 0.010782558
-0.042462643 -0.055751387 0.0012672426 0.03551352 -0.07313761 -0.01779696 0.027885241 0.042390823
-0.03454239 -0.012134714 -0.10271946 -0.007848469 0.06948866 0.046228446 0.004547905 -0.009078558
-0.0335646 -0.05368578 -0.035474285 0.0047839726 0.028580738 -0.00079379475 -0.0387097 0.06769297
0.06844977 0.013983272 0.025513565 0.030089488 -0.008456439 -0.058428306 -0.09110317 -0.0295871
0.0021309715 0.07327766 -0.029246006 0.0021963392 0.037596088 -0.013827401 -0.039387695 -0.030957853
-0.09486149 -0.030835852 0.08617939 -0.0012595312 0.048209745 -0.023046447 -0.024761237 -0.06751521
0.06989895 -0.03222557 -0.0076313964 -0.054912806 -0.0026773643 -0.013826368 -0.051167056 0.04334193
-0.0028430196 -0.038114265 -0.03940801 -0.0032800823 0.004700215 -0.05975458 0.070054844 -0.057665642
0.0066357036 0.02079185 0.009889544 0.03617833 2.9983205e-05 -0.0048702857 -0.003222205 0.06354244
-0.018599438 0.031983774 -0.07805783 -0.00752963 -0.09736911 0.028929232 0.030234555 -0.09002262
0.055583935 0.021303194 0.05179638 0.08319288 -0.042121373 -0.073291525 -0.032220226 0.06499926
-0.018290475 0.043049883 -0.1076354 -0.010183789 0.0022443663 -0.09826352 -0.042582456 -0.017707016
-0.07329686 0.01705205 0.040318128 -0.018382816 -0.036616392 -0.07296097 0.07090679 -0.016252594
0.01671697 0.049029134 -0.06853591 0.08304473 -0.102002285 -0.03387529 0.015070357 0.026541397
-0.043992974 -0.004560804 -0.04689275 -0.07896707 0.07210337 -0.048728853 -0.086258955 -0.008513875
0.08777953 0.0024833635 0.023425635 -0.045021992 0.033850115 0.10371004 -0.044632908 -0.050360184
0.06563804 -0.09880165 0.0050259638 0.008754473 0.08987692 -0.034427367 0.01499863 0.018203361
-0.029294834 -0.061533824 0.050974276 0.05889378 -0.0011395103 0.046339083 0.048263 0.0077841743
-0.019042151 0.07383591 -0.010481215 -0.07796184 -0.03566899 -0.045689866 -0.092616 -0.07546474
0.06531775 0.014686809 -0.019838378 0.050719794 -0.04900189 -0.10050696 -0.06467868 -0.082627684
-0.0021085467 0.03211133 -0.06038287 0.02930053 -0.054649968 -0.09011223 0.0744674 0.035695672
0.08141776 -0.008813492 0.04182115 -0.08219884 -0.048805613 -0.008328208 0.06414359 -0.037790816
-0.0621707 -0.030347519 0.04970947 0.049138274 -0.044570148 -0.08164787 -0.025141709 -0.02057377
-0.027732022 -0.03669156 0.012114272 -0.010746825 0.07779011 0.024846962 -0.04736688 -0.054725528
-0.08059569 -0.0242008 0.050875403 0.013855427 0.037952602 0.0310097 -0.038663678 0.029463796
0.037252877 0.007420802 0.032212976 -0.12208962 0.07595901 0.008196642 -0.11173815 -0.04472532
0.056189988 0.012179907 -0.04425792 0.05453199 0.036769032 0.03699751 0.0020443825 -0.085619904
-0.04025623 0.07632946 0.011726267 -0.01876976 0.06692026 -0.12200666 0.051883906 0.025566984
0.012229674 0.0017223748 -0.06373507 -0.051539812 -0.108867496 0.043792054 -0.04167754 -0.059472114

a2c_network.actor_mlp.4.bias f4 [64]
00000000: 9716 60bd 22f5 5ebd 95c5 ae3c d23a 08bd
00000010: 31af a9bd 82bc a03d a188 bdbd dad6 98bd
00000020: 3e8d b8bd e016 98bd 4614 6abd 64e7 c23d
00000030: 84d2 ef3c 9b6a 52bd 86c5 e83d 91cb 0dbd
00000040: 7e9f 73bd becc 2bbd 68b0 00ba 2a71 d2bb
00000050: 785e b43c f82c e9bd 7b67 bcbd dd84 0c3d
00000060: 9f02 3f3d 4915 d1bd cb22 c2bd f4d5 b2bc
00000070: 9d0b c9bd 892f a23c dc62 dfbd 965e 95bd
00000080: 6ec2 343d e0a1 82bd d12f 81bd 5e30 ac3c
00000090: 4d62 443d cf87 b7bd 7c48 96bc 9cdd db3d
000000a0: daec 8a3d 9eeb afbd c2d7 d4bd ba52 c53d
000000b0: def8 4a3c ba66 7f3d 5571 543d c829 a2bd
000000c0: ea74 b43c fb0c f8bc 8099 d03c ffa4 03bd
000000d0: 24dd bf3c 43fe 313d 06e7 f23b bf09 b93a
000000e0: e2dd c9bd 4036 02bd b953 4d3d 0749 4d3d
000000f0: 5ead 193d 136e a13c 576d dabd d15b a2bb
-0.054709043 -0.054432996 0.021334449 -0.03325922 -0.08285368 0.07848455 -0.092545755 -0.07462855
-0.09011315 -0.07426238 -0.05714824 0.095167905 0.029275186 -0.0513712 0.113657996 -0.034617964
-0.059478275 -0.041943304 -0.0004909099 -0.0064221816 0.022017702 -0.1138553 -0.09199425 0.034306396
0.04663336 -0.10209138 -0.094792925 -0.021830536 -0.09816668 0.019798057 -0.10907528 -0.072934315
0.044130735 -0.063785315 -0.063079484 0.021019157 0.04794531 -0.0896145 -0.01834511 0.10735628
0.06783457 -0.08589862 -0.10392715 0.096349195 0.012388436 0.062353827 0.051865894 -0.079181254
0.022028405 -0.030279627 0.02546382 -0.032139774 0.023420878 0.043455373 0.007412794 0.0014117284
-0.09856774 -0.031790018 0.050128672 0.050118472 0.03751885 0.019705808 -0.10665386 -0.004954793

a2c_network.value.weight f4 [1, 64]
00000000: 00c0 57bc 0486 17bc b72d 8abb 4b27 823d
00000010: 808f 30bd 14a2 1e3c 29bf 24bc 3ede 8dbc
00000020: c006 84bd 5edc 143c 2b80 343c 7791 84bc
00000030: b544 0a3d c678 b93c ccc4 74bb 3fec 8ebd
00000040: b665 683c 2523 6c3d f1bd 65bd 403b 24bd
00000050: 91f5 57bd 3c55 60bc 98fb 2dbd 88a2 243d
00000060: 40bc 8ebc 0e66 84bc 370a d73c 9c9e 9fbc
00000070: c320 843c 5ec6 4a3c 0012 853b db04 6fbc
00000080: a4ce 5d3c a918 193b 3a89 08be 908c e3bc
00000090: 798c 1e3b 6bf5 00bd cf9b 09be 8a06 c0bc
000000a0: 75cc 603b caf8 a63d eac8 a53c 46b2 673c
000000b0: c563 31bd d73e ef38 ffca 4e3b 0309 4abd
000000c0: 11b6 493c 0072 a83d 262e ed3c a782 023e
000000d0: 23db 9b3c db7e b53c 81d8 b2bc c5d5 9ebd
000000e0: a0ae 843c aa7a 63bd 7596 69bd 1820 a8bc
000000f0: f9cc 403d a42e cebc 7d95 2e3d bcfe 853b
-0.013168335 -0.00924826 -0.0042168754 0.06355151 -0.043105602 0.009682197 -0.010055342 -0.017317887
-0.064466 0.009085743 0.011016886 -0.016182644 0.03375693 0.022640597 -0.0037348745 -0.06978654
0.014184406 0.057650704 -0.056089345 -0.040095568 -0.052724425 -0.013692196 -0.042476267 0.040194064
-0.017423749 -0.016161945 0.026249988 -0.01948481 0.016128903 0.012376396 0.0040609837 -0.01458856
0.0135380365 0.0023360646 -0.13333598 -0.027776986 0.0024192615 -0.03148405 -0.13438343 -0.023440618
0.0034301553 0.081529215 0.020237405 0.014141625 -0.04330804 0.00011408113 0.00315541 -0.049325
0.012311474 0.08224869 0.02895267 0.12745152 0.019025391 0.022155216 -0.021831753 -0.07755617
0.016196549 -0.055536903 -0.057028253 -0.020523116 0.047070477 -0.025168724 0.042623032 0.0040892046

a2c_network.mu.weight f4 [7, 64]
00000000: 91e5 75bd a2a8 b4bc 91ee e23b 9125 95bd
00000010: c379 313d 9067 a53d a0d3 fcbd e8fb 4bbd
00000020: 3f59 9cbc c20c a6bd 82c3 bf3c b2ba 9a3d
00000030: c90e aa3c 2cf0 1fbc 4236 013e 3e8a b6bc
00000040: f958 e1bc 33f1 bbbc 4fcc ed3a 8a46 a03c
00000050: 0dd3 9b3c 3bb4 58bd 64f2 b63c 6a9b 263d
00000060: 1a4e f33c 5d7a 0cbc e969 5cbd 9202 cabc
00000070: 410b d3bd 3707 1d3d 10d5 a1bd adfe a9bc
00000080: 821e 903c 62c2 cfbc 2830 4ebd cce7 92bb
00000090: 783b 4f3d 41ce 11bc f913 d7bc eea4 533d
000000a0: bacb 133d 6bde 8bbd ff24 9abd b664 d13d
000000b0: 7fdf 123c 0a02 923b c09e 673d 70c7 66bd
000000c0: a9ce bd3c 4e4d 643b 40d2 a33d 10c3 203d
000000d0: 5979 543d 7b67 103d fa40 d13c d628 9d3b
000000e0: 38cb 06be 46ea 04bc 847d 8d3d 21d4 363d
000000f0: 3c12 b53d bda9 ce3b 2c53 c7bb 35d2 a53c
00000100: 91ea 25bd b164 903a 0af7 483d 8070 25bd
00000110: e78e 953d 9652 15bd 4a44 923d 3ad2 9c3d
00000120: 6674 18bd 5928 2abd dcac 9d3d 4f1c d4bd
00000130: 9a64 c8bc f30a 05bc 8982 f1bd ea5d 42bc
00000140: 5526 543c 39fb d4bc 02af 1cbc f7d5 d83c
00000150: 4eb0 0738 5bb3 ed3d 1e74 eb3c aa5b a1bd
00000160: 07e6 603c 0772 c63c 7842 473c cf64 18bd
00000170: 45e8 033c b09e ac3c 1097 4f3d 884a c53b
00000180: 1ed5 3fbd 4c2d b23d 70c4 b33d 07bc 96bc
00000190: 6109 58bd d7b5 9d3d 90c2 6dbd 59bb 26be
000001a0: 8cf2 39bd accd 893d 3053 583d cbc5 88bd
000001b0: 50f3 3e3d 4fa8 803b 8182 3d3b f933 733d
000001c0: a242 5ebd 2e4a bc3c 060c ba3c 12a7 d1bd
000001d0: e590 bfbc bd0b b9bc 931a 493d 7cd8 a7bd
000001e0: 94fa bf3c 0b0a 223d 6fb7 a6bc bd95 d83c
000001f0: 0436 213c 311f 95bc 6b11 dd3c 487c d83c
00000200: 774a 6a3c f40d 263d e97a 303d 849d ab3c
00000210: e20a ecbc 289c 993d 8928 353a 9c03 dc3a
00000220: eb39 ce3c e3cc 153c 1221 afbd ad4b e43d
00000230: e362 1f3c 362b 263c c74d a0bb de3f 653c
00000240: 40cc 8bbd 8c40 02bd b9d7 c5bb 4b30 9ebc
00000250: 01ab c53c b070 fdbc c9dd e8bc 0d74 db3c
00000260: d902 46bd 033e a5bd 1984 323d f624 4339
00000270: db4f abbd bec8 363c a326 6bbd a292 123c
00000280: 53ae 053d 108e 56bd a2d2 26bd 48f6 86bc
00000290: a67a ed3c 4778 d03b 222e d9bc 66ef 463d
000002a0: cf65 d63d 9d9a 8fbd 6d07 d13c 8f9f d83d
000002b0: d791 b23c 8e4b ffbb c59c ae3d 853d 81bc
000002c0: 49de 3bbd 687c 843c 3b34 f33a 8716 123d
000002d0: 6ea2 b5bc 0fd2 b2bc 46d6 29bd 1917 533d
000002e0: c536 e1bd 4649 42bd 7476 0c3e 8c53 dc3b
000002f0: 50af 27bc 2959 89bc 2e0d 81bc eede c7ba
00000300: 35ad 233d d00b 4c3d 7725 363d 5dbb ddbc
00000310: 458e 97bb 2435 69bb dec2 31bd a578 c13d
00000320: e32d 66bb 0a0d 12bc eaf4 8d3d 97c3 383e
00000330: 061e 0bbd 11fc ca3b 4332 fdbc c73f 893c
00000340: 3afa 1e3d 14ea 92bc b341 d2bb c13f 4c3b
00000350: e9a8 9ebc 29cd 81bd 6e45 90bd f6cb 883b
00000360: 2923 78bb 6ae0 91bd 681d babd 72d2 0a3d
00000370: 652d d7bc 565d 2fbc 986a adbc ed4a 4bbd
00000380: 183d 1f3c e0f0 a03d a13e a73d a59d d53b
00000390: a10f 833d 1db5 9abd 4010 f4bc 8045 d93c
000003a0: e967 903a ff27 74bd dd47 6d3c 73fc bf3d
000003b0: 8608 4bbc 85cf 02bc 2a45 db3c 32ad 62bd
000003c0: a1c2 c0bc f31d 0dbc c031 4ebd 044a 23bc
000003d0: 0ee6 c33d d285 9b3c 9ca3 5a3a f7c8 06bd
000003e0: 5b5a a1bc 3a8d eabc fc98 ddbd ee13 09bd
000003f0: 34e6 53bd f6cd 203c 9a27 90bd 2dd6 19bc
-0.060033385 -0.022053067 0.006925412 -0.07282556 0.04332901 0.080763936 -0.12345052 -0.049800783
-0.019085525 -0.08107902 0.023408655 0.075551406 0.020759003 -0.009761851 0.12618354 -0.022282716
-0.027508246 -0.022942161 0.0018142554 0.019564886 0.019021535 -0.052906256 0.022332378 0.04067556
0.029700328 -0.008574096 -0.05381194 -0.024659429 -0.10304881 0.03833696 -0.079019666 -0.020751322
0.017592672 -0.025361244 -0.050338894 -0.0044831987 0.050593823 -0.008899272 -0.02625464 0.05167096
0.03608296 -0.06829532 -0.07526588 0.10224287 0.008964418 0.0044558095 0.05654788 -0.056342542
0.023169832 0.0034836116 0.079990864 0.039248526 0.05187354 0.035254937 0.025543679 0.004796128
-0.1316346 -0.008112496 0.06908706 0.044635896 0.088413686 0.0063068555 -0.006082913 0.020241836
-0.040506903 0.0011016337 0.04906372 -0.04039049 0.07302647 -0.036455713 0.07141931 0.07657285
-0.03722038 -0.041542385 0.07698986 -0.10356962 -0.024462033 -0.008120286 -0.11792476 -0.011863211
0.012948592 -0.025998699 -0.0095632095 0.026469214 3.2350705e-05 0.11606475 0.028741892 -0.07878812
0.013726718 0.024224294 0.0121618435 -0.037205514 0.008050983 0.021071762 0.050681174 0.0060208477
-0.046834104 0.08700046 0.08777702 -0.018400205 -0.05274332 0.07700699 -0.058046877 -0.16282405
-0.045397326 0.06728682 0.05281371 -0.06678351 0.04661876 0.003926314 0.0028916898 0.059375737
-0.054262765 0.02298459 0.022710811 -0.10236944 -0.02338452 -0.022588605 0.04909761 -0.08195588
0.023434915 0.03956036 -0.02035114 0.026438588 0.0098395385 -0.01820335 0.026985845 0.02642645
0.01429998 0.04054065 0.043085966 0.020949133 -0.028813783 0.075004876 0.0006910642 0.0016785744
0.025174102 0.009143087 -0.085512295 0.111472465 0.009728166 0.010142138 -0.0048920843 0.013992278
-0.06826067 -0.031799838 -0.006037679 -0.019310137 0.024129393 -0.030937523 -0.028426068 0.026788736
-0.04834256 -0.080684684 0.04358301 0.00018610418 -0.083648406 0.011156259 -0.057409894 0.008946093
0.03263695 -0.052381575 -0.04072822 -0.016474858 0.028989147 0.0063619944 -0.026511256 0.048568152
0.10468637 -0.07011912 0.025516236 0.105773084 0.021798057 -0.0077909892 0.08525995 -0.015776405
-0.045866285 0.016172603 0.0018554995 0.035666015 -0.02217218 -0.02182868 -0.041464113 0.0515357
-0.109967746 -0.04743316 0.13717061 0.0067238268 -0.010234669 -0.016766148 -0.015753355 -0.0015248933
0.039960105 0.049815953 0.044469323 -0.02706688 -0.004625114 -0.0035584653 -0.04339873 0.09446839
-0.0035122565 -0.008914242 0.06931479 0.18043362 -0.03396418 0.0061945994 -0.030907756 0.016754044
0.038812853 -0.017933883 -0.0064165234 0.003116593 -0.019367652 -0.06337959 -0.07044493 0.0041747047
-0.0037862754 -0.07122882 -0.0908764 0.033892103 -0.026266763 -0.010703405 -0.021168992 -0.049632
0.009719156 0.07858443 0.081662424 0.006519037 0.06399465 -0.07554076 -0.029792905 0.026522398
0.0011017296 -0.059608456 0.014482466 0.09374323 -0.012392169 -0.007984047 0.026766378 -0.055340953
-0.023530306 -0.0086130975 -0.050340414 -0.009966377 0.09565364 0.018984709 0.000834042 -0.0329065
-0.019696405 -0.028631795 -0.10820195 -0.033466272 -0.05173321 0.00981473 -0.070388034 -0.009389442

a2c_network.mu.bias f4 [7]
00000000: 7fd5 583d dbf2 c2bd fb24 843d e2ee 943b
00000010: 9ecc aa3d 3d12 97bd 2716 cfbd
0.05293798 -0.09518977 0.06452366 0.0045450786 0.08339809 -0.073765256 -0.10111647

exp_avg f4 [7]
00000000: f548 e03c eee5 fa3c 557c f53c e31a f23c
00000010: 2177 e33c 8d64 e53c 33d9 e93c
0.027378539 0.030627217 0.029966513 0.029553836 0.027766766 0.028002048 0.028545951

exp_avg_sq f4 [7]
00000000: 9b27 a13a 78c3 cf3a 543d c13a 1ff2 c03a
00000010: 03c9 a93a 19e8 ac3a ea5b ae3a
0.0012295129 0.0015851101 0.0014743009 0.0014720595 0.0012953583 0.0013191729 0.0013302539

exp_avg f4 [256, 33]
00000000: ef99 7e38 6ca9 92b8 40fb 9e38 c9d3 a334
00000010: 595e 7538 577d 9bb8 a913 5db9 5f52 44b9
00000020: 1ce7 d938 e2ca a6b8 0e7e 8738 ad66 4339
00000030: 58d4 9738 50af 44b8 04d3 8037 bedb 8537
00000040: 2946 5336 dfdd 21b7 3f61 d537 a9f1 9038
00000050: 94f0 04b9 3b4e 1ab7 0400 0000 0400 0080
00000060: 0000 0000 0000 0000 32b2 ae38 5b55 b0b8
00000070: b2b4 ae38 c530 ad38 c224 ae38 4e72 abb8
00000080: 62ee adb8 53bf 5439 7324 60b9 1cc6 6739
00000090: b2eb 0f39 a504 5239 b7ea 64b9 bc5f 81b9
000000a0: 90b5 8bb9 ebf2 1a39 e5ff eeb8 7d71 bd38
000000b0: 5461 8c39 2005 db38 e2c2 89b8 4695 a837
000000c0: e2c9 9b37 32be 8f36 672c 82b7 bee7 9238
000000d0: a601 1738 2d1b 82b7 9b97 4436 0400 0000
000000e0: 0400 0080 0000 0000 0000 0000 a308 7039
000000f0: 3a24 71b9 9d0e 7039 df00 6f39 f686 6f39
00000100: 82d0 6db9 0b88 6fb9 418e 46ba b8f2 493a
00000110: 7e98 4cba 1a8e 37ba 8dbb 45ba 8ef5 4a3a
00000120: 993f 9839 c80c 033a 46c5 90b9 8133 6239
00000130: ad1e 2cb9 29bb 05ba 4b8d 51b9 f93b fb38
00000140: 9506 07b8 d87f b2b7 895c 89b7 cc52 fb37
00000150: 8e58 7cb9 1c1b eab7 2c80 9e38 27ce 9ab7
00000160: 0400 0080 0400 0000 0000 0000 0000 0000
00000170: a019 4eba 8592 4e3a d31f 4eba 99a6 4dba
00000180: 63c5 4dba e222 4d3a 1be6 4d3a 6362 95b8
00000190: afda 9938 c92b 9db8 179d 6cb8 b655 94b8
000001a0: 2061 9b38 b48b 7f38 8000 9638 7d7b 1cb8
000001b0: 5c21 ec37 8f6c c6b7 7289 98b8 eae7 d5b7
000001c0: ffae 8f37 e5c9 90b6 5271 b6b6 8ee4 0cb5
000001d0: 4d74 7936 216a c4b7 ef9d 9cb7 107e a836
000001e0: 00d4 4837 0400 0080 0400 0000 0000 0000
000001f0: 0000 0000 95df a0b8 2a78 a138 e9e3 a0b8
00000200: dc50 a0b8 f390 a0b8 7eac 9f38 649b a038
00000210: ffce a738 20aa b8b8 13a5 c338 fbad f937
00000220: 8acb a338 5f85 c0b8 ed28 3bb9 b5be 31b9
00000230: 3c81 c738 ff0b 9ab8 6099 7938 88c9 3039
00000240: 15d2 8c38 580b 36b8 1d90 7a37 c61f 4837
00000250: a5b4 e935 ef24 4cb7 ab92 ff37 4804 17b8
00000260: c7e2 d0b6 ebf4 1bb8 0400 0000 0400 0080
00000270: 0000 0000 0000 0000 7bbd d038 8731 d2b8
00000280: 92c1 d038 0b66 cf38 f630 d038 c1d8 cdb8
00000290: 6211 d0b8 ed8c 55b8 2b43 6638 b1a0 71b8
000002a0: 7648 dbb7 36a1 51b8 2ff1 6d38 872d b838
000002b0: aad8 ac38 7fcd 56b8 c765 2338 fdbc 0bb8
000002c0: ea23 b4b8 ac50 14b8 68aa cb37 cde9 e5b6
000002d0: f4c4 b1b6 01f4 fbb5 f823 1637 7e9e 95b7
000002e0: 8504 b1b7 2388 bb37 fc47 e4b5 0400 0000
000002f0: 0400 0080 0000 0000 0000 0000 07e7 7fb8
00000300: 29c5 8038 63ec 7fb8 7f63 7eb8 ec42 7fb8
00000310: 5fa3 7c38 c025 7f38 0c02 53b9 981b 4c39
00000320: f76c 48b9 a140 85b9 69a2 54b9 e82c 4839
00000330: 3d20 1fb9 bec1 44b8 9f92 de37 3154 9db7
00000340: b0c5 a037 f871 3038 e4d1 8437 ca68 65b7
00000350: 8917 ed36 4afc 4437 7fdb 83b6 e559 61b5
00000360: 5faa 6cb8 b424 5838 ad83 e237 21a8 37b7
00000370: 0400 0080 0400 0080 0000 0000 0000 0000
00000380: 5507 41b9 6ab7 4039 d40e 41b9 284b 41b9
00000390: 23e3 40b9 009c 4139 da33 4139 9b0b 05ba
000003a0: 7be2 073a fafd 09ba 9066 eeb9 735b 04ba
000003b0: 54ce 083a 80ee 7e39 79bb c339 9d33 58b9
000003c0: eb64 2839 4860 00b9 e030 c7b9 a6b3 1bb9
000003d0: e108 bb38 29e6 cab7 8c52 9db7 b18d 53b7
000003e0: cea9 bc37 30d8 2ab9 5890 fab7 dcf7 9138
000003f0: 0d83 a0b7 0400 0080 0400 0000 0000 0000
6.070168e-05 -6.99338e-05 7.580826e-05 3.051521e-07 5.850042e-05 -7.414322e-05 -0.00021083526 -0.00018722702
0.00010390414 -7.953287e-05 6.460781e-05 0.00018634899 7.239793e-05 -4.6893314e-05 1.535705e-05 1.5957161e-05
3.1482289e-06 -9.648006e-06 2.5436862e-05 6.911468e-05 -0.00012678123 -9.19733e-06 6e-45 -6e-45
0.0 0.0 8.330158e-05 -8.408233e-05 8.330624e-05 8.258367e-05 8.303813e-05 -8.175206e-05
-8.293685e-05 0.0002028917 -0.00021375883 0.00022103678 0.00013725346 0.00020028891 -0.00021831213 -0.00024676125
-0.0002664742 0.00014777078 -0.000113963884 9.033361e-05 0.00026775396 0.000104436884 -6.568969e-05 2.0096672e-05
1.8571449e-05 4.2838737e-06 -1.5517884e-05 7.004988e-05 3.600274e-05 -1.5509862e-05 2.9294522e-06 6e-45
-6e-45 0.0 0.0 0.00022891401 -0.00022997046 0.00022893627 0.0002279314 0.00022843093
-0.00022679757 -0.00022843496 -0.0007574298 0.00077037094 -0.00078047055 -0.0007002071 -0.0007542901 0.0007742279
0.00029039083 0.0004999158 -0.000276128 0.00021572226 -0.00016414626 -0.00051014364 -0.00019984429 0.000119797834
-3.2192638e-05 -2.1278785e-05 -1.6374763e-05 2.9960087e-05 -0.00024065582 -2.7907598e-05 7.557901e-05 -1.8454228e-05
-6e-45 6e-45 0.0 0.0 -0.0007862095 0.00078801095 -0.00078630185 -0.00078449544
-0.00078495423 0.00078253273 0.0007854418 -7.1231996e-05 7.3363415e-05 -7.494499e-05 -5.6413086e-05 -7.073155e-05
7.409067e-05 6.0926846e-05 7.1526505e-05 -3.7308306e-05 2.8148927e-05 -2.365399e-05 -7.273526e-05 -2.5499572e-05
1.7128417e-05 -4.315038e-06 -5.437215e-06 -5.2486655e-07 3.7171587e-06 -2.341444e-05 -1.8670193e-05 5.0214658e-06
1.1970289e-05 -6e-45 6e-45 0.0 0.0 -7.67104e-05 7.6994605e-05 -7.671846e-05
-7.644456e-05 -7.6563934e-05 7.61384e-05 7.658338e-05 8.0017366e-05 -8.805492e-05 9.329072e-05 2.9764129e-05
7.810358e-05 -9.180116e-05 -0.00017848956 -0.0001695108 9.513131e-05 -7.345527e-05 5.9509068e-05 0.00016859744
6.714851e-05 -4.3402746e-05 1.4934715e-05 1.1928327e-05 1.7412427e-06 -1.2167947e-05 3.0466666e-05 -3.6005193e-05
-6.2252834e-06 -3.7182977e-05 6e-45 -6e-45 0.0 0.0 9.9535064e-05 -0.000100228055
9.954268e-05 9.889536e-05 9.9273326e-05 -9.815535e-05 -9.921451e-05 -5.0914405e-05 5.489883e-05 -5.7608533e-05
-2.6140577e-05 -4.9979622e-05 5.6729823e-05 8.782284e-05 8.241956e-05 -5.121296e-05 3.8957016e-05 -3.331619e-05
-8.589758e-05 -3.536108e-05 2.4278837e-05 -6.85195e-06 -5.2979394e-06 -1.8771972e-06 8.949071e-06 -1.7835988e-05
-2.1102149e-05 2.235553e-05 -1.7008274e-06 6e-45 -6e-45 0.0 0.0 -6.10119e-05
6.1402396e-05 -6.101689e-05 -6.0650982e-05 -6.0859064e-05 6.0233633e-05 6.0831895e-05 -0.0002012329 0.00019465236
-0.00019114079 -0.0002541589 -0.00020278398 0.00019090215 -0.00015175431 -4.6910478e-05 2.6532738e-05 -1.8755063e-05
1.9165542e-05 4.206781e-05 1.5833364e-05 -1.3673862e-05 7.0658903e-06 1.1741251e-05 -3.929657e-06 -8.3949845e-07
-5.6425455e-05 5.1532596e-05 2.7002616e-05 -1.0946796e-05 -6e-45 -6e-45 0.0 0.0
-0.00018408646 0.00018378874 -0.00018411438 -0.00018433912 -0.00018395162 0.00018464029 0.0001842523 -0.0005075277
0.00051835895 -0.0005263981 -0.00045471312 -0.00050490274 0.00052187336 0.00024312176 0.00037332976 -0.00020618593
0.00016059323 -0.00012242899 -0.00037992653 -0.00014848876 8.918509e-05 -2.4187453e-05 -1.8754297e-05 -1.260957e-05
2.2490418e-05 -0.00016293 -2.9869538e-05 6.960306e-05 -1.9134512e-05 -6e-45 6e-45 0.0
