logs/rsl_rl/needle_lift/2024-07-31_19-43-43/exported/policy.pt (torch, 213584 bytes, 8 tensors)

weight f4 [256, 33]
00000000: edf1 743e 3d15 063f 2a88 743d c23c 8a3e
00000010: 1979 9cbe 6984 0fbd 33b8 79bd 718a 243e
00000020: 440d 46bb cfa6 253d a249 c0be c0a7 e73d
00000030: b1b3 94be 9b66 843c 59b2 4fbe a07e a73d
00000040: fb44 033e d486 3b3e 2ac8 f03d 963a 6c3e
00000050: f068 cfbe f976 12bd b9f8 78bd bf6f f0bc
00000060: 90a9 d9bb 5db4 f23d f3ef 13be 11af d6bd
00000070: c562 a83e 9912 a23d bf02 0a3d cabd ef3d
00000080: 0721 81be 2fda 293e e79c 98bd 718e e4bd
00000090: 40a8 363d 40c9 0c3d 1006 e93d abc8 a83d
000000a0: 4a16 da3d be7e 083e acca 02be ca7e a43e
000000b0: 7682 383e 0db7 53bd 1c75 623c 43aa ebbe
000000c0: 3bd8 323e 2afc 00bf a331 90be f348 173e
000000d0: 4f57 323f 9906 68bc decd e83d 5a6f 87bd
000000e0: f83f dabd 342c 1ebb 9eda cd3d e516 11be
000000f0: c810 0cbe 2d30 89be 4344 f13d 9a02 b4be
00000100: a8f0 bebd f6f3 463e 2989 83be efe6 f43d
00000110: 41db c83e e88c 21bd 1948 1e3e 2584 d4be
00000120: fbc9 ecbe a1b7 053f 2fe0 4ebe a5b1 b73d
00000130: 870b f0b7 9c1b 193e 366c 82bd f98d 1d3d
00000140: 8eb5 a1bd 13d3 33be a80e e5bd ca57 0bbd
00000150: 1728 393d dbdb 503e c35d 7f3e 156a 1a3a
00000160: 98a0 f7bd 5d55 603d 232b 1dbd e4ee 523c
00000170: 1e98 253e 08e2 02be 3282 9bbe 5bd4 74be
00000180: 43bd 813e 91db 7e3d 9b6b 01be 6d04 d2bd
00000190: 2533 db3d d199 dc3c 91e4 c6bd b496 07bd
000001a0: e8c0 81bb 2fa8 b8bd 1db3 2f3e 4064 303e
000001b0: 2714 053d 38a8 56bc 8808 07bd 7c5a 04be
000001c0: 5495 86be bf5b 82bd 46bc 59be a032 353e
000001d0: be29 343e 853e 813e 5dcb 3e3f 172f c23d
000001e0: 6487 ed3d 6890 173d c74e ae3d 82d3 4f3d
000001f0: 3b65 7b3d 1029 75bd d137 82be 7e93 7c3d
00000200: 854c 1d3d 767a 8abc 7c64 8cbe f87a e1ba
00000210: f2f9 16be ec36 58be cb6a 913e c5ad b0bd
00000220: d8b2 b23e 439d 04be c7a0 bdbd 9d5f 6a3d
00000230: e346 26bd cb0e c93d b82b b83e 32b0 af3d
00000240: 238e 843c fe54 1c3e 9282 17bd cc48 83bc
00000250: 0e9e 753d c23b 8abe 2e94 183e 4bbe 9ebd
00000260: 3379 dc3e a9b8 813e 653e a23c 1b5f 0b3c
00000270: fb8d ebbc df2e a63d 12f3 83bc f52d c93d
00000280: 549c 9cbe c17e d5bd 72b6 e73d 8021 97bc
00000290: 2d43 03bd c683 cf3d 1d0d 9f3e 65ed 3cbd
000002a0: 8f3f d7bb 8890 1fbd a66c 853e 6e22 3fbd
000002b0: 9527 88bc 692f 8f3e 2ca0 bd3d f642 a43e
000002c0: f6d7 8cbe 6d94 8d3c c97d 89be 3950 223e
000002d0: 8363 043e 304d 1fbe 058e 4f3c baef e4bd
000002e0: 893e f73e 5e2f 2b3e 670c fa3d 652f ccbd
000002f0: 9e52 d63d 8a6d e4bd 37ef fdbc 5c10 3f3e
00000300: 3fca 203e e9d0 b33e 17cd 173e 5cbc c43e
00000310: f26c 75be a360 823e 0b58 c1be 2be8 833e
00000320: f0a0 a63e 5f5a 2d3e b3f9 b0be 9fac 3a3e
00000330: 83e2 81be 404d 8d3e dd98 413d 40de 2bbd
00000340: adf4 7d3e 3801 f8bd 7c08 8e3d cb77 a7bd
00000350: 0f3c 6dbe 6696 97be d533 f13e 79ea d13d
00000360: 0871 b43d 7459 803e 03f6 573e e757 293e
00000370: 2943 ff3c 2e58 23bd 045b 783d 3757 023e
00000380: a7da 9f3c 147a efbd 2e53 9bbc 0281 343d
00000390: 3c7b b0bd 0bbf 50be ea27 473e 96a2 743e
000003a0: a458 3cbe 6434 1ebe e5d1 343e 8e18 bc3e
000003b0: 3456 ca3e a33c d83d 1e4e e5be a174 963c
000003c0: 4993 a6bd 5bae 4b3d ea31 9dbc 72cd a5bd
000003d0: 406c ab3d dbff 413e ff05 81be af66 853e
000003e0: 6727 4e3e 3b7b b5bd 6412 fcbe 2402 77be
000003f0: 1008 d3bd bf8d 7f3c 9a2c 783d 0e41 f4bd
0.23920412 0.5237616 0.05970017 0.2699948 -0.3056114 -0.035038386 -0.06096668 0.16068436
-0.003022031 0.040442284 -0.37556177 0.11311293 -0.29043344 0.016162207 -0.20282878 0.08178449
0.12819283 0.18313152 0.11756928 0.23069224 -0.40509748 -0.035757992 -0.060784075 -0.02935016
-0.006642528 0.11850808 -0.14447002 -0.1048261 0.32887855 0.079137035 0.033694025 0.11706121
-0.2522051 0.16587137 -0.07451802 -0.11159981 0.04459405 0.034371614 0.113781095 0.082413994
0.106487826 0.13329598 -0.12772626 0.32127982 0.18018517 -0.051688243 0.013821866 -0.46028337
0.17465298 -0.5038477 -0.2816287 0.14773922 0.6966447 -0.014161729 0.11367391 -0.066130355
-0.10656732 -0.0024135234 0.100514635 -0.1416889 -0.13678277 -0.26794568 0.11780598 -0.35158235
-0.09323245 0.19429001 -0.25690582 0.119581096 0.39229777 -0.03944102 0.1545719 -0.41507068
-0.4624785 0.5223332 -0.20202707 0.0896943 -2.8615597e-05 0.14951938 -0.06368296 0.038465474
-0.07895957 -0.17560987 -0.11184436 -0.03401927 0.04520425 0.20396368 0.24938111 0.0005890441
-0.12091178 0.05476891 -0.038371217 0.012874339 0.1617131 -0.12781537 -0.3037277 -0.23909132
0.25339708 0.062221114 -0.12638704 -0.102547504 0.107031144 0.026928814 -0.09711564 -0.033102706
-0.003959764 -0.090164535 0.1715817 0.17225742 0.032489922 -0.01310163 -0.03296712 -0.12925142
-0.26285803 -0.063651554 -0.21263227 0.17695093 0.17594048 0.2524301 0.7452906 0.09481638
0.11598089 0.03700295 0.08511119 0.05073882 0.061375838 -0.059853613 -0.2543321 0.061664097
0.038403053 -0.016904097 -0.27420413 -0.0017202785 -0.14743784 -0.21114701 0.2840179 -0.08626894
0.34902072 -0.12950616 -0.092591815 0.05722009 -0.040594947 0.09817275 0.35970855 0.085785285
0.016181057 0.15266797 -0.036989756 -0.016025923 0.059965186 -0.26998717 0.14900276 -0.07751139
0.43061218 0.25336197 0.019805143 0.008506562 -0.028754225 0.08114409 -0.016107116 0.09823219
-0.3058802 -0.10424567 0.113140956 -0.018448591 -0.032046486 0.10132556 0.31064692 -0.046124835
-0.006568856 -0.038956195 0.26059455 -0.046663694 -0.016620437 0.2796586 0.09259066 0.32082337
-0.27508515 0.017282689 -0.2685378 0.15850915 0.12928586 -0.15556788 0.012668137 -0.11178537
0.48289898 0.16717288 0.12209397 -0.09969977 0.10464977 -0.111537054 -0.030997856 0.18658584
0.15702151 0.35120323 0.1482433 0.38424957 -0.2396734 0.25464353 -0.37762484 0.25763068
0.3254466 0.16929005 -0.34565505 0.18229912 -0.25368127 0.27598 0.047264922 -0.04196
0.24800368 -0.121096075 0.06935212 -0.081771456 -0.23167442 -0.29606932 0.47109857 0.102498
0.088106215 0.25068247 0.2108994 0.16537438 0.031159954 -0.039879017 0.060633674 0.12728582
0.019513441 -0.116932064 -0.018960562 0.044068344 -0.08617255 -0.20385377 0.1944882 0.23890147
-0.18393189 -0.15449673 0.17658193 0.36737484 0.39518893 0.105584405 -0.4478616 0.01836616
-0.08133561 0.049726825 -0.01918884 -0.08095826 0.083702564 0.18945257 -0.25199887 0.26054904
0.20132218 -0.08861395 -0.4923278 -0.2412191 -0.10304272 0.01559776 0.06058941 -0.11926471

bias f4 [256]
00000000: 2b8a 013e 8bb4 a23d 6cd5 773d 9b79 16bd
00000010: e2d2 973d 0627 bcbd a875 f93c 3d19 1bbe
00000020: 5ab6 283e 43cc a2bd 4609 0d3d be92 063e
00000030: ce36 c03d cab0 acbd 011f df3c 2007 273d
00000040: e77f 8dbd d7d2 b53c 9822 7dbd 0e8d 1a3c
00000050: fe3d 27bd 61ad 12be 9999 8b3d a47f 49ba
00000060: d8e2 b6bd d093 7f3c 789c 53bc c46d 27bd
00000070: 4ad4 923d a968 bebd de52 9ebd 160f 043e
00000080: 33c2 473d 81c1 bf3d f085 60bb f291 973d
00000090: f7c5 883c cf79 1f3d 0ab5 febd b72e 983c
000000a0: 219d 2b3c a697 43bd fd1f 9fbd 611a e3bc
000000b0: ef93 fabd a6eb b3bb 5d30 d03d cd86 343d
000000c0: 5aac 753d 3de3 b4bd 877e 17ba 1c67 97bd
000000d0: 2541 60bd 59a9 4ebc a5ad 393d 4620 823c
000000e0: b290 3fbd f5af 8abd cb6f 01bd ec96 da3d
000000f0: 4de1 d3bc 5583 5d3d 49b3 013e ccec 2b3d
00000100: 74ee 343e 97de 99bb ee63 e0bd 9397 b4bd
00000110: 2208 87bd 65bd 043d 84fe 7bbd ab7c 6cbb
00000120: 37e0 f1bc 4064 313c 4a86 8bbc 5400 c8bc
00000130: e6bf 3fb9 82a6 79bd e5a9 efbd f263 2c3d
00000140: 2b5e 3dbd 6614 7d3d 0a33 ff3b 6833 aabc
00000150: 2e8a d4bb c47a d2bd fe99 df3d 348e bbbd
00000160: 1fc6 1fbe c53f dabd 3e05 6e3d 4b78 a2bc
00000170: 9296 df3d 6103 adbb 31ef 943d ec18 873d
00000180: 7be0 983d c6bc 0fbe 8258 b53c 7b91 28bc
00000190: aa75 c63c 9c85 a03d c302 d73b 6bd8 9f3c
000001a0: 551f ea3d f495 963d 4753 c2bd d5f4 cdbd
000001b0: 0131 b4bd d72a cd3d df63 003e 0907 653d
000001c0: d9a6 c23d 30ba 02bc a7cd 0ebc bbeb fd3d
000001d0: f53d ce3d 1dde f0bc f66e 55bd 82db 053e
000001e0: accd f23d 1169 8dbd a324 ee38 cd5e 2c3d
000001f0: 05b9 5fbd 4f91 073e fe4e 9ebc 43e0 9fbc
00000200: 61a3 923d e16b 753b b78e 203d 6b66 38be
00000210: ff9c 1cbe 99ca 22bd 4f25 9c3d 8b9c ecbc
00000220: a8c8 1bbe 5225 fb3b d595 073d ada6 27bc
00000230: 1940 1fbd 7383 763d 1d8b 6c3d e0b5 bebc
00000240: 5daa f83c ea3c 73bd 3c95 5cbd f207 d5bc
00000250: 2c1c ae3d c9bc e2bd feff 5e3c d423 db3d
00000260: 6ca9 29be fad0 e1bd 981b de3b 7a53 8cbd
00000270: b97e 713d f0c2 203e 45ee 92bc 4ff5 5dbd
00000280: 78a6 6ebc 6411 cdbd 7bd2 023e 9819 1ebd
00000290: e258 68bc d6ba a1bc f620 bf3d d7b1 10be
000002a0: 1451 40bc 1687 2dbc 18e5 07be f6cf 32bd
000002b0: d43e 24be 48ce bdbc ca8b 5dbb 6857 833c
000002c0: 6c59 dbbd 303e 09be ec05 81bc 90e2 1d3e
000002d0: 15f8 88bd 00d4 febd 054d 8fbd eeab 863d
000002e0: 39c5 6ebc 7325 293c ac6b a9bc 7093 4cbd
000002f0: 69e9 97bd ddf1 dd3d d598 63bd 1c1a 063d
00000300: fc91 e93d c264 f7bc 31b8 81bd 06f0 81bd
00000310: c076 7b3d a990 b5bb 1881 2ebe 5bfe df3d
00000320: 64db 21bd 4e59 c13d e1c5 4c3c f5df 20be
00000330: d150 17be 45c1 b33c 1b54 433b 92b5 8f3d
00000340: 9186 8d3d 9dfb abbd aad4 8c3d 7d58 cd3d
00000350: d0cb 6e3d 89f3 ea3b 2ebd 1abe 294b b63d
00000360: df58 7e3d 01a4 093d f7b3 0d3d dd31 543c
00000370: 7d4c a2bd bb8b de3d df65 893a 659b a6bd
00000380: 17aa 0c3e dd67 243e 1b1a 4a3c 62aa a83d
00000390: acef a33d 96c7 75bd 6791 553d bf22 373d
000003a0: 34cb b53d 0075 40bd a045 95bd f4e5 14be
000003b0: 718f 193b d3b6 863c ae9a 3c3b 04ba be3d
000003c0: 1199 873d 5ffa 2b3e 7a22 30bd e35b 39bc
000003d0: f25a 30bd 1ff0 01bc 4fa6 ccbc f494 0c3b
000003e0: b8b6 8fbd f5d1 58bd 072f c3bc 727d 0fbe
000003f0: 5f83 133d 59d6 223e 5f84 6cbd b56d 35bd
0.12650363 0.07944592 0.06050627 -0.036737066 0.074132696 -0.09187131 0.03045161 -0.15146346
0.16475812 -0.07949116 0.034432672 0.13141915 0.09385453 -0.08432157 0.027236464 0.04077828
-0.06909161 0.022195263 -0.06180057 0.009433044 -0.040830605 -0.14323951 0.06816406 -0.00076865614
-0.08929986 0.015599206 -0.012915723 -0.040876165 0.07169397 -0.09297306 -0.077306494 0.1289638
0.048769187 0.0936308 -0.003425952 0.07400884 0.01669596 0.038934525 -0.12436874 0.018576963
0.010474474 -0.047752045 -0.07769773 -0.02772254 -0.12235247 -0.005490738 0.101654746 0.04407387
0.05997882 -0.08832405 -0.0005779047 -0.073927134 -0.054749627 -0.012613618 0.045331616 0.01588453
-0.04676885 -0.067718424 -0.031600755 0.10673317 -0.025864268 0.054080326 0.12666048 0.041973874
0.17669088 -0.004695724 -0.1095656 -0.08817973 -0.06593348 0.032407183 -0.061522022 -0.003608505
-0.02952586 0.010827124 -0.017031807 -0.024414219 -0.00018286667 -0.06094981 -0.11702327 0.042087503
-0.046232384 0.06178703 0.0077880668 -0.020776466 -0.006486199 -0.10277322 0.109180436 -0.091579825
-0.15602921 -0.10656694 0.058110468 -0.01983275 0.10917391 -0.005279944 0.07272185 0.0659655
0.07464691 -0.14036855 0.02213693 -0.0102885915 0.024226028 0.07837984 0.0065616085 0.019512376
0.11431757 0.0735282 -0.0948854 -0.10056464 -0.08798409 0.10017937 0.12538098 0.055914912
0.0950448 -0.007978961 -0.0087160235 0.12398478 0.10070411 -0.029402787 -0.052107774 0.13072017
0.11855635 -0.069048055 0.000113555485 0.042082597 -0.054619808 0.13239025 -0.019324776 -0.019516116
0.07160068 0.0037448334 0.039198603 -0.1800782 -0.15294264 -0.039743993 0.076243035 -0.02888324
-0.15213263 0.007664361 0.033101875 -0.01023261 -0.038879488 0.060183953 0.057749856 -0.023280084
0.030354673 -0.059384264 -0.05385326 -0.026004765 0.08501467 -0.11071164 0.013610838 0.10700193
-0.16568536 -0.11026187 0.006778192 -0.068518594 0.058958743 0.15699363 -0.017935881 -0.054189023
-0.014566056 -0.100130826 0.12775604 -0.038598627 -0.014181348 -0.01974241 0.09332459 -0.1413034
-0.0117380805 -0.010591289 -0.13270986 -0.04365536 -0.16039592 -0.023169652 -0.0033805245 0.01603289
-0.10710415 -0.13402629 -0.015749894 0.15418458 -0.06687943 -0.124427795 -0.06997112 0.06575762
-0.014573389 0.01032387 -0.020681225 -0.049945295 -0.07417566 0.108371474 -0.055565674 0.032739744
0.114047974 -0.030199412 -0.0633396 -0.06344609 0.061392546 -0.0055409265 -0.17041433 0.10937186
-0.039515868 0.09440862 0.01249835 -0.15710433 -0.14776923 0.021942744 0.002980477 0.07017054
0.06910432 -0.08397601 0.068765 0.100266434 0.05829984 0.007170145 -0.15111229 0.089010544
0.062096473 0.033603672 0.034595456 0.012951341 -0.07924745 0.10866495 0.001048263 -0.08135108
0.13736759 0.16055246 0.012335326 0.08235623 0.08004698 -0.060004793 0.05214062 0.04471087
0.088766485 -0.04698658 -0.072886705 -0.14540845 0.0023431445 0.0164446 0.002877872 0.093128234
0.06620992 0.16794728 -0.04300163 -0.011313411 -0.043055482 -0.0079307845 -0.024981646 0.0021451088
-0.07017273 -0.052934606 -0.023826135 -0.14012697 0.036013957 0.1590208 -0.057743426 -0.044294078

weight f4 [128, 256]
00000000: 0b11 2e3d 017e 043d dd5e 12be 337a 983d
00000010: 1573 2dbe e619 23be b175 32bd 99a0 973c
00000020: e965 363d 411c 4ebd 8b76 ce3d c4a0 173e
00000030: a1ae 5ebe fb74 be3b 8a02 91bd 3928 c43d
00000040: 9a25 553e c5aa e43d 1001 44bd 3c3a 463d
00000050: f776 84bd ad65 36bc 25f8 2abe 59f3 f9bd
00000060: 59a4 1b3e 2a4f 193e 51de 50bb c2ba 28bd
00000070: 7714 943c 448c 5bbd 0db3 673e ac53 42bd
00000080: 0ba2 be3d dc4d 90bd a04c 45be 5827 a8bd
00000090: d95a bdbc 0d87 823c 8323 71be 46ab fe3c
000000a0: 605a 8ebd db49 99bd f5ca 3e3d 794d 633d
000000b0: e434 fdbd 66d7 a7bd ee92 f13b 445d 04bd
000000c0: f5dc ccbd 5dd5 0bbe 1153 72be a31d 45be
000000d0: e877 5bbd 1619 a73c 49a5 83bd 026f 453e
000000e0: 9460 4dbe a30f 45bd e05a 0a3d ee45 5e3e
000000f0: e562 e2bd 88e0 b0bd a030 f23c e466 883e
00000100: 9618 c8ba abbd cfbd 5a01 37be cb14 183e
00000110: d4fa 8a3c da36 c83d be17 53bd 9fc0 afbc
00000120: c334 073e 7a62 033e 8599 49bd d737 44be
00000130: 4c17 b13d 564c 933d 8ff9 e73c 714d 86bc
00000140: eeed 23be 1063 82bc 6a83 76bd 5c89 c23c
00000150: 5a19 8fbd 3407 d13d cda2 93bc d186 8b3c
00000160: 6e5b 343d cdcd 29bc 371b a73d b51b 65bd
00000170: 0049 093e 2f3a acbd 3464 4c3d e83d 82bd
00000180: 132f 12be ac55 da3d 4a6b d1bc 9ffd 193d
00000190: caaf a5bc af99 92bd a79c 143e 7118 843d
000001a0: c242 5bbe 9454 36be ee42 d0bd 66d4 dabd
000001b0: b6d8 10be 527e 1dbd 4b1f 87bd f353 dfbd
000001c0: d1e2 473d 4475 16bd ab8d c3bd 7d02 c5bd
000001d0: e23f 17be 3e07 0cbe 59a9 773c 3f8c 85be
000001e0: ad43 263d e76a a3bc ad46 32be a48e 62bd
000001f0: af0c abbc 7094 41be 7a9f b93c d018 2f3d
00000200: d0e3 cbbd 45f2 4bbe dacd c5bd 228c d5bc
00000210: 1170 b03d 3e22 a4bd 692c d5bd a0ec 2cbd
00000220: 805c 37be b5f1 c3bb f31e c7bd ca8f f0bd
00000230: a9ad 2d3e 8df2 813d 1ad8 a7bd 6001 213d
00000240: 879e 25be 7156 20bd 9faa 933c c807 3d3d
00000250: 227b 86bd 9ca3 093e a65d f43c 6312 4b3d
00000260: 74c7 f0bd fd7f 67bd c68e 54be 5a3e 04be
00000270: 14c1 6cb9 f6f7 5dbd 47a3 50bd a27f ccbd
00000280: 5391 6abe a330 97bd 1eb6 c83c ba32 a2bc
00000290: d320 3e3c c42c 303d 5a24 ccbd 5454 3d3e
000002a0: 861c a0bd 2dba 16be daf5 613d 2bd8 89bc
000002b0: 9587 1e3e 42b5 12be bf5c d33b ac3a d83d
000002c0: b3ae 60bd c3fc 34bc 84e9 86bc e7fd c4bd
000002d0: d391 803d 782a 0ebb dba6 c53c 4896 8dbd
000002e0: aa77 c93c 78d2 bfbd c4c3 2f3d 4119 21be
000002f0: 3430 cebd fd3b f63c 8e00 1dbe 0375 8cbc
00000300: 042a 23be ed88 bcbd b5cc 0abd 532e 883d
00000310: ccbb b1bd bfa1 273d 39ec 633e 8cac d53c
00000320: 3000 38be a6ca bdbd 6fdd 3abd 9900 4e3d
00000330: 8ed5 d83c dd8b 20be 9628 e8bc ac27 ef3d
00000340: b7c7 7d3d cae2 46bc 62d2 b33d d383 383e
00000350: 792b 3e3d 8984 ccbb cc41 34bd da38 85bc
00000360: 6d9d 833c 3f00 6dbb d6d2 8dbd ca5f 00be
00000370: 05b8 3dbb 710f c4bd 52b3 85be 3e5d 5d3c
00000380: f1e0 1d3e a4a8 19be e740 b73d a5fa 82bd
00000390: a257 ef3d a8ac be3d a9b2 8b3c aab7 b23c
000003a0: c86b 3abd b532 8fbd ca41 75bd 0697 44bd
000003b0: bb96 e3bd 49c9 443e 8a30 3ebd 24a8 613d
000003c0: 9f24 26bb 0f40 57be 6b73 f63d 31b5 6bbd
000003d0: 90cf 0ebd eedc f03d f218 a53d 0bc9 92bd
000003e0: 45cc c53d 045f 943d 3788 a83c 5fcf cd3d
000003f0: 75b9 05be 32d5 3ebe c15b e23c f206 7ebe
0.042496722 0.03234673 -0.14294 0.07445183 -0.16938432 -0.15927848 -0.04356927 0.018509196
0.044530783 -0.050319914 0.10081204 0.14807421 -0.21746303 0.005812285 -0.070805624 0.09577984
0.20815125 0.11165384 -0.047852576 0.04839538 -0.06468003 -0.01113264 -0.16696222 -0.12204618
0.15199412 0.14971605 -0.0031870792 -0.04119373 0.018076165 -0.053600565 0.22626896 -0.047443077
0.09308251 -0.070461005 -0.19267511 -0.08210629 -0.023114609 0.015933538 -0.23548703 0.031087529
-0.069508314 -0.0748479 0.046580274 0.055493806 -0.12363604 -0.08195381 0.0073722517 -0.032315508
-0.10003082 -0.1365561 -0.236645 -0.19249587 -0.05358115 0.020397704 -0.0642801 0.19280627
-0.20056373 -0.048110615 0.03377807 0.21706364 -0.11054019 -0.08636576 0.029564202 0.26641
-0.0015266116 -0.10143598 -0.1787161 0.14851682 0.016965307 0.09776087 -0.051536314 -0.021454154
0.13203721 0.12830535 -0.049218673 -0.19161926 0.08647022 0.07192294 0.028317241 -0.016394349
-0.16008732 -0.015916377 -0.06018392 0.023747139 -0.06987257 0.10206452 -0.018021965 0.017032059
0.044032507 -0.010364008 0.08159488 -0.055934627 0.13406754 -0.08409535 0.04990025 -0.06359464
-0.1427577 0.10660872 -0.025563855 0.037595388 -0.020225424 -0.07158219 0.14512883 0.06449974
-0.21412185 -0.17805701 -0.10169016 -0.10685043 -0.14145169 -0.038450547 -0.065977655 -0.10904684
0.048800293 -0.036732927 -0.095485054 -0.09619615 -0.14770463 -0.13674638 0.015116059 -0.26083562
0.040591884 -0.019948436 -0.17409773 -0.055311814 -0.020880071 -0.1890428 0.022659052 0.042748272
-0.09955561 -0.19916637 -0.09658404 -0.026067797 0.08615125 -0.08014344 -0.10408861 -0.04221785
-0.1790638 -0.0059797415 -0.097227 -0.117461756 0.16960777 0.06345091 -0.08195515 0.039307952
-0.16173755 -0.039144937 0.018025694 0.04615 -0.065664545 0.13441318 0.029829811 0.04957808
-0.11756793 -0.056518544 -0.20757589 -0.1291441 -0.00022578641 -0.054191552 -0.050936963 -0.099852815
-0.22907 -0.073823236 0.024500903 -0.019799579 0.011604506 0.04301144 -0.09967871 0.184892
-0.078179404 -0.14719458 0.055166103 -0.01682671 0.15481408 -0.14326957 0.006450265 0.10558066
-0.054854106 -0.011046591 -0.01646877 -0.096187405 0.06277814 -0.0021692794 0.024127414 -0.069134295
0.024593193 -0.093663156 0.042911306 -0.1573229 -0.10067788 0.030057902 -0.15332243 -0.01714564
-0.15933996 -0.09205804 -0.03388663 0.06649461 -0.086783975 0.040925737 0.2225808 0.026083253
-0.17968822 -0.09267168 -0.04562133 0.05029354 0.026469018 -0.15678354 -0.028339665 0.11677489
0.06195804 -0.012139032 0.08780362 0.18019037 0.046428178 -0.0062413854 -0.04400806 -0.01626246
0.016066277 -0.0036163477 -0.069249794 -0.1253654 -0.0028948796 -0.09573258 -0.26113373 0.013511
0.1541784 -0.15005738 0.08947926 -0.06395463 0.116866365 0.09310275 0.017052965 0.021816093
-0.045512944 -0.069920935 -0.059877194 -0.04799559 -0.11112734 0.19217409 -0.04643301 0.055091992
-0.0025351418 -0.2102053 0.12033733 -0.057545844 -0.034865916 0.11760889 0.080613986 -0.07167252
0.09658102 0.07244685 0.020572765 0.100493185 -0.13059027 -0.18636015 0.027631642 -0.24807337

bias f4 [128]
00000000: 7933 d1bd a3e6 3dbd 7a57 5abd 3647 f8bd
00000010: cd50 afbc f48c eebd 8a7d 9ebb 7f92 89be
00000020: ff08 51be 8de5 79bc cd5b 96bd 040e 1ebe
00000030: bf4f c2bd f20b 9abe 69c9 10be e5a3 97bd
00000040: 27d5 0fbc daa8 f5bd b809 88be d5a6 09be
00000050: 4a8e 13bd 96ad 26be 873a 89be ad40 52be
00000060: 1578 dabd 20b1 86bd 41f4 aebc f8ea 143d
00000070: b44c fcbd 6612 21be 3ec4 05bc 5cd6 45be
00000080: 4d76 d33b ed3e 23be bc94 2f3c 435b 0bbd
00000090: bd90 b23c dec1 c5bd e348 a93d 9f29 febd
000000a0: 3dba bbbd cb12 14be 4fd2 98bd 40fd bdbd
000000b0: f543 1abd 07ab 343d 5858 dcbd b4d1 91bd
000000c0: 00aa 12bc bfca 2fbe dcea f9bd c52c 553d
000000d0: 36f8 18be 91a4 23be 86af 48bd da25 c5be
000000e0: fbae c3bb d749 9ebd b0f1 e3bc 6aa8 a7bd
000000f0: 580c 4bbc f55c 58bd 0007 f7bc 73a9 66bd
00000100: 82ea df3c bbfd eebc 30b3 c2bc 270d d1bd
00000110: 877a 42be 616e b9bc bc11 d4bb 9c5b 3cbe
00000120: 3fb1 bebc d053 8e3c df83 1abe 8e5c f83c
00000130: 2ea2 edbd c3d8 a9bd da0f 48bc c1f1 1cbd
00000140: db65 38be 1342 88be c4dc b0bc 5209 a2bd
00000150: c9c6 1cbd de7b cebd b5a3 9fbd f0d0 0ebe
00000160: 8090 26be e22a 1bbe b90b 18bc 85c7 9dbe
00000170: d72a e1bc cd76 d1bd 6774 75bd b354 00be
00000180: 0f86 f53c f03d c0bd 07db 97bc 7869 9e3c
00000190: e36d e8bd 5396 393c 6fa7 3fbe dd05 cdbd
000001a0: bceb c5bd 32cb 22bb 2d3d 5abe 2e1d f6bd
000001b0: 341d 51be 5212 dcbd 4651 05bd ae3b 9bbd
000001c0: 6daf 09be ca49 f9bd 2b2b 23be 905b d8bd
000001d0: 8dab e0bd 61ca a7bd 40c0 69bb bc4f 8cbd
000001e0: a5f2 fbbc d6a8 31bc e3fc 393c c36a d9bd
000001f0: 4f20 babd bafc c1bd 84dc f9bd 4ba1 09bd
-0.10214896 -0.04636253 -0.05330608 -0.121229574 -0.021400834 -0.116479784 -0.0048367428 -0.2686958
-0.20413588 -0.015252483 -0.07341728 -0.15435034 -0.094878666 -0.3008724 -0.14139332 -0.07404307
-0.008778847 -0.119950965 -0.26569915 -0.13442548 -0.03602437 -0.16277155 -0.26802465 -0.20532484
-0.10667435 -0.06576753 -0.021356704 0.036356896 -0.123193175 -0.15729675 -0.008164464 -0.19320053
0.0064533115 -0.15941973 0.010716613 -0.03402258 0.021797532 -0.09656118 0.08265855 -0.12410282
-0.091663815 -0.14460294 -0.07461988 -0.09276819 -0.037662465 0.044108417 -0.10759038 -0.07120076
-0.008951664 -0.17167185 -0.12202999 0.05204465 -0.14938435 -0.15980746 -0.048995517 -0.3850544
-0.005971787 -0.077289276 -0.027825207 -0.08186419 -0.01239308 -0.052823026 -0.030154705 -0.056313943
0.027333502 -0.029173722 -0.023767084 -0.10207587 -0.18992053 -0.02263564 -0.0064718407 -0.18394321
-0.023277877 0.01737395 -0.15089367 0.030317571 -0.11603199 -0.08293297 -0.012210811 -0.038316492
-0.18007605 -0.2661291 -0.021589644 -0.07911934 -0.038275514 -0.100822195 -0.077948965 -0.13946891
-0.1626606 -0.15153077 -0.009280139 -0.30816284 -0.027486248 -0.102277376 -0.059925463 -0.1253231
0.02997115 -0.09386814 -0.018537058 0.0193374 -0.11349084 0.011327344 -0.18716215 -0.10010884
-0.096641034 -0.0024840352 -0.21312399 -0.12017284 -0.20421296 -0.10745682 -0.03254821 -0.07579742
-0.13445826 -0.12172277 -0.15934436 -0.10564339 -0.10970221 -0.081928976 -0.0035667568 -0.068511456
-0.03075535 -0.010843476 0.011351797 -0.10616066 -0.090881936 -0.09472032 -0.12200263 -0.033601087

weight f4 [64, 128]
00000000: 720a 14be d179 0cbc 5739 64bb 16c9 2fbc
00000010: d994 91bd 6612 31be 6402 f0bb ae7d 5abc
00000020: cfdd 7b3b 1705 41bc 3da2 2d3e 728b 78bd
00000030: f06b 89bc 9934 d43c 5abe 343c 598e c9bd
00000040: 66c4 eabc 814b 86bd 53ca 9c3d 0ad1 b93c
00000050: 8491 4c3d e3a6 c8bc d2c7 a6bc e97c 9d3d
00000060: efbe 01bd c31d 043c e823 d13c c863 3e3c
00000070: e2ce 7a3c d66a b1bc a4d6 883d 11a9 58bd
00000080: 8f8c 843d f06f 0fbc 6714 1a3d 1f27 65bd
00000090: bb21 54bd a39a 29bd 4264 97bd f426 45bd
000000a0: 8269 1fbd e028 00be 1428 37bd 091b 35bd
000000b0: acf6 433c 1529 e33c 218d 67bd c45b 1bbe
000000c0: 52d2 14ba 5407 943a 46c8 6bbd c528 bdbc
000000d0: c45f 80bd 1668 b93d 8ac5 41bd b617 8e3d
000000e0: 3b0e fb3b ed69 2f3d 86f4 ccbc 33a4 443c
000000f0: e037 433d b627 96bd 0ed1 1dbe 5aad 303d
00000100: aded 3abd b571 b93d d0b1 d53d ae49 acbc
00000110: 6184 553d 9333 503d 5d96 abbd dd14 55bd
00000120: 42e1 0dbe cdd9 fd3c c4ac 5bbd 66bb 34bd
00000130: 00bc 73bd 1aae 773d 42f5 2d3d 91a3 ef3d
00000140: 11a8 133e a13c c0bd 2adf e4bb 6cb1 07be
00000150: 1987 05be 3dd7 ee3b 86bf 2fbd ab76 02bc
00000160: a48b 1dbc 7f57 c0bc 39b1 363c de23 b03d
00000170: 1a5f e3bd f105 873d 2f15 e6bd 5b43 e6bd
00000180: 6958 5fbd c459 efbc 3161 a73d ae58 0ebd
00000190: 8f32 92bd 8744 3b3c 7898 81bc 5b51 c6bd
000001a0: 374f a2bd 603f 2c3d dab8 8a3d 06ee 11be
000001b0: 4c70 f03d 4082 103d 8728 47bd 5003 2dbd
000001c0: 930f 29be d26a 8839 839f 38be df25 30bd
000001d0: 135d 8bbd c201 ddbd 8dce be3d 19f5 03bb
000001e0: 79ec d9bd e6d6 4abc 3500 79bd dfbc 3fbd
000001f0: 9273 8fbd bb7d cdbd d03d 60bc 12ab 0bbe
00000200: 6baf d23c 2da8 acbd df98 233c 4556 f23d
00000210: 4901 47be ff9a 4bbd 6e14 9a3d 9760 1b3e
00000220: cddf 1cbd bd0f 21bd 05a1 d2bd 87ba 14bd
00000230: 4787 aabd 36bf 3c3e e410 a93c a5b8 42be
00000240: d95e 103e 0bd3 053e f50c 523e fc90 ac3d
00000250: 9afa a0bc 3b2e f73d f41e be3d ca29 263e
00000260: 3bb5 b7bd aa3c 99bc 9a70 223d bff5 d0bd
00000270: eea2 a63d 7478 dfbd a527 03be f292 36bd
00000280: 03ca edbd 2d8a 38be 1162 17be 1bc2 0bbc
00000290: 8e34 49bd 239c 43bd 61d3 d9bd fd36 1ebc
000002a0: ad92 1fbd 9282 d23d db21 413d b9dc 213d
000002b0: b200 47be 7889 183b e472 42be 2e15 5cbe
000002c0: 6acd b53c 5166 853d 6144 03bd 61a1 1ebe
000002d0: 28f2 9c3d e374 00bd f426 a63d 18e0 9cbd
000002e0: e4ed 603d 8112 02be 3a6d c9bd ca1a 81bd
000002f0: bf2f cfbd ef7c c0bc f57f 023e 611c 913c
00000300: ee85 c7ba 6d0c 0a3d a7bd 07be d58b 42be
00000310: f619 90be e113 fabd ad49 4cbd f805 cf3d
00000320: c24c 93bd 2e9b 893d fe58 e83d 29d4 36bc
00000330: 0466 63bd 8e31 473e cded 153d fea1 afbd
00000340: d065 61be bb42 c73d 9f56 cb3d 3d33 03bc
00000350: 1972 473c 724b 353e 4bfe 4cbe 1dca bf3c
00000360: be48 5d3d 2755 e0bd 1de5 11bb 56eb 543e
00000370: ca50 25ba 04f5 093e 2cbb 713e 12fe e0bd
00000380: a8c2 2cbe b3bd 8f3d eae2 eebd 3f7a b23c
00000390: a790 e13c 6d79 acbd 1ed8 f7bc d8a4 263e
000003a0: 287f 483d 5157 823d 2a1f 40bc 3ba2 43be
000003b0: 2971 b2bc 2127 d9bc d381 2cbd d4a9 e7bb
000003c0: 01ae 18be 18ce 94bc 2257 b3bd 6cbb 94bd
000003d0: e8a9 333d 1dfb 593d 93e3 16be b02d f9bc
000003e0: acfc 73bb 75e6 733d f455 3c3d 6d62 27bd
000003f0: 0430 f8bd f0be 0f3d 2e13 6a3e b86f 4bbe
-0.1445711 -0.008573965 -0.0034824216 -0.010729095 -0.071084686 -0.17292175 -0.0073245037 -0.013335628
0.0038431769 -0.011780999 0.1695642 -0.06067986 -0.016775101 0.025903987 0.0110317115 -0.09841604
-0.028658103 -0.0655737 0.07655778 0.022682685 0.049943462 -0.02449364 -0.020358954 0.0768984
-0.03167623 0.008063736 0.025529817 0.011620469 0.015308114 -0.021657389 0.066815645 -0.05289561
0.06472122 -0.008754715 0.037617113 -0.055945512 -0.05178998 -0.04140724 -0.073921695 -0.04813285
-0.03891898 -0.12515593 -0.044715956 -0.044215236 0.011960667 0.02772955 -0.056531075 -0.15171725
-0.0005677092 0.0011293688 -0.057564043 -0.02309073 -0.06268266 0.09053056 -0.04730753 0.06938116
0.0076616085 0.042825628 -0.025018942 0.012002039 0.04766071 -0.07331793 -0.1541178 0.04313407
-0.04563682 0.09054891 0.10434306 -0.021031227 0.0521282 0.050830435 -0.08378289 -0.05202185
-0.1385546 0.030987645 -0.05363156 -0.04412403 -0.059505463 0.06046877 0.042470224 0.1170112
0.14419581 -0.09386564 -0.006984611 -0.13251275 -0.13039817 0.007288842 -0.04290726 -0.007962863
-0.009615812 -0.023479221 0.011150652 0.08600591 -0.111021236 0.0659293 -0.11234509 -0.11243316
-0.054527674 -0.029217608 0.08172835 -0.03475254 -0.071385495 0.011429912 -0.015819773 -0.09683486
-0.07925265 0.042052627 0.06773539 -0.14250955 0.11740169 0.035280466 -0.048622634 -0.042239487
-0.16509847 0.0002601953 -0.18029599 -0.043004867 -0.06804862 -0.10791351 0.0931674 -0.0020135103
-0.10640807 -0.012380337 -0.060791213 -0.04681098 -0.07004465 -0.10033747 -0.013686612 -0.13639477
0.025718411 -0.084305145 0.009985178 0.11832861 -0.19434084 -0.049708363 0.07523428 0.15173565
-0.03829937 -0.03932165 -0.10284618 -0.0363107 -0.08326583 0.18432316 0.020637937 -0.19015749
0.14098682 0.13068788 0.20512755 0.08426091 -0.019650746 0.12069365 0.092832476 0.16226879
-0.08970114 -0.018705685 0.039658166 -0.10203122 0.08136545 -0.109116465 -0.12808092 -0.04457373
-0.11610796 -0.1802146 -0.14783503 -0.008530165 -0.049122386 -0.047756325 -0.106360205 -0.009656665
-0.03895824 0.102788106 0.047151428 0.03951714 -0.19433859 0.0023275297 -0.1898914 -0.21492454
0.022192676 0.06513656 -0.032047633 -0.15491249 0.07663375 -0.03136147 0.081128985 -0.0765993
0.05491437 -0.12702371 -0.098352864 -0.06303938 -0.10116529 -0.023497073 0.12744124 0.017713727
-0.0015222409 0.033703256 -0.1325594 -0.18998654 -0.28144807 -0.12210823 -0.04987495 0.1010856
-0.07192375 0.06719051 0.11345099 -0.011158981 -0.05551721 0.19452497 0.036603738 -0.085758194
-0.22011495 0.09729525 0.09928631 -0.008007822 0.012173199 0.17704561 -0.2001888 0.023411805
0.05402445 -0.109537415 -0.0022261806 0.20792899 -0.0006306289 0.13472372 0.23606557 -0.1098596
-0.1687113 0.07018604 -0.11664374 0.021786807 0.027534796 -0.08421598 -0.03025442 0.1627382
0.04894939 0.063643105 -0.01172618 -0.19104855 -0.021782475 -0.026507916 -0.042115998 -0.0070698056
-0.14910127 -0.01816468 -0.08756854 -0.072623104 0.043863207 0.053217996 -0.1473525 -0.030417293
-0.0037229462 0.059545953 0.04598041 -0.04086535 -0.12118533 0.0350942 0.22858879 -0.19866836

bias f4 [64]
00000000: d90f 83bd 6446 cfbd ee01 433c f6a0 03be
00000010: aaea 84bd e28c 3bbd cf4b e1bd e9ea 50bd
00000020: bc2d 9dbc 3ade 4cbe 2a76 70bd 1d32 23be
00000030: cfe9 1bbe 58f3 a6bd e01a 2abe 5126 8ebe
00000040: db9c 1bbe 018f e0bd ec91 91bc cfc8 adbc
00000050: e458 59be 8ea4 91bd a2ba 8fbd 7e80 f4bd
00000060: 5bce 9cbe a30e bfbd 1a59 dabd bf73 9ebd
00000070: 3283 2a3c d660 15be 832b b2bd 12cd 9abd
00000080: 8944 42be 669b 9dbd 8572 d83c 9824 50bc
00000090: 570a 4ebd 1c9b 76be 51a1 99bd be2c cbbd
000000a0: 5e61 a63c 6325 dfbd 435a a5bd 0c68 0bbe
000000b0: 69eb 91bc 86f6 f0bd 9a3a fabc c5e9 60be
000000c0: d445 cebd ab23 ddbd 5e82 bdbc ea33 e7bc
000000d0: c8c9 b8bd 494e 25bd 4295 a8bd 430a 3abe
000000e0: d29c 8cbc 79da acbd 789a 06be e389 30be
000000f0: df99 13bd dd74 6abe cd2c 0bbe 1d5f 3cbd
-0.06399507 -0.10120848 0.011902316 -0.1285437 -0.06490071 -0.045788653 -0.110007875 -0.051005278
-0.019186847 -0.20006648 -0.05870644 -0.15937085 -0.1522591 -0.08151883 -0.16611814 -0.27763608
-0.15196554 -0.10964776 -0.017769776 -0.021213917 -0.21225315 -0.071114644 -0.07018019 -0.119385704
-0.30626187 -0.093289636 -0.10661526 -0.077369206 0.010407256 -0.14587721 -0.086997055 -0.07558645
-0.18971457 -0.076956555 0.026421795 -0.012704037 -0.05030283 -0.24082607 -0.07501472 -0.09920643
0.0203101 -0.10895803 -0.08073857 -0.1361391 -0.017812448 -0.117657706 -0.030545522 -0.21964176
-0.100719124 -0.10797819 -0.023133453 -0.028222997 -0.09022862 -0.04035786 -0.08231594 -0.18167977
-0.017164622 -0.08440108 -0.13144863 -0.172401 -0.036035415 -0.22896142 -0.13591309 -0.045989145

weight f4 [7, 64]
00000000: 4f57 55bd 5d1e b53a 27a1 1abc 8d38 c33d
00000010: 7acb a83d 1fea 843c d016 1abc 8767 12bd
00000020: 89d9 a33d b38b 693c 7618 a2bc 1462 40bd
00000030: 08ca a1bc 0871 d9bc fb6c 14bd 05d3 22bb
00000040: de7c b7bc 107f bfbc 13f2 0dbd d2a0 d53c
00000050: 422b 743d 3fef a2bc 0981 40bc 9f34 bb3a
00000060: 3cf5 3bbd b16b 21bd a708 b6bb b62b 793c
00000070: 7953 d13b c0ff e4bb 1c3f 03bd 14f5 913c
00000080: 29d6 b5bb 4460 35bd 34ac 4d3d d382 64bb
00000090: c1a8 e83b 6f8b 50bc 357e c9bb 6718 97bc
000000a0: 0d6e 123d 87e7 69bd 3648 503c 4187 d7bc
000000b0: 462a e5bb 2e65 35bd cb2b 4cbb 0647 ee3c
000000c0: 23e6 4f3d 088b 02bc 7898 51bd a08f 0f3c
000000d0: a822 9e3b e61e d5ba 1bc6 9a3d 2e96 cbbc
000000e0: 0380 11bd b7c3 e6bc a779 87bd 26f7 8e3d
000000f0: e817 a6bb c3b8 f5bc d208 dabc 8ddb 0c3d
00000100: 76be 923d 0697 93bb a403 c4bb e82c edbd
00000110: cc84 da3b 6eb4 11bd 8ab8 b23c d9c7 53bd
00000120: 8fc2 0d3d 9cda ab3d 953c c63c ade3 bc3d
00000130: 843e 4d3d 033c 253d 6c79 2d3d b959 9b3c
00000140: 5c87 2f3d c34c 383d b5f0 c13c cc2a a73c
00000150: 8159 5c3d d0e7 c23c c047 9bbd 3f84 f5bd
00000160: 78d3 9e3b 8a4d 513d 5f9b 7f3c 3a9b 223c
00000170: ab61 fa3c 4efd 75bd d72e 87bd d829 593b
00000180: 68d3 da3c dda7 a3bb b7f9 cfbc 4035 203d
00000190: b9c9 8e3d aa32 843c 04d0 943c a5b0 8d3c
000001a0: 1d57 ab3c 4b34 963c 8822 3c3c 3703 743d
000001b0: 1390 e53a b185 693d c04b 02bd 5a9d d33c
000001c0: e13b ae3c 7749 0ebc 12f3 843d 264b b4bc
000001d0: e6be a1bb 07d0 f13c c2c4 c9bc 24c4 55bd
000001e0: 7d6d 833c f961 dd3c 3448 183d d56a 72bd
000001f0: 2ec6 973a 325b 7b3d ec7b 383d 6821 1cbd
00000200: 4f8a 45bd 4645 b13d 6482 52bb 1d25 b4bb
00000210: 5dfb 0d3d af73 853c ffd8 eabc 85fb 97bd
00000220: 89e6 c0ba e76f ca3c 086e afbc 356c ecbc
00000230: 9f79 d1b9 6b93 3fbc 9332 3fbd 2b06 473d
00000240: cdac 473d bb80 80bd d02a 073d bc30 62bc
00000250: c103 183c 81e7 ff3c 9d06 cbbc a31d 90bc
00000260: c36e c9bc 8f56 4b3d 6846 1abd 7614 cbbc
00000270: 7a55 a43b a550 84bd 8ad5 97bd 625b abbb
00000280: 624a a7bd 4599 063d fe7e a13d b22e e3bb
00000290: 6e4f c13d b607 30bd d928 f6bc 48fc 1cbb
000002a0: 1c4d 5e3d dd89 d03b 3176 9bbc ff7c 1c3d
000002b0: 4152 9a3c f4c7 32bc 18eb 7cbd 1b62 c33b
000002c0: 0e90 2dbc 7353 633b fbb2 16bd 5db2 193d
000002d0: 274a 533c 9066 0b3d 1f71 0dbc d769 683b
000002e0: 6025 b4bc 7cf6 9a3c 2863 383c 6953 013d
000002f0: 3096 f33d b80c 653c a7f7 21bd 0492 e23b
00000300: 0f26 303c 18f6 b33c 42c6 acbc 1780 303d
00000310: 3652 713b 1890 2dbc 710c 26bd b6cc a23c
00000320: 45d6 66bc dc85 ebbc c888 dbb9 0e79 8bbd
00000330: 4fc7 0fbc 2693 99bc 7284 fb3b 92c1 003d
00000340: 7305 a8bc b115 923c 3f7d 59bc 1f64 1f3d
00000350: c748 6c3d 1dff ac3c 898e 8eba 9d0e 7dbc
00000360: f51c 89bd 1375 4abd 0ea1 283d 8d73 31bd
00000370: 14e1 e9bc 8095 d3bd 9df3 bdbd 8c9c 343a
00000380: 86e2 2dbd bdae eaba 3ed9 ea3c 9118 fb3b
00000390: b0f0 d7bc aa82 f2bd c5eb b13b 9b78 753c
000003a0: 86b1 1b3d 983e 3dbd 4d1d 24bd 5f59 c0bc
000003b0: c7e7 72bc ce26 973c 559e 13bd 059d 2cbd
000003c0: de2d fbbb 2350 1e3b 92d8 7c3c 6a8c f1ba
000003d0: 78be d0bc c7bf 16bd 02fd 2b3e fe58 3d3c
000003e0: 988b c0bc 81cd b6bc 24c8 dd3c fbc9 6e3b
000003f0: 1cf6 06bc 7e78 0bbd 7a7b 12bd b86e 7f3b
-0.052085217 0.0013818253 -0.009437836 0.095322706 0.08241935 0.016224919 -0.009404853 -0.035743263
0.08000476 0.014254498 -0.019787055 -0.046968535 -0.019749656 -0.026543155 -0.036236744 -0.0024845016
-0.022398409 -0.023376018 -0.034654688 0.026077662 0.059611566 -0.019889472 -0.011749514 0.001428265
-0.04588817 -0.039409343 -0.0055552307 0.015208175 0.0063881245 -0.0069884956 -0.032042608 0.017817058
-0.0055492115 -0.04428126 0.050213054 -0.0034868016 0.007100195 -0.012728556 -0.0061490783 -0.018444253
0.035749484 -0.057105567 0.012712529 -0.026309611 -0.006993565 -0.044285946 -0.0031154032 0.029086601
0.050756585 -0.007967718 -0.051170796 0.00876227 0.0048259087 -0.0016259819 0.07557317 -0.024851885
-0.035522472 -0.028169496 -0.06615 0.069807336 -0.005068768 -0.029995328 -0.026615534 0.034389067
0.07165234 -0.0045040874 -0.0059818793 -0.11580831 0.0066686627 -0.03557246 0.02181651 -0.05170426
0.034609374 0.08391306 0.02419881 0.09223113 0.050108448 0.040340435 0.042352125 0.018963682
0.042853698 0.04499508 0.023674348 0.02040615 0.053796295 0.023792177 -0.075820446 -0.119881146
0.0048469864 0.051099338 0.015601008 0.009924704 0.03056415 -0.060056023 -0.06600731 0.0033136513
0.026712134 -0.004994376 -0.025387628 0.039113283 0.06972069 0.01613744 0.018165596 0.017296145
0.020915562 0.018335482 0.011482842 0.05957338 0.0017514251 0.057012264 -0.031810522 0.025831867
0.021268787 -0.008684508 0.064916745 -0.02200849 -0.004936087 0.02951814 -0.024629954 -0.052189007
0.016043419 0.027024256 0.037178233 -0.059183914 0.0011579448 0.061366268 0.045040056 -0.038117796
-0.048227604 0.08655791 -0.0032121176 -0.0054975883 0.034663547 0.016290514 -0.028667925 -0.074210204
-0.0014717142 0.024711562 -0.021414772 -0.02886019 -0.000399542 -0.011692862 -0.04667909 0.048589867
0.04874878 -0.062745534 0.032999814 -0.0138055645 0.009278239 0.03123832 -0.024783427 -0.017592257
-0.024588948 0.049643096 -0.0376648 -0.02479003 0.0050150724 -0.06460694 -0.07413776 -0.0052293995
-0.08168484 0.032861013 0.0788555 -0.0069330567 0.09438978 -0.042976104 -0.030048775 -0.0023954082
0.054272756 0.006364091 -0.018977256 0.038205143 0.01883805 -0.01091193 -0.06174764 0.005962623
-0.010593427 0.003468719 -0.036791783 0.037523616 0.012896097 0.034033358 -0.008632927 0.0035463476
-0.021990478 0.018916361 0.011254109 0.031573687 0.1189388 0.013980083 -0.03954282 0.006914379
0.010751261 0.021967933 -0.02109063 0.043090906 0.0036822683 -0.010593437 -0.04053921 0.019873004
-0.014089172 -0.028750353 -0.00041872845 -0.06810199 -0.008775546 -0.018746924 0.007675701 0.031434603
-0.02051041 0.017832609 -0.01327449 0.038913842 0.057686593 0.021117741 -0.0010876219 -0.015445379
-0.06694976 -0.049428057 0.04116922 -0.04332309 -0.028549708 -0.10331249 -0.09274981 0.00068897824
-0.042452358 -0.0017904859 0.028668042 0.0076628407 -0.026359886 -0.118413284 0.0054297172 0.014982368
0.038011096 -0.046202272 -0.040067006 -0.023480115 -0.014825768 0.01845112 -0.03603967 -0.042141933
-0.00766538 0.0024156652 0.015432494 -0.0018428687 -0.025481448 -0.036803987 0.16795734 0.011556862
-0.023504063 -0.022314789 0.027072974 0.0036436308 -0.008237388 -0.034050457 -0.035762288 0.0038975906

bias f4 [7]
00000000: 0044 eebd 7af8 4d3d b26f 12be de1d 03be
00000010: a920 4cbd c6bd 8ebd b570 81bd
-0.11634064 0.050285794 -0.14300421 -0.12804362 -0.049835835 -0.0696979 -0.06320325
